checkpoints/checkpoint_per_agent0__actor.pth (torch_old, 159264 bytes, 6 tensors)

fc1.weight f4 [256, 24]
000000 e0 a2 11 3e b9 91 99 3d c2 9a b3 bc ff c1 c6 bd
       0.14222288 0.074984975 -0.02192438 -0.097049706
000010 4d 6d 72 3e 46 1a 6c bc 1e 60 8e bc 02 2b a4 bc
       0.23674507 -0.014410561 -0.017379817 -0.020040039
000020 05 4e b5 3c dc 7c a7 3d 5f b5 30 bd a9 4d 05 be
       0.02213193 0.08178112 -0.04314172 -0.13017906
000030 2c cb 59 3e a5 b0 c8 3d f8 f0 9a 3c e3 a8 9d bd
       0.2126891 0.09799317 0.018913731 -0.07698228
000040 a5 ba 72 3c 8f 4d 0c 3d 91 44 47 bd c0 44 00 bd
       0.014815007 0.034253653 -0.048649374 -0.031315565
000050 7a ca a5 3c 68 fe 21 3e 0f 41 89 3c aa a3 9c bd
       0.02023815 0.15819705 0.016754655 -0.07648404
000060 09 1f 31 3d e3 cd 33 3d 80 54 67 bd 44 96 ff 3d
       0.043242488 0.04389752 -0.05647707 0.12479833
000070 d9 f4 f7 3c 70 56 5e 3b 11 71 44 bd 87 3e 03 3d
       0.03026812 0.0033926032 -0.04795939 0.032042053
000080 cb d7 b2 3c d1 83 bb bc d3 e6 89 bb 0c ed b3 3d
       0.021831414 -0.022890003 -0.0042084246 0.087854475
000090 c5 a2 91 bc 87 ef 11 3d 85 78 53 bd ec 87 c8 3d
       -0.01777781 0.03562882 -0.05162861 0.0979155
0000a0 50 50 01 3d b4 8a b4 bd 1a 28 aa bd 0d b3 86 3c
       0.031570733 -0.08815518 -0.0830843 0.0164428
0000b0 e4 7f 97 3c 58 dd de 3d 4a 1e 1b bd bf 2f b3 bc
       0.0184936 0.10882062 -0.037870683 -0.021873353
0000c0 32 cb 8e bd ee ec 3c 3d b5 ec 63 3d f4 f7 49 bd
       -0.0697235 0.04612439 0.055645663 -0.049308732
0000d0 ef 2d 9f bd 6d 11 b5 bd 0e 29 de bc d0 7d d3 bd
       -0.07772433 -0.08841214 -0.027119186 -0.10326731
0000e0 44 e1 3e 3b ed c5 b4 3c fe 0b 7f bd 5e 93 25 be
       0.0029125968 0.022067035 -0.062267296 -0.16169497
0000f0 85 b2 8e 3b d7 d9 14 bd e0 77 30 bd a8 43 11 be
       0.0043547773 -0.03634056 -0.04308307 -0.14185965
000100 26 80 04 bd 40 93 15 bd c5 61 3c bd cb ca d2 bd
       -0.032348774 -0.03651738 -0.045991678 -0.10292586
000110 d4 48 a5 3d 1c 3d d2 3d 74 83 cb 39 66 c1 e3 bc
       0.080705315 0.10265562 0.00038817117 -0.02780218
000120 c1 d5 2d bd 97 64 80 3a 1f 7a e2 3c 8f 03 70 bd
       -0.04244018 0.0009795603 0.027646123 -0.058597144
000130 f5 e9 ca 3b c9 f2 1a 3e 14 ce 52 3d 03 43 86 bd
       0.0061924406 0.15131678 0.051466063 -0.0655575
000140 c6 70 9d bd 05 ab 8e bc 4b 15 f9 bc 77 a1 64 bc
       -0.076875255 -0.017415533 -0.030405661 -0.013954512
000150 0b 1e b7 3d 5a 6d 74 3d 47 c5 03 3c 83 1f 6d 3d
       0.08941277 0.0596746 0.00804264 0.05789138
000160 3c 89 e8 bc 75 f4 fc 3b a4 6d 02 bd e7 b9 4b 3d
       -0.028385751 0.0077195712 -0.031842843 0.049737837
000170 6c fa 09 3e ac ca 59 3c 4d 61 84 3d ab 65 a2 3d
       0.13474435 0.01329295 0.06463871 0.07929548
000180 63 ca cb bd 0d 1c d9 bd 55 7e 89 3d 65 26 8b 3d
       -0.099507116 -0.106010534 0.06713549 0.067944326
000190 79 4d f0 3c b4 d9 32 be 79 23 1e bd fa 9a 8c bb
       0.029333817 -0.1746586 -0.038608048 -0.0042909356
0001a0 8b df b0 bd e1 60 77 bd 1f 61 a0 3c 86 2f db bc
       -0.086363874 -0.060395125 0.019577561 -0.02675606
0001b0 31 ec a4 3d 42 b5 b2 3c 9b 3b 2a 3d 8f 1c 26 3d
       0.080528624 0.021814946 0.04156075 0.04055458
0001c0 dd 23 b9 3a c1 01 2c bc 76 41 21 3c cc 1d 2c bc
       0.0014125068 -0.010498465 0.009842267 -0.010505151
0001d0 15 58 2a bd 5b 8b 85 3e cf 98 46 3d 34 8a 6c 3d
       -0.041587908 0.26082882 0.048485573 0.05774899
0001e0 49 24 2c bd a6 aa 59 bc b2 33 c1 bc 33 75 9d 3c
       -0.04202679 -0.013285315 -0.02358422 0.019220924
0001f0 77 14 a2 bc 8a 52 3b be 15 c3 5f 3d 75 64 19 3d
       -0.019785149 -0.18293205 0.054629404 0.03744932
000200 40 b3 9b bd 60 bb 50 bb 65 b3 f9 ba d4 d1 ee bc
       -0.076025486 -0.0031849965 -0.0019050656 -0.029152788
000210 88 cd 5b bd 6e 5d 6b 3d 1e 88 86 3d fe 44 50 bb
       -0.053662807 0.05746215 0.06568931 -0.0031779404
000220 39 16 0e bd 4a 6a d0 bd ee ce c2 3c d8 14 f5 39
       -0.034689162 -0.10176523 0.023780312 0.0004674557
000230 d1 7b d0 3c cd 07 af 3e 78 29 03 3d ac c4 d2 bc
       0.025449665 0.3418564 0.03202197 -0.025728546
000240 73 2e bf bd 98 ae 11 3d bc e2 ac ba 72 e0 f4 3c
       -0.09335031 0.035566896 -0.0013190131 0.02989218
000250 27 59 c6 3c cf 45 94 3d 41 0a d6 3c e7 97 f4 3d
       0.024212433 0.072398774 0.026127936 0.119430356
000260 13 de 0c 3b a9 7f 15 3c 51 7a 0b 3c 93 8d 19 3d
       0.0021494671 0.009124675 0.008513049 0.03748853
000270 2e 3f fb bc 84 16 20 ba 68 95 50 bc bb 49 3b 3d
       -0.030669775 -0.0006106871 -0.012730934 0.04572461
000280 7f a0 5c bd 7f fb 8c 3b 8b d0 60 3c ec de 1f 3d
       -0.053864 0.0043024416 0.0137215955 0.039030954
000290 18 20 53 3d e8 e3 ad be 20 2c 3f 3c 24 f1 8e 3d
       0.05154428 -0.3396294 0.011668235 0.06979588
0002a0 9e bb 6d 3d b6 e4 11 3c 2a af a2 bd 29 61 02 3d
       0.058040254 0.008904627 -0.07943566 0.03183094
0002b0 65 5a c7 3d 0e 56 a4 bc 35 0b 53 bd db 14 65 bc
       0.09734038 -0.020060565 -0.05152436 -0.013982023
0002c0 a9 28 f7 3c 30 ea 46 3d 25 e7 9e bd a7 b6 53 bd
       0.030170755 0.048563182 -0.07758931 -0.051687863
0002d0 3b cb 54 3d ec cd 17 3e 97 6f 83 bd d1 f6 34 bd
       0.05195163 0.14824647 -0.064177684 -0.044180695
0002e0 e0 e8 43 3d c5 fc a7 3c 85 2a 3b bd 25 d2 1d bd
       0.04782951 0.020506272 -0.045694847 -0.038530488
0002f0 0c ab 2f 3d 47 18 1b 3e 09 be fc 3c 3c a5 6d bd
       0.042887732 0.1514598 0.030852335 -0.058018908
000300 d3 31 b4 bd 06 bd c5 3c 65 b4 82 3d df 71 51 3d
       -0.08798566 0.024137985 0.06382064 0.051133987
000310 73 1b 0b bd 48 74 df 3d 05 bb 87 3d f9 1b d3 3c
       -0.033961724 0.10910851 0.06627468 0.025770174
000320 d1 24 f7 bb 0e 5b 1e 3c 3c ba 00 3d 45 9e cb bd
       -0.0075422307 0.009665264 0.031427607 -0.09942297
000330 c6 9f 31 3d ac 0e 02 3e dd 85 53 3d 38 f2 98 bd
       0.043365262 0.1270091 0.051641334 -0.074680746
000340 46 79 42 3d 29 c0 0d bc 22 f8 d4 3c 29 02 19 bc
       0.047478937 -0.008651772 0.025997225 -0.009338894
000350 ed 37 3f 3d 51 c9 fe bb 64 b3 53 bd d9 d9 9a bd
       0.046684194 -0.0077754636 -0.051684752 -0.075610824
000360 9b 4d 1c 3d 29 d1 0f 3d a9 2d e2 bc 94 d7 68 3d
       0.038159948 0.03511158 -0.027609663 0.056846216
000370 5d cf c7 bd b6 33 05 3e d9 92 12 bd 2b 72 98 3d
       -0.09756348 0.13008007 -0.035784576 0.07443651
000380 3d 10 38 bd 9c 44 56 ba ee d8 fe 3c 08 65 32 3d
       -0.04493736 -0.0008173676 0.0311093 0.043553382
000390 e6 a7 3b bd fc 7b 4f 3e df fc 67 bc ee 17 db bc
       -0.045814417 0.2026214 -0.01415941 -0.026744809
0003a0 fb 72 12 3d d3 85 c8 bc a0 95 0f bd dc b5 bf 3d
       0.035754185 -0.024477875 -0.035054803 0.09360859
0003b0 2a e4 b7 bb 28 c6 8e 3d 4b 89 7d 3d 4f 36 8a 3d
       -0.005611916 0.06971389 0.06189851 0.0674864
0003c0 20 67 e3 3c c6 95 11 3e 3f 87 10 b8 e0 47 b2 3c
       0.027759135 0.1421729 -3.4458233e-05 0.021762788
0003d0 b0 6a 6c bd 40 19 1d be bd b8 2d bd aa c9 9e 3d
       -0.057718933 -0.15341663 -0.04241251 0.07753308
0003e0 6d 3f 18 3d 93 bf 0a 3e cf 20 b7 bb 3c 5c a9 3d
       0.037169863 0.13549642 -0.005588628 0.082695454
0003f0 22 ee 81 3d 67 7e 87 bb 9c 51 40 bd b5 5b d5 3d
       0.06344248 -0.0041349414 -0.04695283 0.10417882

fc1.bias f4 [256]
000000 95 6a 1d be 4c ca 19 3e 08 bc 0d 3e 1d 89 18 3e
       -0.15372689 0.15018576 0.1384126 0.14896055
000010 6c 33 c6 bc 6a a7 2e be e4 ff 3f be 1a c3 00 bb
       -0.024194442 -0.17056051 -0.18749958 -0.001964754
000020 c7 35 55 be 25 6c 26 be 51 e5 00 3e 1e 6d 09 be
       -0.20821296 -0.16252191 0.12587477 -0.13420531
000030 4d 1e 07 3e 43 72 03 be 90 78 ea 3c 60 a8 8b 3e
       0.13195153 -0.12836556 0.028621942 0.27276897
000040 d7 02 44 3d fa 3f 86 3d e1 90 a8 bd de 0f 99 bd
       0.04785427 0.06555171 -0.082307585 -0.074737296
000050 cb 0a d9 3d 8e 71 63 be 17 27 22 3d 60 e5 50 be
       0.10597762 -0.22211286 0.03958806 -0.204
000060 d4 bd a8 3d 45 7d 64 be 1c cb 00 3e ff c2 4a 3c
       0.08239332 -0.22313412 0.1257748 0.012375592
000070 14 ee 2f be c1 6f 3d bd 8e 2b a3 bd d7 c1 60 bd
       -0.17180663 -0.046249155 -0.07967292 -0.05487236
000080 b8 dd e3 3c b1 a0 ad bd 5e ef 6c bd db e5 7d 3d
       0.027815685 -0.08477915 -0.057845466 0.061986785
000090 89 e5 2d be f8 65 47 3e 9a 95 32 bd 3a 7b ea 3d
       -0.16982092 0.19472492 -0.043599702 0.11449285
0000a0 58 68 10 be d6 c2 8c be 28 b7 bd bc 75 4a 20 be
       -0.14102304 -0.27492398 -0.023158625 -0.15653403
0000b0 ae 12 fc 3c 93 cb 89 bd e1 cb 5d 3b fa f7 c7 bd
       0.030770626 -0.06728282 0.0033843445 -0.09764095
0000c0 e8 3b 50 3e 09 92 01 3e 79 ec c2 bd 3a d2 41 3e
       0.20335352 0.12653364 -0.0951776 0.18927851
0000d0 87 22 90 bd 8a 08 3a be f7 a7 f6 3d 17 fd f4 3c
       -0.070378356 -0.1816732 0.120437555 0.029905839
0000e0 6f 52 63 3e cc 7c 01 3b 9f 69 e7 bd 99 a9 7a 3e
       0.22199415 0.0019758223 -0.112994425 0.24478759
0000f0 37 62 be bd 98 90 cf 3d 03 df b7 3c 30 cb 44 bd
       -0.09296077 0.10135001 0.022445207 -0.048045337
000100 88 b4 0e 3e 34 4d 0f 3d 7e 85 19 be 63 11 ca 3d
       0.13936055 0.034985736 -0.1499233 0.098665975
000110 da 47 41 be 58 44 45 bd 1b b9 a9 bc c2 54 2a be
       -0.18875065 -0.04816088 -0.020718148 -0.16633895
000120 c0 da 55 be 4d 02 b9 bc a4 60 d6 3c 11 ee 44 3e
       -0.20884228 -0.022584105 0.026169129 0.1923144
000130 0e 6e a6 3d 40 40 8a 3e b6 ad 91 3d 7a 7c 2c 3d
       0.0812646 0.27002144 0.07113211 0.042110898
000140 5d e4 ce 3c 00 c9 f2 bd 0c ce 60 be b2 86 34 be
       0.025255376 -0.11854744 -0.219536 -0.17629507
000150 44 f6 a1 3d 58 37 13 be 65 8b 1f be f8 3b d5 3d
       0.079082996 -0.1437658 -0.15580519 0.10411829
000160 03 09 23 be af 3a 12 3e 56 67 02 bc 9b 48 84 3d
       -0.15921406 0.14280199 -0.0079592075 0.06459161
000170 11 08 a8 bd 22 46 54 3e 7b d4 cf bd 4e b4 25 be
       -0.082046635 0.20729879 -0.10147949 -0.16182062
000180 8e 20 65 3e 6f 1e 98 bd 07 d4 86 3e 3d 16 10 3e
       0.223757 -0.0742768 0.2633364 0.14070983
000190 ab 06 2d 3d db 7c aa bc 36 a6 81 3d 29 79 ea 3c
       0.042242687 -0.020811489 0.0633053 0.028622227
0001a0 3e 1a 35 bd 8f e6 5a 3e b3 0f 36 3e e2 ff 82 3d
       -0.04421448 0.21377014 0.17779426 0.06396462
0001b0 2b 9b 8b 3d 9f 93 a4 3b 4c a6 27 bc 50 f1 30 be
       0.06816705 0.0050224806 -0.010232519 -0.17279553
0001c0 56 e2 9d bd 45 2f 1f be 24 11 12 bd 41 05 c6 3d
       -0.07709186 -0.15545376 -0.035660878 0.09668971
0001d0 d3 2e 7d 3e cd e6 2e be 71 a4 24 be 46 b2 1a 3e
       0.24724893 -0.17080231 -0.16078354 0.15107068
0001e0 ea 1a eb bc b3 29 6b bd 29 30 28 3d a8 7d 58 3e
       -0.028699357 -0.057412814 0.041061554 0.21141684
0001f0 d1 95 9e 3d f2 92 cc 3d 36 34 59 3d 69 87 8e 3d
       0.07743419 0.09988965 0.053028308 0.06959421
000200 42 f2 e2 3d 7f 72 83 be 45 b5 29 be b5 56 09 3e
       0.11081363 -0.2567329 -0.16573055 0.13411982
000210 9d 48 35 be 32 e3 9f 3d ea 95 1c 3e 20 ae 4a 3e
       -0.17703481 0.07807006 0.15291563 0.19792986
000220 1f bf f1 3d 46 6f a1 3d a7 78 c6 3d 0e 9a f3 3d
       0.118040316 0.07882552 0.09690981 0.11894618
000230 36 70 21 3c 50 05 25 be 7c 2d 38 bb 5f 38 28 3d
       0.009853413 -0.16115308 -0.0028103283 0.041069385
000240 a1 a1 e7 3d 93 8d c5 bd 09 a7 91 bd 32 83 0f be
       0.11310125 -0.09646144 -0.071119376 -0.14014891
000250 cc 59 0b 3c 2d 00 62 3e 9a 52 09 3d 03 4b 39 3e
       0.008505296 0.2207038 0.03352604 0.18095021
000260 02 87 49 3e 4e bc e2 bd b0 56 a7 3e 5a 81 4b 3d
       0.19680408 -0.110710725 0.32683325 0.049683906
000270 fc ce 31 3e 4b f1 c4 3d ea 5c 13 bd 04 45 4f bc
       0.17364115 0.096163355 -0.03597728 -0.012650732
000280 a0 90 20 be 4f 57 bc 3c 43 b1 d4 bc b0 22 0a bd
       -0.1568017 0.02299085 -0.025963431 -0.033724487
000290 2e 7e c8 bc a8 cf 37 3e 17 2c ff 3c fc 7f 1e 3e
       -0.02447423 0.17950308 0.031148953 0.1547851
0002a0 cf 01 8e 3d fa b7 7e 3e 52 4b c7 3c 04 09 06 be
       0.06933939 0.24874869 0.024327908 -0.13089377
0002b0 e6 34 52 be da 0d 2e be 00 77 25 be 20 8c 12 be
       -0.20527992 -0.16997471 -0.16158676 -0.14311266
0002c0 a0 42 c4 bc 8f 65 2a 3e 28 f1 f2 bd 79 10 32 bc
       -0.02395755 0.16640304 -0.11862403 -0.010868185
0002d0 db a6 80 bc 66 20 41 3e 7a fa 54 3e 61 ef f5 3d
       -0.015704563 0.18860015 0.20798674 0.120085485
0002e0 04 0a 5e 3e 70 d9 e6 bd 6b 34 37 be bf f5 26 be
       0.21683508 -0.11271942 -0.1789109 -0.16304682
0002f0 44 7d bb 3c 39 d7 6f 3e 28 58 43 3e 2a 1b c9 3d
       0.02288688 0.23421945 0.19076598 0.09819634
000300 d8 3b 76 bd f9 cc e2 bd ca 22 2a 3e 72 a3 32 be
       -0.060115665 -0.11074252 0.16614833 -0.17445162
000310 af 63 cd bd 71 95 17 3e 22 95 33 3e dd c7 57 3d
       -0.10028779 0.14803101 0.17537358 0.05268084
000320 f4 de 61 bc cb 1d 41 3d de 3a 58 3d c5 07 dd bd
       -0.013786066 0.047147553 0.052790515 -0.107924975
000330 0f c9 4c 3e 26 b0 91 3e 46 5b 75 bd 1c e2 36 3e
       0.19998573 0.28454703 -0.0599015 0.17859691
000340 85 a8 c8 bd 10 d7 5c be d9 07 9a 3d 47 e3 21 3c
       -0.097977675 -0.21566415 0.07521028 0.009880847
000350 9b 67 4e 3e e6 47 a3 3d ba 45 42 bd a7 44 11 be
       0.2015671 0.07972698 -0.047429778 -0.14186345
000360 5e 41 e8 3d e7 36 0b 3e 39 ca b6 3d b3 41 40 3d
       0.11340593 0.13595162 0.0892529 0.046937656
000370 54 5f c6 bd 0d 1a ad 3d 3c 17 1e 3e 15 ef 75 3d
       -0.09686151 0.084522344 0.1543855 0.06004246
000380 71 4a 0c 3d f3 5e 09 be 36 80 e9 3d 6f eb 36 bd
       0.03425068 -0.13415127 0.114014074 -0.04465812
000390 62 96 61 3d 41 3c 28 bd 33 24 44 3e 25 d8 5a 3e
       0.055075057 -0.041073088 0.19154434 0.21371515
0003a0 7a 9e 9f bd 74 a5 70 3c d3 e9 2e 3d fe 58 f7 3d
       -0.07793899 0.014687885 0.04270346 0.12077521
0003b0 77 e4 ce bd ee e2 d5 3d 17 06 62 3d d7 63 43 3e
       -0.1010217 0.10443674 0.05518159 0.19081055
0003c0 12 f3 ac bd 05 c9 f0 bd 61 f5 ae 3d 54 1e 21 bd
       -0.084447995 -0.117570914 0.08542896 -0.039335564
0003d0 cb 76 ab bc fc 4b 4b 3e 0e e6 37 3c a8 d5 99 bd
       -0.020930668 0.19853204 0.011224283 -0.07511455
0003e0 f1 84 18 bd 11 06 f9 bc ca 4d 89 bc 82 85 30 be
       -0.037236158 -0.0303984 -0.016760726 -0.17238429
0003f0 5d 84 3c 3e de c9 69 3e c7 60 2c be 9f 7a 34 3e
       0.18409868 0.22830912 -0.16833793 0.17624901

fc2.weight f4 [128, 256]
000000 4b 3c eb bd c2 ab 22 bd 32 30 45 3d 67 28 cd 3c
       -0.11486109 -0.039714582 0.048141666 0.02504368
000010 9c e5 d8 3b 77 68 1e bc 8a 65 3d 3d 8e e3 05 3e
       0.0066191684 -0.009668461 0.046239413 0.13075086
000020 16 4c 46 bb 7a 48 dd 3d 2b bb cd bc 80 91 7d bc
       -0.0030257753 0.108048394 -0.025113663 -0.015476584
000030 bd d7 9f bd 3a 31 0f bd 63 4c 7a bc 89 7d 06 3d
       -0.07804821 -0.034959055 -0.015277001 0.032834563
000040 8d 1a 9e 3d e3 17 19 bd 69 c6 9d 3d bd f9 41 bd
       0.07719908 -0.037376296 0.07703859 -0.04735731
000050 99 dd 59 bd 93 ce 21 3e 66 da 7b 3c a4 18 14 3c
       -0.053189848 0.15801458 0.015371894 0.009039078
000060 bc 83 0e bd a3 68 47 3d 9d b3 be bd ad 10 7b bc
       -0.0347936 0.048683774 -0.09311602 -0.0153238
000070 6e 89 37 3b 95 4a 45 bd d3 32 d1 3d 78 e0 99 bc
       0.0028005498 -0.04816683 0.10214772 -0.018783793
000080 ae b6 33 bc b9 dc ee 3d bf dd 49 3d 32 84 1e 3c
       -0.010968847 0.11663193 0.04928374 0.0096750725
000090 fe 0f 6e 3d 7f 85 05 bd 57 57 70 3c 39 e3 c4 3d
       0.05812072 -0.032598015 0.014669261 0.09613652
0000a0 e0 1f b1 3c dc 30 4e 3e b2 2e 17 3c f9 d2 ea bc
       0.021621644 0.20135826 0.009227442 -0.028665053
0000b0 86 80 60 3d 6c 9d cf 3d 43 05 3f bd 53 a0 02 be
       0.05481007 0.10137448 -0.046635877 -0.12756471
0000c0 c3 30 ec bb 11 43 e7 3b b1 de 5d bd 85 de 94 bd
       -0.0072079613 0.0070575555 -0.054167453 -0.07269005
0000d0 7d 81 b4 ba b2 51 2f bd 6b 44 8b bc df 63 86 bd
       -0.0013771501 -0.04280252 -0.017000398 -0.06562018
0000e0 c1 1e 15 3e b8 47 aa bd 84 18 02 be df 32 83 bd
       0.14562513 -0.083144605 -0.12704664 -0.06406187
0000f0 f3 4b 5c 3d 32 47 d1 3d 9e 7b dd ba c5 26 f7 3b
       0.05378337 0.102186576 -0.0016897803 0.0075424635
000100 4e 45 d9 bd 4f 9d 21 bd cc d6 4e 3d 90 90 0e 3c
       -0.10608922 -0.03945666 0.050497815 0.008701459
000110 59 11 9d bd ce 20 ea bc 32 3a c8 3c d0 07 dd bc
       -0.076693244 -0.028580096 0.024441812 -0.026981264
000120 87 30 33 bd 4a fe 8a 3d c0 c8 13 bd 40 b3 38 3b
       -0.04374745 0.06786783 -0.036080122 0.0028183013
000130 a8 52 70 bc a1 53 12 be 55 4f a2 3c c9 2a 50 bd
       -0.014668144 -0.14289714 0.01981322 -0.050822053
000140 c2 a9 b4 bd 1d bf ed bd 22 c6 90 3c 97 42 5b 3d
       -0.08821441 -0.116087176 0.017672602 0.053530302
000150 18 ee b6 3d f9 76 1f bc 5b f6 8b bd 24 6c ad bc
       0.089321315 -0.009732955 -0.06834098 -0.02116973
000160 f1 d1 35 bd eb 58 de 3c 82 c1 a4 3d 9d 83 1a bd
       -0.04438967 0.027142009 0.08044721 -0.037723172
000170 0f 52 30 bc a5 fa da 3c 0f 54 68 bd db 07 32 3d
       -0.010761752 0.026730845 -0.05672079 0.043464523
000180 e3 5e 3c 3d 87 48 f5 bd eb 88 31 3d 50 e8 80 bd
       0.04598893 -0.11976724 0.043343466 -0.0629431
000190 f3 67 f1 3b 2d 2b f2 3d 34 73 7a 3d d5 29 01 3e
       0.007367128 0.118246414 0.061145023 0.12613614
0001a0 4f 7a a4 3d 5d 43 ff bc 26 cd 28 bd 59 cf 22 3e
       0.08031141 -0.031160051 -0.04121127 0.1589941
0001b0 76 07 43 bc e4 75 ce 3d 13 7a a3 bd 42 59 77 bc
       -0.011903634 0.100810796 -0.07982268 -0.015096964
0001c0 c1 1b 4b 3c 21 45 65 3d de 01 cf bc 81 71 8e 3d
       0.012396754 0.05597413 -0.025269445 0.06955243
0001d0 34 bd cc bc bd 06 da 3d 22 5a 25 bd 85 06 2f 3d
       -0.024992563 0.106458165 -0.04036916 0.042730827
0001e0 05 8b c5 3c 64 eb 90 bc 26 e8 a5 bd 29 df 05 bd
       0.024114141 -0.017690368 -0.081009194 -0.032683525
0001f0 51 d4 fc 3a 8f 81 83 3d cd d8 e5 3c f6 31 77 bd
       0.001928935 0.06421196 0.02805748 -0.06035038
000200 2a a9 0a 3c b2 fc ac 3e 44 f7 69 bb d9 ce a4 3d
       0.008463183 0.3378654 -0.003570036 0.080472656
000210 0b 39 e6 3b 39 23 d0 3d e0 f9 d8 3d 53 27 d9 bd
       0.007025843 0.10162968 0.10594535 -0.106032036
000220 8e b4 60 bd cd fd 03 3d ff 78 95 bd 03 dd 97 bd
       -0.05485969 0.032224465 -0.07298469 -0.074152015
000230 ae cd 56 bb 3d 3b 52 3d 5f 91 b3 3e 15 07 23 bd
       -0.0032776403 0.051326025 0.35071847 -0.039801676
000240 e6 00 4e 3d 61 27 ea 3c 0e 60 27 3d 18 c5 45 3d
       0.050293826 0.02858323 0.04086309 0.048283666
000250 ca 7b 6f bd 4e 19 db 3d 1d 57 a6 3d dd 3e 89 bd
       -0.058467664 0.10698186 0.08122084 -0.06701443
000260 30 2d 53 bd 4e 9f 9d bd 80 f7 8d 3d 3c 85 c1 3c
       -0.051556766 -0.076964006 0.069319725 0.023623101
000270 01 ee a7 bc 29 68 44 bd cc 3e 3e 3c ae 93 84 3e
       -0.020499231 -0.047950897 0.011611652 0.2589392
000280 12 8a 3b 3d d0 ce a7 bc 53 ec b8 3d 40 d5 3a bd
       0.04578597 -0.020484358 0.0902945 -0.045613527
000290 18 cc 87 3d 71 74 63 bd 78 8d 25 bd f3 27 6a bc
       0.06630725 -0.05553097 -0.04041812 -0.014291751
0002a0 cb 10 c9 3b 0b e7 09 bc b3 c9 f6 3a 3d 4c 96 bd
       0.006136035 -0.008416901 0.0018828422 -0.0733876
0002b0 6f fe eb bd 34 ec 6a bd da 42 84 3c 0f 1c 50 bd
       -0.11523139 -0.057354167 0.016145159 -0.05080801
0002c0 87 4a b3 3b 92 f9 3b 3c 01 e1 83 3c a1 91 79 3e
       0.005471531 0.011473076 0.016098501 0.2437196
0002d0 c4 34 21 3d a7 59 ea bc 55 ca 16 3d 3a 81 25 bc
       0.03935696 -0.028607203 0.036814053 -0.010101611
0002e0 81 b6 0d bd 24 51 b4 bc bf cf 66 3c 36 6c 20 bd
       -0.034597877 -0.022011347 0.0140876165 -0.039165698
0002f0 2e ef 54 3d fc 9d bb 3c a2 95 00 bd c3 c1 96 bd
       0.051985912 0.022902481 -0.0313927 -0.07361176
000300 1a 71 ac bd 76 45 c6 bc d3 17 a0 bc fb 3a 1e 3d
       -0.0842001 -0.024203043 -0.01954261 0.038630467
000310 9b bb ea bd f8 af 21 bd 0c 81 cd 3c bf c9 b6 bc
       -0.11461564 -0.039474458 0.025085948 -0.022312997
000320 2f 39 fc 3c 98 38 54 bd 64 8c 84 3a 3c e8 c6 bc
       0.030788986 -0.051811785 0.001011264 -0.02428066
000330 89 73 30 3d 3a 35 8c 3b 30 25 47 bd 10 95 19 3c
       0.043078933 0.004278806 -0.04861945 0.009373918
000340 d7 f3 96 3b 99 81 ca 3d ed f1 48 bd 54 f1 2a bd
       0.0046067047 0.09888 -0.049058843 -0.041734055
000350 da 12 8c 3c e6 f6 f2 3d da ee ce 3d 71 0b 90 bd
       0.017098833 0.118634984 0.10104151 -0.07033432
000360 a4 0a 36 3d ce e6 a0 3d 23 90 28 bb 9b f6 c7 bd
       0.04444374 0.078565225 -0.0025720678 -0.09763833
000370 a8 3a af bc 12 94 74 bc 01 ef c2 bd 79 c9 ed 3c
       -0.021390274 -0.014927881 -0.095182426 0.029026734
000380 69 60 f7 bb 87 a9 46 bd 23 b3 97 bd 98 2b 8d 3d
       -0.007549335 -0.048501518 -0.074072145 0.068930805
000390 c8 91 81 bc 29 00 8b bd a5 9a 58 3d a4 37 b0 bd
       -0.015816584 -0.0678714 0.052881856 -0.086043626
0003a0 69 6c eb bc 97 79 3d bd e4 16 90 bd 00 60 83 3b
       -0.028738217 -0.046258535 -0.07035616 0.004009247
0003b0 c2 e1 27 3d b2 80 45 3d 0f 14 56 3d c1 7a 38 bd
       0.040986784 0.048218437 0.052265223 -0.045038942
0003c0 6a 58 4d bc 14 45 0c bc 19 34 f2 3d 7e 7e 95 bd
       -0.012533287 -0.008561391 0.11826343 -0.07299517
0003d0 49 26 e5 3d e3 53 6e 3d 0f 16 88 3d 07 7f ce bd
       0.11188943 0.05818547 0.06644832 -0.10082822
0003e0 58 db c2 3d 7d 42 ed bd 09 38 ff bb 9c d0 dc bd
       0.09514493 -0.11584947 -0.0077886623 -0.107819766
0003f0 1f 26 9a 3b d9 2c e5 3c b3 75 1c 3c 76 9e af bd
       0.0047042514 0.027975487 0.009549546 -0.08575146

fc2.bias f4 [128]
000000 dd a2 39 3d 22 b3 b5 b9 45 53 75 bd 56 5d 08 3c
       0.045321334 -0.00034656475 -0.059893865 0.008323034
000010 e0 dd e6 3d 78 8f 87 3d 46 1b ec 3d ec 5c 1a be
       0.11272788 0.06619161 0.115286395 -0.1507451
000020 24 4a 0a 3e 66 ef 07 3d 13 6f 99 3c c2 4d c8 3d
       0.13504845 0.033187293 0.018729722 0.09780456
000030 5c f0 18 bd 97 a4 2b 3d a7 c6 ce 3c 4d e3 dc bc
       -0.0373386 0.041905012 0.02524121 -0.026963854
000040 e7 20 ac bd 3e 76 06 bd f9 8d 78 bd 84 26 a9 bd
       -0.08404713 -0.03282761 -0.06068227 -0.082592994
000050 07 cd 28 3d 07 f7 90 3d a6 e0 91 3d 07 43 03 bc
       0.041211154 0.07078367 0.071229264 -0.008011586
000060 d8 14 ec 3d ee dc db bc 2b 94 0f be c8 95 25 bb
       0.11527413 -0.026838746 -0.14021365 -0.0025266279
000070 67 a1 13 bb 71 cb 9a 3c 8b 42 35 3a f1 8c 5d bd
       -0.0022526623 0.018895837 0.0006914518 -0.05408949
000080 f8 37 cd bd ba b8 61 bd 35 b2 78 bc 0d e8 bd 3c
       -0.10020441 -0.05510781 -0.015179207 0.02318194
000090 31 0a bd bc 37 40 94 3d 62 72 9b 3d 7c eb 1d 3c
       -0.023076149 0.072388105 0.07590176 0.009638663
0000a0 f8 e6 c7 3c 93 70 56 3d 79 2c 73 3a 36 97 bd 3d
       0.024402127 0.052353453 0.00092763413 0.09257357
0000b0 b8 cc c3 3d f5 3c 0a 3d dd 75 54 bd 7c d8 ff 3d
       0.095605314 0.03374954 -0.051870216 0.12492463
0000c0 20 62 f2 3c 1c 69 4b bd fe 61 ce 3c a8 8e ca bd
       0.029587805 -0.049660787 0.02519321 -0.09890491
0000d0 ce 54 3e bd a8 88 39 bb bd 1d 3f 3b 45 d8 35 3d
       -0.046467595 -0.0028310213 0.0029162013 0.044395704
0000e0 3a 6f e5 bc 3a 82 ea 3d e4 6e 49 3d 53 22 0d 3d
       -0.028007139 0.1145062 0.04917802 0.034456562
0000f0 c1 5a 87 bd 02 e3 5e bd 4d 0e 94 bd 70 48 01 3c
       -0.06609107 -0.05441571 -0.0722929 0.007890806
000100 51 d7 22 3d c3 d4 ea 3c 5e 3b 2e bd 7f b3 ed 3c
       0.039756123 0.028665906 -0.042537086 0.029016254
000110 5b 2e d6 3c ae 70 63 3d 92 21 d2 3b ea 04 30 3c
       0.02614515 0.05552738 0.0064126933 0.010743359
000120 29 e6 28 3c 40 db 7c 3d db 7b a3 3d 0a b6 91 3b
       0.010308781 0.06173253 0.07982608 0.0044467496
000130 b9 11 7e bc 97 5c ee 3c 07 b4 c5 bc 83 c0 9c bd
       -0.015507155 0.029096885 -0.024133695 -0.07653906
000140 7d 64 11 3d 39 8d aa bc 5a b1 90 3d c2 67 90 bd
       0.035496224 -0.020819293 0.07065077 -0.0705104
000150 ab d8 04 ba c4 b2 30 bc 4f 59 32 bd e1 5b b5 bd
       -0.00050676864 -0.010784809 -0.043542203 -0.08855415
000160 0a 3d ab 3d 30 16 9e bd 5a 4b d0 3d 5c eb 0f 3d
       0.08361252 -0.07719076 0.10170622 0.035136566
000170 b0 0a d2 3b 21 7d 0b bd 7e 6f b9 3d 56 68 47 3d
       0.0064099655 -0.03405488 0.090544686 0.048683487
000180 d9 4b 90 3c 0c a3 62 3d 29 53 a3 3a 98 b7 05 bd
       0.017614292 0.055331275 0.0012460697 -0.03264579
000190 7c 3c c4 3c 03 4c 90 3c 02 7c 2b bd 6d fa 2f 3c
       0.023954622 0.01761437 -0.04186631 0.0107408585
0001a0 a3 bd 9a bd 67 06 06 bc 79 39 d3 b9 f4 a6 a9 bc
       -0.075557016 -0.008180237 -0.00040287877 -0.020709492
0001b0 8e 11 9d bc 59 1c de 3c ef e8 52 3c 2e a0 e1 bd
       -0.01917341 0.027113127 0.0128729185 -0.1101688
0001c0 09 b1 45 bc 88 5c 20 3e bb 2f af 3c 1d 4c bf 3d
       -0.012066134 0.15660298 0.021385064 0.09340689
0001d0 48 0f 38 bd a7 1c 40 bd 6c 87 b6 3c 50 02 c3 3c
       -0.04493645 -0.046902325 0.022281371 0.023804814
0001e0 e2 d6 00 3e 82 a9 02 3d 46 85 fa 3c e2 8e af bd
       0.12581971 0.031899936 0.030581128 -0.085721746
0001f0 29 4d 6f bc c7 04 06 3e 51 bc d4 3d 09 7b e9 bc
       -0.014605799 0.1308776 0.10387481 -0.02850105

fc3.weight f4 [2, 128]
000000 93 cf 89 3d 6a b1 4b 3d d2 35 19 3d 39 bf 2e be
       0.06729045 0.049729742 0.037404843 -0.17065133
000010 71 57 d9 bb 8c f0 9d bc d0 2e b9 bc e4 d9 35 3e
       -0.0066327383 -0.01927974 -0.02260533 0.177589
000020 1e 12 88 bc 5f b6 45 3d 16 ad 0e 3d 91 11 3b 3e
       -0.016610201 0.048269626 0.034833036 0.1826842
000030 61 77 ff 3c fa 63 75 bd e2 58 07 bd 21 7d 30 3d
       0.031184854 -0.0599098 -0.03304375 0.043088082
000040 c5 d4 7e 3d b4 0b 2d 3e c3 2b 4b 3d e3 eb 32 3c
       0.06221463 0.16898996 0.04960228 0.010920498
000050 c0 64 c9 3c 46 95 dc 3c e1 c0 d5 bc 35 7f 1c 3e
       0.024584174 0.026926648 -0.026092948 0.152829
000060 ee b4 12 bd 94 d8 13 3d 4b 34 cb 3b 74 df e8 3c
       -0.03581708 0.036095217 0.006201302 0.028426863
000070 d4 91 c9 3d 0c 2a 0e 3d f0 16 68 3d c3 00 bd 3a
       0.09842268 0.034708068 0.0566625 0.0014419783
000080 a4 00 0e 3d f4 c9 42 3d 47 84 cb 3d 33 e5 d0 bd
       0.03466858 0.04755588 0.09937339 -0.10199966
000090 24 e6 65 bb 71 f0 bc bc 6a 62 83 3d af 12 0a bd
       -0.0035079801 -0.02306387 0.06415255 -0.033709224
0000a0 0a 1f 98 bc 6b 48 05 3d 92 00 cf 3d 5b 5c b2 bd
       -0.018569488 0.032539766 0.10107531 -0.08709022
0000b0 27 c5 23 bd d1 38 b7 bc 2c f9 2b 3c e3 17 49 bd
       -0.03998294 -0.02236596 0.010496419 -0.049095046
0000c0 68 ec f5 bc dd ef 62 3d 12 28 2b 3d 83 0f 1f 3e
       -0.030019954 0.055404533 0.04178626 0.15533261
0000d0 8e ef 22 bc 37 47 3e 3d e4 7c 0b 3d fa ce 7e 3d
       -0.00994481 0.046454635 0.03405465 0.062209107
0000e0 7a d7 01 3d 65 7b b5 bd 2a 93 25 bd 7f 94 58 3d
       0.031699635 -0.08861426 -0.04042355 0.052875992
0000f0 99 c0 b1 bb 5b 20 15 3d 77 1f 37 3d 5b 73 4c 3d
       -0.0054245708 0.03640781 0.04470774 0.0499147
000100 a7 5c 86 3d eb 0b 44 3d a9 e1 54 3b 94 29 2a bd
       0.06560641 0.04786293 0.0032483137 -0.04154356
000110 6d 3a 19 bd 8b 94 7c 3d 1e df 48 3d fb 6e de 3c
       -0.037409235 0.0616651 0.049040906 0.027152529
000120 a9 a9 ec 3c dc a5 8b 3d d7 2d 97 be 7b 4e 21 3d
       0.028889494 0.068187445 -0.2952716 0.039381485
000130 68 4b 23 3d 6b 69 3b 3d 6b 4f 14 3c b6 db 91 3d
       0.039866835 0.04575483 0.009052138 0.07121985
000140 65 7e 08 3d 17 94 2e 3e cc 63 00 bd a4 32 94 3c
       0.033323664 0.1704868 -0.031345174 0.018090554
000150 74 28 d8 3c 47 ad d5 3c 27 a5 34 3d 6c af c3 3d
       0.026386477 0.026083602 0.044102814 0.095549434
000160 d2 4c fa 3d 66 ea a4 3d f9 c7 1f bd 89 8e 38 3d
       0.122216836 0.080525205 -0.03900907 0.045057807
000170 9b 71 62 bb ee e9 09 3e 11 ae 20 bd cb 31 0f 3d
       -0.0034552577 0.13468143 -0.039228503 0.034959596
000180 80 fb 84 3d ac 28 d6 bc 6a 4c 20 3d a9 64 15 3e
       0.06493282 -0.02614244 0.039135374 0.1458918
000190 ed be 80 3d c0 e9 30 3e 9f dd ca 3c 6b 27 fb 3c
       0.06286416 0.17276669 0.02476388 0.030658444
0001a0 d9 35 ce 3c c5 70 72 3d 19 d8 dd bc b3 03 4d 3d
       0.025172161 0.059189577 -0.027080582 0.050052356
0001b0 ce be 49 3d e1 2d 57 3d 8d e9 16 bd ba d9 47 3e
       0.04925423 0.052533988 -0.036843825 0.1951665
0001c0 30 d3 0f 3e 0e 76 6c be 64 4c 86 3e 6b 76 8a 3c
       0.14045405 -0.2309191 0.26230156 0.01690217
0001d0 fd 51 21 3d 48 19 3c 3d bf 58 43 3b e1 41 17 bd
       0.03938483 0.045922548 0.0029807535 -0.03692806
0001e0 2d 71 c2 3a e7 5a 37 3d 94 20 d9 3a 64 71 ab bb
       0.0014834754 0.044764426 0.0016565495 -0.005232023
0001f0 b4 b7 4d 3d b4 23 93 3c cb 09 3d bd 17 09 31 3c
       0.05022402 0.01796136 -0.046151917 0.01080539
000200 90 b4 db 3c 3f 46 ed 3c 29 67 93 3c 36 b7 03 be
       0.026819497 0.02896416 0.017993527 -0.12862858
000210 e4 bf 19 3e 3a c2 1e bd 5c eb 41 3e 77 06 e6 bd
       0.15014607 -0.038759448 0.18937439 -0.11231702
000220 ce ab 06 3e 49 d4 2c 3d e2 11 19 bc e6 5b 43 3e
       0.13151476 0.04219464 -0.0093426425 0.19078025
000230 2f 72 b8 3d 00 e2 96 3e f6 1e aa ba 06 b4 52 bc
       0.09006154 0.294693 -0.0012979198 -0.012860304
000240 30 e9 a7 3c fc ab 94 3d e7 2b a3 3a a8 ae 9a bd
       0.020496935 0.07259366 0.0012448997 -0.07552844
000250 41 67 26 3e 9a ae fd 3d a2 44 6e bd 29 e2 bf 3c
       0.16250326 0.12386818 -0.058170922 0.023423271
000260 d3 3a 92 bd 8f ce 59 3c 8b e6 0f be 34 ac 8f 3d
       -0.07140126 0.013293876 -0.14052789 0.07015267
000270 0f ad 96 3d e0 5b 22 3e bb 9f 33 bb 21 47 14 be
       0.07357227 0.1585536 -0.002740844 -0.14480259
000280 6e 1f b0 bc 94 19 f4 3c 70 a2 0a 3e ef d7 b6 bb
       -0.021499362 0.029797353 0.13538527 -0.0055799405
000290 e6 2b 06 be 94 8f f8 bc d8 21 4f 3e 0c 36 e4 bc
       -0.13102683 -0.0303419 0.20227754 -0.027857803
0002a0 2f 59 ad bd 17 1c 88 3d a9 08 22 3e ab 40 25 3b
       -0.08464276 0.06645983 0.15823616 0.0025215547
0002b0 2c f8 63 bd bb 83 1c bd a3 c7 50 3a 92 08 e8 bc
       -0.055656597 -0.038211565 0.00079643185 -0.0283244
0002c0 a8 3a 16 bd b6 19 21 3c ab 51 1e 3e ca 97 4e bd
       -0.036677033 0.00983279 0.15460841 -0.050437726
0002d0 b9 8f a7 bd 4e 08 c3 3c b1 a4 58 3e 13 0f 18 3b
       -0.0818171 0.02380767 0.21156575 0.0023202344
0002e0 1c 5d 21 bd 50 16 b1 3d d2 ea d4 bc 09 4b b9 3b
       -0.039395437 0.08646834 -0.025990877 0.005654697
0002f0 d4 33 ad bd 7e 44 fc 3b 67 3d 4e bd 3f 49 e2 3b
       -0.08457151 0.0076985946 -0.050351527 0.0069057043
000300 d4 5f 59 3d e5 14 67 3c 84 3c f7 3a 7f 02 8c bd
       0.053069904 0.014104103 0.001886264 -0.068364136
000310 70 89 7c bd bb 5c be 3d fe d1 60 3d 42 b1 23 3e
       -0.061654508 0.09295031 0.054887764 0.15985587
000320 ae 42 59 3c 57 65 86 3e ad e4 ce 3d 85 85 77 3d
       0.013260527 0.2624919 0.1010221 0.06043007
000330 73 8b 21 3e d0 f8 15 3b 49 9d d2 3d 3f 7d 1a 3d
       0.15775852 0.00228839 0.10283906 0.0377171
000340 04 08 0b 3e ce ba b6 3c fe 4f 84 bb 59 88 72 ba
       0.13577276 0.022305872 -0.004037856 -0.0009251885
000350 83 3e 6d 3d 54 2b f4 3c c1 c3 e0 3c 90 ff a6 3d
       0.057920944 0.029805817 0.027437093 0.081542134
000360 9c cc 2d 3e fa 0f 1f 3d 01 34 2c bd 13 4f 27 bd
       0.16972584 0.038833596 -0.042041782 -0.040846895
000370 79 73 cc bb 0c 1f 77 3d 44 75 45 bb 12 c8 08 3e
       -0.0062393514 0.060332343 -0.003012971 0.13357571
000380 08 ed 88 3d e6 99 54 bd 30 2c 12 3c a3 be 27 3d
       0.06685835 -0.05190458 0.008921668 0.04095329
000390 67 0d f1 3c f7 15 a7 3d 1b 28 a4 3d 0a cc da 3c
       0.029425336 0.08158486 0.08015462 0.026708622
0003a0 0f 7d 94 3c 16 9d 1d 3e 61 4e b0 bd c9 df 76 3a
       0.018126039 0.15391955 -0.086086996 0.0009417502
0003b0 02 3e d3 3c 67 c0 23 bd 0e 98 1c bd 6f a2 51 bd
       0.025786404 -0.03997841 -0.03823095 -0.0511803
0003c0 66 4d a9 bc 7e af a6 3e fd df 25 3d d8 1e 49 3e
       -0.02066679 0.32555765 0.040496815 0.19640672
0003d0 62 8a 22 3c 46 dc 1f 3d 8e 84 8a 3b d3 f3 9a bd
       0.009920688 0.03902843 0.0042272275 -0.07566037
0003e0 a8 c4 3b 3e 21 7e a4 3c 81 03 1e 3c 53 5e 23 be
       0.18336737 0.020079674 0.00964439 -0.1595395
0003f0 8c c5 5e bb ed 01 3a 3e 74 a6 57 bc bd ed 37 bb
       -0.0033992259 0.18164797 -0.013162244 -0.0028065287

fc3.bias f4 [2]
000000 37 ab 1d bd 28 ab d0 3d
       -0.03849336 0.101888955
