checkpoints/checkpoint_random_agent1__actor.pth (torch_old, 159264 bytes, 6 tensors)

fc1.weight f4 [256, 24]
00000000: d1da d3bc a32f 16bd b236 bfbb 55aa 56bb
00000010: a501 d7bd b703 503c c42f a9ba e001 973d
00000020: bb1a 54bd 72eb ab3c 906d 01bd 95f2 d4bd
00000030: 4180 4a3a 1a48 9cbd 4980 f93c 3b00 50bd
00000040: 9037 a1bd a7cf 26bd f023 06bd 91ac 70bd
00000050: 93de 713c 7a66 68bd 5ec1 053d 76d7 d4bd
00000060: 4123 f0bc 88b3 2bbd 50df 3abd 19fc 063e
00000070: 5112 2c3d 5949 00bd 7cfc 17bd ef02 203d
00000080: ef27 90bd 5705 e5bd 5b4b 243d d1e2 7f3d
00000090: 9982 ebbc 4f7e ce3d 3c80 efbb 548c 943d
000000a0: 8f7b 87ba b3f5 efbd f31c 22bd 6e47 543d
000000b0: d8af 873d 42d8 673e c2a9 b83b 7959 5d3c
000000c0: 2c9c d7bd e423 5fbd cff6 373d b4b2 01bd
000000d0: 29a2 01be 4a54 733d e809 1bbd 0e5b afbd
000000e0: b1d7 faba 247b 54bd ca0a 0cbd 7d57 4cbd
000000f0: a4a2 8fbd 6ed1 65bd 89dc 75bc d52f f6bc
00000100: cba6 03bd 0629 c7bd 3889 afbd 3606 213c
00000110: e369 a1bd d8fe b1bd 1219 21bd 21fb ad3d
00000120: 38a7 15bd 45c6 e2bb a146 453d 7dbe 03bd
00000130: addf 3ebd 8bec 3b3d 726b 933d 3b41 20bd
00000140: 9448 89bd a048 0ebc 18d6 cbbc 0eae b33c
00000150: 5f95 0b3d 6b92 c3bc 2543 5e3c 580f c03d
00000160: 2d20 3c3c 9fe8 873d a282 5dbd 40ab 643c
00000170: ba3e 433d ff84 adbc 29ae 2d3d e43b 323d
00000180: 9333 13bd 401b dfbd 8005 9a3d 1b1d 02bb
00000190: 6cb9 543d 1633 da3b ef29 fabc b200 98bd
000001a0: 0fd4 2cbd 0674 a0bd b1cd 553c 1a2e 04bd
000001b0: 4d6d 463d 73ff e93d 597e 0f3d 3f86 0f3d
000001c0: b7e9 543b c338 9abd a94a 83bc a3a0 53bc
000001d0: 07ae a6bd 7c46 0e3e 7f46 b93c 38a9 623d
000001e0: b838 d8bc d85b 9ebd 4853 3cbd b974 b0bd
000001f0: 0bb3 073e ad63 1239 ca09 043d 851f 8bbd
00000200: 9f3f 74bd ac31 9bbd 336a efbc 18b2 0ebe
00000210: ca9b bf3d f35a a2bd b228 1d3d f231 e8bd
00000220: 0280 a9bc 28f4 33be cd55 35bc b3bd 053d
00000230: f7cc 353e dbe6 e8bd 4035 39bb 288b d33b
00000240: 4ae8 b4bd 9ed7 8e3d 51bd 383c dc4a a43c
00000250: 986f d33b f529 b8bd 3b9b 1e3d 7a72 e03d
00000260: 90a8 523c aed7 1c3d 3a8c 103d 9de4 b0bc
00000270: 1db6 8abc 2afd 03bd 1c21 663c a2d8 5abc
00000280: 716d d2bc 421f 4d3d c00f 3c3d 06d0 66bb
00000290: 369f 843d b1ad 13be a6a6 333d 052e df3c
000002a0: d78e 0dbd 74d1 1a3e 5a53 dfbd 9d8b 4dbd
000002b0: 0ea1 c83c 7623 a83d b229 a6bd 0d99 c4bd
000002c0: f190 11bd 1924 213e a4ca 6bbd 157f 28be
000002d0: 13b3 a1bc 09a0 8a3d 81db 34bd 15cf 20be
000002e0: c27f b5bc 8463 a93d 99a7 a6bc b9a7 4cbd
000002f0: 56df b1bb 51c5 043c 6a35 663d 593d 8ebd
00000300: f2d6 c2bc 8e26 c5bd e936 fa3c 4ede 1cbd
00000310: 598c d13d db70 803c 8d28 073d 1061 82bd
00000320: 39be b53c f8a7 dabd 2889 063d c79c 8b3d
00000330: 9406 fb3d 8e7a 953d f554 593d ac48 be3d
00000340: 3f81 e23c d5a0 8ebd 0347 d5bc 53e8 393e
00000350: c34f 993d ee92 b03d 5769 d4bd 2217 ec3d
00000360: 9983 3bbb bea5 9c3d 3f89 413c e265 423c
00000370: 3c3c a03d 7b48 d03d 6965 6e3b e54b f13c
00000380: fbe2 eabd 5acb ae3a f39a 783d 8f1f 883b
00000390: d0c6 c53d b1e1 0d3e b0bc 7c3c a476 87bd
000003a0: 491d 22bd a8e3 0cbd 3ab2 21bd c699 783d
000003b0: 4e14 c93d fd78 6b3c ae6c 6b3d fb9a 0d3d
000003c0: 4152 8dbd 6dc7 b73d 7419 aa3c d592 653d
000003d0: 9e1e 93bd 94c4 543d be0f b1bc 1901 e53d
000003e0: 248e 22bc 976a 033e e952 75bc 7cf1 9a3d
000003f0: b77e e93c ce31 2b3d c7c2 66bd f1f0 c63d
-0.025861176 -0.036666524 -0.0058353776 -0.0032755334 -0.104983605 0.012696198 -0.0012907912 0.073734045
-0.051783305 0.020986293 -0.031598628 -0.10397831 0.00077248 -0.0763094 0.030456679 -0.05078147
-0.07871926 -0.040725376 -0.032749116 -0.058758322 0.0147625385 -0.056738354 0.032655112 -0.103926584
-0.029313685 -0.04191926 -0.045623124 0.13182105 0.042009655 -0.03131995 -0.037106022 0.039065298
-0.07038867 -0.11182659 0.040110927 0.06247217 -0.028748797 0.10082685 -0.007308988 0.07253328
-0.0010336506 -0.11716785 -0.03957839 0.051825933 0.066253364 0.2264109 0.005635471 0.0135101015
-0.10527834 -0.054477587 0.04491311 -0.031664565 -0.12659515 0.059406556 -0.037851244 -0.08562289
-0.0019137767 -0.05187525 -0.034189977 -0.049888123 -0.07013443 -0.05610793 -0.015006193 -0.030052105
-0.032141488 -0.097246215 -0.08571094 0.009828141 -0.078815244 -0.08691186 -0.03933055 0.08495165
-0.036536425 -0.006920608 0.04816306 -0.032164086 -0.046600033 0.04587988 0.07198228 -0.03912471
-0.06703296 -0.008684307 -0.024882361 0.021933582 0.034078 -0.023873528 0.013565813 0.093779266
0.011482281 0.06636166 -0.05407966 0.013956845 0.047667243 -0.021181582 0.04240242 0.043514147
-0.035937857 -0.108938694 0.0752058 -0.0019853774 0.051934645 0.006658922 -0.030537574 -0.074220076
-0.042194422 -0.0783463 0.013049529 -0.03227053 0.04844408 0.11425676 0.035032604 0.035040136
0.0032487938 -0.07530358 -0.016026812 -0.012916717 -0.08138662 0.13894075 0.022616623 0.05533716
-0.026394233 -0.077323616 -0.04597786 -0.08616013 0.13251893 0.00013960777 0.032235898 -0.06793121
-0.059630986 -0.075778335 -0.029225444 -0.13935125 0.09355886 -0.079275034 0.03836889 -0.11337651
-0.020690922 -0.17573607 -0.01106782 0.032651614 0.17753969 -0.11372157 -0.00282605 0.0064557977
-0.08833368 0.069747195 0.011275605 0.020055227 0.006452512 -0.08992378 0.038722258 0.10959335
0.012857571 0.038291626 0.03528998 -0.021593386 -0.016932542 -0.032223858 0.01404598 -0.013357313
-0.025686951 0.050078638 0.045913458 -0.0035219206 0.064756796 -0.14421727 0.0438601 0.027243624
-0.03456005 0.15118963 -0.1090457 -0.050181974 0.02449086 0.08209889 -0.081134215 -0.095995046
-0.035538618 0.15736426 -0.0575663 -0.16454728 -0.01973871 0.067688055 -0.044154648 -0.15703996
-0.022155646 0.08270934 -0.020343589 -0.04996464 -0.005428235 0.0081036845 0.056203283 -0.06945295
-0.023784135 -0.09626494 0.030543761 -0.038297944 0.10231847 0.015678814 0.032997657 -0.063661695
0.022185432 -0.10676569 0.032845646 0.06817012 0.12257114 0.07298766 0.053059537 0.09291205
0.02764952 -0.0696427 -0.026034838 0.18155031 0.074859165 0.086217746 -0.103716545 0.1152785
-0.0028612374 0.076488 0.011812507 0.011865111 0.07823989 0.101700746 0.0036376363 0.029455135
-0.11469074 0.001333575 0.060694646 0.0041541527 0.09657061 0.13855626 0.015425846 -0.06614426
-0.03957871 -0.034396797 -0.03947661 0.060693525 0.09818326 0.014372108 0.057476692 0.03457163
-0.06900454 0.08973584 0.02076409 0.056048233 -0.07183574 0.051945284 -0.021613952 0.1118185
-0.009921584 0.1283363 -0.014973381 0.07565591 0.028502805 0.041795544 -0.056338098 0.09713925

fc1.bias f4 [256]
00000000: 1121 12bd 483d 1c3e 7566 153e 75c8 0f3e
00000010: b7af aabc 1eac 2cbe b32e 50be daaf 463d
00000020: e84b 03be e3e8 dcbd c3ab 0c3e 8fef 663c
00000030: b1fd c03d 225b fbbd b690 f73c 60f7 643e
00000040: dd65 833d 7322 483d b9fd c9bd 21f0 33be
00000050: c1eb e83d 685f 34be 8e99 823d 60fa 12be
00000060: bd11 163d 3728 9dbe 0e72 b03d c79b 023d
00000070: 38f0 d4bd 2e03 35bd 5994 5fbd 5301 47bc
00000080: 6e48 fdbc b20d 5eba 3ab3 bfbd 5ca5 f93c
00000090: 648e 1bbe 2a28 4b3e ce07 15be 6ae1 af3d
000000a0: 86ea 1abe a3ec 1bbe 092b d93b e932 67bd
000000b0: 9f94 d83c 1ab6 e3bd 9913 a23b 056b 2fbe
000000c0: 994a 683e a772 103e 1fd4 fbbc e797 2e3e
000000d0: 38aa f5bc fc56 4ebe f500 953d 8546 35bc
000000e0: ea57 0c3e 78bc 6cbd 87f4 1bbe eb71 473e
000000f0: 0741 853d cc19 e03d 1e22 d3bc 3a1a 10be
00000100: 1a93 a03d 60b1 83bc d9c8 03be d8ff f93d
00000110: fe17 5fbe 1d04 efbd b832 82bd 0967 12be
00000120: 42e2 28be 8e42 70bc 4be1 02bd 5654 423e
00000130: 3631 483e b833 093e 78d0 f13d d8c3 993d
00000140: cea9 5fbd 617a 09bd 43fb 19be 26e7 32be
00000150: f918 003e 030e 80bd 6bf5 f6bd 45ce a63d
00000160: f398 20be 3a46 803d 9932 333c 634f 3f3d
00000170: 4ec8 25bd b341 0b3e 37f7 09be 17e2 52be
00000180: 18bf 2c3e a67b d8bd 9996 313e 33a9 1d3e
00000190: f7b9 003e f329 3ebd 4bdf c83c 72bd 393d
000001a0: 53c4 a1bd a410 373e 6f2c 083e 7923 cab9
000001b0: 082c ee3d 6f0e 92bc b211 a1bc c07d 09be
000001c0: 5e83 61bd 55ef 29be 6d81 80bd 4c59 da3d
000001d0: 1281 323e bff7 3dbe 1ae1 efbd 2faf 303e
000001e0: 04a9 3cbd f0a6 d93d c62f 283e 4189 083e
000001f0: 3346 c33d 3e17 1c3d 1438 8e3c 5d48 933c
00000200: 465d f83d 42d6 0dbe 95be 2abe f082 4d3e
00000210: ea78 1ebe 4384 d43d 359e 173e 1410 f83d
00000220: 7690 943d 7711 173e ac28 c13d c47c 2b3e
00000230: 6173 9a3d 4149 38be c92f 183e a44b bb3d
00000240: 8cc7 183e 5bb3 1fbe 8e0a 75bd b5c9 c2bd
00000250: dfe4 5b3d 7206 623e 5f1c 653d dd55 0f3e
00000260: 62ae 4c3e b3d5 02be f011 693e 7ad4 273d
00000270: a2f2 413e 6bed 6f3d 131a f63c 7e98 143e
00000280: 43bb 06be f0e2 103d e022 dbbc 1920 363c
00000290: e20a 17bc 0b11 433e 209e ae3c 548b 813d
000002a0: 17c3 393d 343e 373e eb3e 9f3d 32a4 3dbe
000002b0: 79f7 6dbe 55c3 2bbe 4bcd 22be 011b d7bd
000002c0: a4ad 053d 7d01 4a3e 9414 d7bd d090 903d
000002d0: 5b6d a0bd 6973 313e 3a61 273e bee9 e63d
000002e0: 488f 363e 312f 24be 5f74 25be 17d3 10be
000002f0: 53be a33b 2f1b 473e 4b76 5a3e cea5 823d
00000300: ae20 02bd 3284 12bd 6dae 5c3e 9445 18be
00000310: bc80 05be c4e2 963d 62f1 213e 9e76 c23d
00000320: 0a5e 453c eee9 c23b 80ec c23d f22f 62bd
00000330: bebd 503e dd47 9b3e b389 febc 19f9 f43d
00000340: cb0a b2bd 8b3b 05be fa83 9c3d 0851 aabd
00000350: c678 3a3e 8ad5 873d ff80 0fbd 0157 1cbe
00000360: 771a 4a3e d795 263e 216b a23c c2c1 bcbc
00000370: 934b 1abd 37ba 8a3d 73f0 8c3e 6374 523d
00000380: c184 ab3d 12a6 02be 8096 8d3d 84a9 95bd
00000390: c94e abbc af84 ddbc 52d5 703e c3bc 143e
000003a0: 8257 2fbd 44ff 8dbd ecde aa3d 671a b73d
000003b0: 153a a8bd 0759 943d 9252 a13d df75 8f3d
000003c0: cafa 14bd 5d03 a5bd 7c48 013e 02e2 30bc
000003d0: 19f5 243c ad02 2d3e efa0 dfbb e726 2abe
000003e0: 79af 5cbc aca1 0ebe 0368 5fbd f715 f9bd
000003f0: 7956 3b3e c559 1f3e aacd 02be e6e4 0e3e
-0.035676066 0.15257752 0.14589866 0.14041312 -0.02083574 -0.16862532 -0.20330314 0.04850755
-0.12821925 -0.10786607 0.13737397 0.014095201 0.09423388 -0.122732416 0.03022037 0.22359991
0.06415913 0.04886098 -0.09862847 -0.1757207 0.113730915 -0.1761452 0.063769445 -0.14353323
0.03663801 -0.30694744 0.08615504 0.031886842 -0.103973806 -0.044192486 -0.054584835 -0.012146312
-0.030918326 -0.00084706687 -0.09360357 0.030474357 -0.15191036 0.1983954 -0.14553759 0.08587916
-0.15128526 -0.15226988 0.0066274446 -0.056445036 0.026438056 -0.111187175 0.004946184 -0.17130668
0.22684707 0.14106236 -0.030740796 0.17050134 -0.029988393 -0.2015037 0.07275573 -0.011064176
0.13705412 -0.057796925 -0.15229999 0.1947705 0.065065436 0.1094242 -0.025773104 -0.14072505
0.078405574 -0.01607579 -0.12869586 0.122070014 -0.21786496 -0.116707064 -0.0635733 -0.14297117
-0.1649256 -0.014664305 -0.031953137 0.18977484 0.19550022 0.13398635 0.118073404 0.07508057
-0.054605298 -0.033563975 -0.15037255 -0.17470989 0.12509526 -0.062526725 -0.120585285 0.081448115
-0.15683345 0.06263395 0.010937356 0.04670657 -0.04047423 0.13599281 -0.13473211 -0.20594059
0.16869771 -0.10570459 0.17342605 0.15396576 0.1257094 -0.046426725 0.024520537 0.045346685
-0.07898774 0.17877442 0.132982 -0.00038554872 0.11629492 -0.017829148 -0.019661758 -0.13426876
-0.055056922 -0.16595204 -0.06274686 0.10661563 0.17432049 -0.18551539 -0.117128566 0.17254327
-0.046059623 0.10627544 0.16424474 0.13333608 0.09534874 0.038108103 0.017360725 0.017978841
0.121271655 -0.13851264 -0.16674264 0.2006948 -0.15475813 0.103767894 0.14806445 0.12112442
0.07254116 0.14752756 0.09431586 0.16746813 0.07541538 -0.17996694 0.14861979 0.09145287
0.14919871 -0.15595762 -0.05982452 -0.09511129 0.053685065 0.22072771 0.05593526 0.13997598
0.19988397 -0.12776832 0.22760749 0.040974118 0.18940213 0.05857603 0.03004173 0.14511296
-0.13157372 0.035372674 -0.026750028 0.011116051 -0.009218903 0.1904947 0.021315634 0.06325403
0.045352068 0.17894822 0.077756725 -0.18519667 -0.23238935 -0.16773732 -0.15898626 -0.105031975
0.0326363 0.1972713 -0.10501972 0.07058871 -0.07833358 0.17329182 0.16345683 0.112750515
0.17828095 -0.16033627 -0.16157673 -0.14143024 0.0049970536 0.19443963 0.21334188 0.06379281
-0.031769447 -0.035770603 0.21550913 -0.14870292 -0.1303739 0.07367471 0.15814736 0.09495281
0.012046346 0.0059482967 0.09517765 -0.055221505 0.20384881 0.30328265 -0.03107152 0.11961574
-0.08693465 -0.13010995 0.0764236 -0.08316237 0.18210134 0.06632526 -0.03503513 -0.15267564
0.19736658 0.16268097 0.019826474 -0.02304161 -0.03766973 0.06773799 0.27527198 0.051380526
0.0837493 -0.12758663 0.06913471 -0.07307723 -0.020911591 -0.027040808 0.23518875 0.14525132
-0.042808063 -0.06933454 0.083433 0.08940583 -0.08214203 0.07243543 0.07877077 0.07004904
-0.036371984 -0.08057282 0.12625307 -0.010796072 0.010068201 0.16895552 -0.0068246047 -0.16616403
-0.01346957 -0.1392886 -0.054542553 -0.121623926 0.18294705 0.15561588 -0.12773767 0.13954505

fc2.weight f4 [128, 256]
00000000: 9f65 a8bd 11b5 0ebd 5e28 7cbc e8f6 02bb
00000010: d463 113d f6f2 1bbc 94f0 843c 1d68 e23d
00000020: 4a2c d3bc de4f a93d 9271 07bd 2bfa 8abd
00000030: 8ae9 893c 3653 6dbd d116 1d3d 4ea0 003e
00000040: 17b9 56bb d8bc a83d 73f3 febc 4d4c ab3d
00000050: ef0b 80bd 9569 033e 3b77 4f3d 315f 183c
00000060: b6ec 1fbd 44a6 ec3d 3f71 74bd 14f0 b0bd
00000070: e399 6ebd aec0 97bd 09d0 f13d 1858 20bc
00000080: bdf3 0f3e 2200 00bd 0192 473d 6fd7 233d
00000090: 31bf 053d a3f4 8dbd ed3e 633d 8992 353e
000000a0: 3adf 3a3e e5a4 8fbb 9497 56bd d113 5fbd
000000b0: c971 f03d 4983 083e dc6d 0c3e f112 d33c
000000c0: 8bb1 afbb 7a2d afbc 73c0 2fbd a8b9 4fbc
000000d0: caaf d63c 83a3 4cbd 38f4 233e 8219 603d
000000e0: e028 803c 808f 313d 3305 a5bc ef2b ecbc
000000f0: f518 0dbe c010 103e a8c9 a03d dca1 183d
00000100: 3004 f2bb 4ee6 173d 0b6d d33c ea7e 2d3d
00000110: 8b10 e4bd 679e 3cbc f732 f3bc 7392 8ebd
00000120: bb4b 09bd c949 dc3d 8250 973d 8347 84bc
00000130: 5b32 2d3d e3cf 993d 1a8c a23a 699f a1bd
00000140: e041 1a3d 1112 f0bd 7801 05bc 8da0 ec3d
00000150: 07ac 6c3d bb4e 01be 8cb2 80bc a230 32bb
00000160: 7a72 98bd c9ee 0f3d 7655 3e3d 1a13 95bd
00000170: 6e52 b5bd 63f8 863d 18d9 45bd 8340 713d
00000180: 0c63 c63d ad14 70bc 47e3 e23d da6d a23c
00000190: ae9a 1fbd b000 b33d fa19 bb3b 18f8 6e3d
000001a0: a909 923d b3ba 4e3c eb29 cc3d ec2f f53d
000001b0: b3e9 53bd e58f 943d fa4b 343d 0e81 4ebd
000001c0: 7fe3 32bd c99f c03c 37a9 85bd 0a7b 2fbb
000001d0: 57a3 b93d d7d6 6c3d 2199 e8bd e24e 6c3d
000001e0: 591e e83d ce9c d33c 61c7 c2bd 2698 ed3c
000001f0: fcfb 20bc 563b f13d 8bca ab3c 4dee e73c
00000200: f062 ef3c 494d a03d 4959 443d 5aae 373d
00000210: 026d a3bc 821e b03d fc70 d43d 3c17 223c
00000220: 6f14 a53d 9910 5a3d 4c62 72bd 594f 01bd
00000230: 2cef 1fbd 2ce2 633d 062c a53d 32cf b5bd
00000240: 30c3 ae3c 752e cc3d 13b7 183d d6ff 4a3c
00000250: 1394 41bc 7e65 b1ba 6608 5c3d e500 58bd
00000260: 9530 aabb bfab b0bb 2baa c13d 81f7 083e
00000270: 8e30 fcbb ac9e 943d e392 0cbd b0b2 733d
00000280: b692 c53c bd21 81bd a821 bf3c cb26 cf3d
00000290: b367 f73d 9c82 acbd 61d7 b1bd fac9 c73d
000002a0: 4efd 7dbd 2b39 333d 6c13 2ebd b5fb 2b3d
000002b0: 2d18 24bd ded5 8bbc 6c8e 11bd c602 dfbd
000002c0: 6f64 2a3d 910b b8bc b90c 4dbc 8265 183d
000002d0: dae7 8e3d effd 35bd b24e 103e 0d91 36bd
000002e0: 3bbe 1c3e a652 a93d f5a3 233d 469b c13c
000002f0: 9d80 1f3c afd9 0c3e e67b ee3b ac0a 173d
00000300: e85e d6bc b6c9 e2bd 9425 72bd 6038 833c
00000310: 581c 98bd 77ae 013d 6c22 863b 7fc1 c5bc
00000320: 2bc7 9f3c 3e04 cf3c 328e f43c 5895 443b
00000330: a18b e13c 3686 fb3d 1d14 48bd 7499 f53d
00000340: 0022 3c3e 1fd2 283d 960a 6b3d 79ed e33d
00000350: 91d7 c73d 4203 9c3c 6749 523d 13de 193d
00000360: 4e8d ec3c d9c0 0f3d cc66 a6bd b537 ecbc
00000370: 8bce 97b9 f592 0c3d 5f1a 1dbd 58ab 273e
00000380: 6beb 92bd bc01 cc3c 4d2a 3dbd afde 183e
00000390: 7b44 0dbd 15d4 04bd 1f9f b23a 5101 4d3d
000003a0: 682e 8bbd b360 c63c 0ca4 47bd 2c99 c13d
000003b0: 1d35 b6bc c59d 253d 9f72 c13c 5ebf 173d
000003c0: 9024 3b3d 4023 a9bd 3f80 ce3d 67cb a3bd
000003d0: b569 4a3d 20b9 d43d b69a 023e f57d 8e3a
000003e0: 2cff cf3d b6de 773c a795 983d bf60 77bd
000003f0: fc9a adbd 5ea2 213d f5e3 72bb f1d0 21bd
-0.08222508 -0.034840647 -0.015390484 -0.0019983593 0.035495594 -0.009518376 0.016227998 0.11055014
-0.025777955 0.082671866 -0.033067293 -0.06785997 0.016834993 -0.057940684 0.038351838 0.12561151
-0.003276413 0.08239144 -0.031121945 0.083641626 -0.06252276 0.12833245 0.050650816 0.009300039
-0.039044105 0.1155515 -0.059678312 -0.08639541 -0.058252227 -0.074097976 0.11807258 -0.009786628
0.14057823 -0.031250127 0.048723225 0.040000375 0.032653037 -0.069314264 0.055479933 0.1773168
0.18249217 -0.0043836706 -0.05239065 -0.054462258 0.11740453 0.13331331 0.13713783 0.025765868
-0.005361741 -0.02138399 -0.042908143 -0.012678541 0.02620687 -0.049960624 0.16011131 0.054711826
0.01564449 0.043349743 -0.02014408 -0.028829543 -0.13779052 0.1406889 0.07850963 0.037263736
-0.007385753 0.03708487 0.025808832 0.042357363 -0.11135968 -0.011512375 -0.029687388 -0.06961527
-0.033519488 0.10756261 0.073884025 -0.01614738 0.04228435 0.07510354 0.0012401373 -0.07891733
0.03766048 -0.11722196 -0.008118026 0.1155406 0.057781246 -0.1262769 -0.015710138 -0.0027189632
-0.0744371 0.035139833 0.04646822 -0.07279034 -0.08853613 0.06590345 -0.04830274 0.058899414
0.096868604 -0.014653367 0.11078506 0.019827772 -0.038965873 0.087403655 0.0057098838 0.05834207
0.07130749 0.012617755 0.09968933 0.11972031 -0.051736545 0.07254008 0.04401777 -0.050416045
-0.04367399 0.023513691 -0.06526416 -0.0026776218 0.09064358 0.057822075 -0.11357332 0.057692416
0.11333913 0.025831606 -0.09510685 0.029003214 -0.009825703 0.117788956 0.020970603 0.028311873
0.029221982 0.07827241 0.04793671 0.04484401 -0.01994944 0.08599569 0.103731126 0.009893235
0.08060538 0.053238485 -0.059175774 -0.031569812 -0.03904645 0.055635616 0.080650374 -0.0887741
0.021333307 0.099697985 0.03728397 0.012390098 -0.011815089 -0.0013534275 0.053718947 -0.052735228
-0.0051937797 -0.0053915675 0.09456285 0.13375665 -0.007696218 0.07256827 -0.03431977 0.05949658
0.024117809 -0.06305263 0.023331478 0.10114821 0.12080326 -0.08423349 -0.086836584 0.09755321
-0.06200915 0.04375569 -0.04249899 0.041988093 -0.04006212 -0.017069753 -0.035536215 -0.10889201
0.041599687 -0.022466453 -0.01251524 0.03720618 0.06977816 -0.044431623 0.1409252 -0.044571925
0.15306942 0.08267717 0.039951283 0.02363361 0.009735254 0.13754915 0.0072779534 0.036875412
-0.026168302 -0.110736296 -0.05911787 0.016018093 -0.07427281 0.031660523 0.004093459 -0.024140118
0.01950415 0.025270578 0.02985296 0.0029996242 0.0275324 0.12281458 -0.048847307 0.119921595
0.18372345 0.041216012 0.057383142 0.11129279 0.09757913 0.019044522 0.051339533 0.037565302
0.028875973 0.035096023 -0.08125076 -0.028835157 -0.0002895485 0.034319837 -0.038355228 0.16373956
-0.07173809 0.02490317 -0.04618292 0.14928697 -0.034489136 -0.03242882 0.0013627744 0.050050084
-0.06795961 0.024216032 -0.04874043 0.09453043 -0.022242123 0.040433664 0.023614226 0.037047736
0.045689166 -0.082586765 0.10083055 -0.0799778 0.049417216 0.10386872 0.1275433 0.0010871278
0.10156092 0.015128782 0.07450419 -0.060395 -0.084768265 0.039461486 -0.0037062143 -0.039505903

fc2.bias f4 [128]
00000000: 0e2f c13d 0ab2 203d b1b1 1cbd 68c1 2b3d
00000010: a5f8 253d 770c 4b3d ee04 46bc cfb4 1cbd
00000020: f08b 4c3c cff9 843d 8eec 273d d8fd 7e3d
00000030: c2ba 98bc 81d4 45bc af48 39bd 16f9 113c
00000040: 7a93 4abd 6637 c83d cfe5 b1bc 86f9 9139
00000050: a709 95bc 9ad8 bf3d b178 0b3d c77e 623d
00000060: acff 943d 0875 103c 9b5a 3b3c 8aa8 b93c
00000070: 83a2 433d 9b07 d7bc ee19 cc3c 1c17 bf3d
00000080: 096f 0dbd 92fa b4bc cd8e b7bc b293 be3d
00000090: 34cb 853d cd2d 2d3d 7e7f 0d3d c6e4 3ebd
000000a0: c6de 463d 87ff 803d cbd2 fc3c 19f4 e33d
000000b0: 61ef 643d 4bb4 b23c 9b4e 7fbd 19a9 81bc
000000c0: 8446 0fbd 998d dfbc 47eb 2cbd 13c6 6f3c
000000d0: 886d b4bc 58fd e23c 1f36 d2bc ff68 983d
000000e0: bb5b e83c bc41 773d fd8b f13b 021c 773d
000000f0: 404a c93d f6e9 85bc dd71 2abd 248d 263d
00000100: 3586 573d bb69 d03d 999c d2bc 1f40 dfba
00000110: 8ca4 4abc b9a4 6c3d 71c2 f93c b641 caba
00000120: e83f ae3d ead8 b3bd d63f af3c 6943 243d
00000130: 29c9 40bd 7ca7 6b3d b18f 8bbb e092 d3bc
00000140: 47bb 403d 0c0b 5dbc f021 e83b 6f03 1bbd
00000150: 45f9 0e3d f904 1b3d eb1d d2bb 67c8 39bd
00000160: 5d7a c93d 0fae 173d 9cea 6b3d 4f60 9b3d
00000170: 80a8 b63b 2069 06ba 5d17 863c c3cf ee3c
00000180: bc8c 8e3d b324 6a3c d2c2 1a3d e1d3 483d
00000190: 1125 6b3d 7722 bb3d 742c edbc 8946 503d
000001a0: 53c3 58bc 5a62 8b3c 2deb e7bb d473 c83c
000001b0: 7df9 763c e35a 033e 70c9 52bd d2a3 20bd
000001c0: 5370 23bb c01a b93d aada 08bc 36b4 c43d
000001d0: 29b0 b6ba 017e 0fbc 79b9 443d 5952 96bb
000001e0: 42ce 223d 72ed 903d fc29 703d 245b b93c
000001f0: 1122 363c 3ec7 2a3d c08e 333d 495c 9b3c
0.09432803 0.03923229 -0.038255397 0.041932493 0.04052033 0.049572434 -0.012086136 -0.03825837
0.012484536 0.0649296 0.04099708 0.062253803 -0.01864374 -0.012074591 -0.045235332 0.008909484
-0.04945705 0.097761914 -0.021716027 0.00027842465 -0.01819308 0.09367485 0.034050647 0.055296686
0.07275328 0.008816965 0.011435176 0.022663374 0.047762405 -0.026248744 0.024914708 0.0933058
-0.03452972 -0.022092137 -0.02240696 0.093055144 0.065328985 0.042280007 0.034545414 -0.046604894
0.048552297 0.06298738 0.030862233 0.11130542 0.055892352 0.021814486 -0.062330823 -0.015827702
-0.03497936 -0.027289199 -0.042216565 0.014634627 -0.022024885 0.027708694 -0.025660573 0.074419014
0.028364053 0.060365424 0.007371424 0.060329445 0.09828615 -0.016346913 -0.041612495 0.040661946
0.052618224 0.101764165 -0.025709437 -0.0017032659 -0.012368333 0.05777428 0.030488225 -0.001543096
0.08508283 -0.087816074 0.021392744 0.04010335 -0.04706684 0.057532772 -0.0042590727 -0.025826871
0.0470536 -0.013491403 0.007084124 -0.03784507 0.03490569 0.03784654 -0.006412258 -0.045357134
0.09837792 0.03703123 0.057596788 0.07586729 0.005574286 -0.0005127359 0.016368562 0.029151803
0.06960437 0.014290976 0.03778345 0.04903019 0.057408396 0.09137433 -0.028951861 0.050848518
-0.013230163 0.017014671 -0.0070775957 0.024469294 0.015074131 0.1282764 -0.051461637 -0.03921873
-0.0024938777 0.09038305 -0.008352915 0.09604685 -0.0013937998 -0.008758069 0.048028443 -0.0045874533
0.039747484 0.07076539 0.05863379 0.022626467 0.0111165205 0.04169392 0.04383731 0.018964903

fc3.weight f4 [2, 128]
00000000: 704a 20bd 3986 623c 0d98 5a3d 39d5 77bd
00000010: 9935 19bd 66aa 5abd 8c22 d63b ce17 58bd
00000020: 0ace 3fbe 0099 af3d fb9d 593d ff05 1bbd
00000030: b79f e63c d562 f93c 696d 18be 8a1d 303d
00000040: f732 0c3d b170 c33b e44f 2f3d 1b33 a53c
00000050: c567 563d 6b45 7f3d 9726 1fbd 4424 b83d
00000060: bd80 95bd 82ab b43d 3b5a 643d d236 cd3d
00000070: 6fb0 9a3d 03ab 373e 4e3e 103d 9502 813c
00000080: 8a5b 2dbd 66ef 3c3d 0228 793d 5dfd f5bb
00000090: ef4b 10bd aba9 4bbd c9bb ac3c 142f b13d
000000a0: 900b 453e 3a5e 4f3d 41d2 0f3e f109 e6bd
000000b0: c66e 1dbd 8211 34bd f75e 10be 7edb b4bc
000000c0: feca 9dbd 6803 7f3d a0b6 74bd 340b 0fbd
000000d0: 88ac d03c 2a12 b93c e77a 2e3d e1cf 5a3d
000000e0: 43c1 ac3d 21b3 79bd cf52 07bd f5e0 6b3d
000000f0: a60c dc3d 7747 673d 5d41 333e 28c3 2d3d
00000100: cc2a 453d aba9 b43d ca94 83bd 0d3b 2dbd
00000110: 09f4 46bd db8d 42bd cc52 fe3c 44ca 2cbd
00000120: 9811 29bd 015e 58ba 44c7 2b3d c951 303d
00000130: b9b0 843d 48ff f73d 67f8 46bd 6eb5 6f3d
00000140: c685 4e3d b64f 643d ed09 75bd 5f87 af3c
00000150: 6709 f33c 46df 863d 6d40 0dbd 5cb0 82bd
00000160: a1f4 bebc 27d1 ab3d be86 53bd 43bd 753d
00000170: d8ec df39 96b3 333d 91bd b93c b510 3dbd
00000180: 1273 8cbd 8a4a bcbc 060c 093d 2e22 66bd
00000190: 319c 4c3d 398e d33d 7c51 643d cbdb a83c
000001a0: 15e6 db3d b089 5ebd 7561 89bd 321a b23d
000001b0: 2e89 f63c 5854 e93d 2a43 9bbd 47a4 5c3d
000001c0: e990 513d 94ff c13d e4f9 d4bb 60e7 ac3c
000001d0: 3d2d 303e b547 783d ddc5 4a3d 8576 a3bd
000001e0: 5fb8 d83c daf9 3a3d 4cb7 38bd 6878 423d
000001f0: c46d 413d 4425 06be d8d6 50be 67ff 5bbd
00000200: af06 3abc 05cf 0cbe 81fe 3dbc e011 c1bc
00000210: 665b 78bc a386 7abc 8a49 cf3d b177 89bd
00000220: f65f c1bd 5b6e ee3c 20e4 28bd f30b 8dbc
00000230: b53c cbbd 87e3 723d 64e0 cabd 769f c9bd
00000240: 95cf ebbd 4f88 a0bd c0f7 acbd b65c 56bd
00000250: c006 903c fd53 5abd 8943 10bb 4695 013e
00000260: a5a3 d93b 6c6b 123e 03c6 6fbd d129 723d
00000270: a65f 623b 134d 093c 73ab 56bd a78d 7abd
00000280: 753d 9ebc 6541 873c 75fc 1a3d 628a 2cbe
00000290: dfd8 1fbd ef0c 14bd c0db a33c 9d06 813d
000002a0: 566b 973d a329 d7bc c9dc d03c 0782 153e
000002b0: c1f7 05bc b92b 0fbe 8c58 a0bd 3e28 e23d
000002c0: 2b82 8bbd a0ae 2abd c422 30bd 104f 2bbd
000002d0: a9e6 f23c 3063 e5bc eacb 0bbd 6feb febc
000002e0: 9409 0abd 6395 c7bc d800 b9bc ddc6 f7bd
000002f0: 631d 6bbd fd15 1fbe 9a37 043c 2aef 78bc
00000300: fb77 4c3d f803 3c3c e79c cebc 8338 2abd
00000310: ab73 3ebc 6488 c9b9 fc8d 1fbd 1059 84bd
00000320: bb2e 45be 2092 9f3d 21df 4d3d 2015 bdbd
00000330: 63ce 88bc 9f9b 073b eb7e 2ebd 58ab c13d
00000340: 9d3b 43be c389 14bb 02c4 01be 0eba d2b9
00000350: 60e7 efbd 9d64 ddbd 9146 96bb 465c 743d
00000360: 038a 3dbd aa1b c8bd 20bf a2bc a8ec b4ba
00000370: 6034 143a d4cb 02be 52b7 c73d cd6d 49bd
00000380: a74b 38be 24d1 a2bc 6e57 913a 8838 89bc
00000390: d36f 8cbc 8ddf 5f3d 056d 45bd 315a 993c
000003a0: 6db6 d7bd 130d 6abd 0c3c 12be 1f3f 52be
000003b0: f9f4 d0bd 89a9 9ebd a00c 23bd 6f39 aabd
000003c0: 6e18 0dbd 203d 3d3d c13f 523e 6050 2dbe
000003d0: ec8a 19bd 9763 943d b233 f6bd 86af a3bd
000003e0: 4a02 de3d 7636 3fbd d0f1 37bd 7db2 9c3d
000003f0: 682d 9fbd c9e9 6fbd f9eb b1bd b5e0 29bd
-0.03913349 0.0138259465 0.053367663 -0.06050608 -0.03740463 -0.05338516 0.00653488 -0.052757077
-0.18730941 0.08574104 0.053129178 -0.037847515 0.02815233 0.030442635 -0.14885487 0.04299692
0.03422829 0.0059643616 0.0428008 0.02016597 0.052345056 0.06232206 -0.03885516 0.08991292
-0.072999455 0.08821775 0.055750113 0.10020222 0.07553183 0.1793633 0.03521567 0.015748302
-0.042323627 0.046126746 0.06082917 -0.00750701 -0.035228666 -0.049722355 0.021085637 0.086515576
0.19242692 0.05062697 0.14045049 -0.11232365 -0.03843572 -0.04396201 -0.14098726 -0.022077318
-0.07704733 0.062259108 -0.059744477 -0.034922794 0.025472894 0.02259167 0.042597678 0.053420905
0.08435299 -0.060961846 -0.033037957 0.057587583 0.107446 0.05646464 0.17505403 0.042422444
0.048136517 0.08821424 -0.06424864 -0.042292643 -0.048572574 -0.047498565 0.03104534 -0.042185083
-0.041276544 -0.0008253754 0.04193808 0.043046746 0.0647902 0.12109238 -0.04857674 0.058522634
0.050420545 0.05574008 -0.05982392 0.021426855 0.02966757 0.06585555 -0.03448527 -0.06381294
-0.023310008 0.08389502 -0.051642172 0.059994947 0.00042710337 0.04387244 0.0226734 -0.04615851
-0.068578854 -0.022984762 0.033458732 -0.05618494 0.049953643 0.10329861 0.055741772 0.020612618
0.10737244 -0.054330528 -0.067080416 0.086964026 0.03009471 0.113930404 -0.0758117 0.053867605
0.051163588 0.09472576 -0.006499516 0.021106422 0.17204757 0.06061526 0.049505103 -0.0798159
0.026455102 0.045648433 -0.04509668 0.04747811 0.04722382 -0.13100153 -0.20394456 -0.053710368
-0.011354133 -0.13750847 -0.011596323 -0.023568094 -0.01515851 -0.015290889 0.10121448 -0.067122824
-0.09442131 0.029105356 -0.041233182 -0.017217612 -0.09923688 0.05929902 -0.0990608 -0.09844868
-0.115142025 -0.07838499 -0.08445692 -0.05233451 0.017581344 -0.053302754 -0.002201291 0.126546
0.0066418224 0.1429879 -0.058538448 0.05912191 0.0034541874 0.008380192 -0.0524096 -0.061170246
-0.019316414 0.016510675 0.037838418 -0.16849664 -0.039025184 -0.036145147 0.020002246 0.063000895
0.073935196 -0.026264971 0.025495904 0.14600383 -0.008176745 -0.13981523 -0.07829389 0.11042832
-0.06811937 -0.04167044 -0.043001905 -0.041823447 0.029651003 -0.028001398 -0.034130014 -0.031118123
-0.03370054 -0.024363225 -0.02258341 -0.12098477 -0.057401072 -0.15535732 0.008069897 -0.01519374
0.04991911 0.011475556 -0.025221301 -0.0415578 -0.011624257 -0.00038439326 -0.038953766 -0.064623
-0.19256108 0.07791543 0.05026162 -0.09232545 -0.016699975 0.0020692123 -0.042601507 0.09456509
-0.1906571 -0.002266512 -0.12672427 -0.00040192943 -0.11714053 -0.10810206 -0.004586049 0.05965831
-0.046274196 -0.097709015 -0.019866526 -0.0013803439 0.00056535564 -0.12773067 0.097517624 -0.04917698
-0.17997609 -0.019875117 0.0011088678 -0.016750589 -0.017143166 0.054656554 -0.048199672 0.018719764
-0.10532842 -0.057141375 -0.14280719 -0.20531891 -0.10202975 -0.0774718 -0.039806962 -0.08311736
-0.034447126 0.04620087 0.20532133 -0.16925192 -0.037486 0.07245558 -0.12021579 -0.07992463
0.1084028 -0.046682797 -0.044908345 0.076512314 -0.077723324 -0.058572564 -0.08687586 -0.041474063

fc3.bias f4 [2]
00000000: d9ea e63b d2b8 33bd
0.007047039 -0.04387743
