checkpoints/checkpoint_per_agent1__critic.pth (torch_old, 187419 bytes, 5 tensors)

fc1.weight f4 [256, 52]
0	0x3bc73be7	0.006080139
1	0x3d8e468c	0.069470495
2	0xbb0ca09c	-0.0021458035
3	0xbc7855fa	-0.015157217
4	0x3e162bc1	0.14665128
5	0xbd965ea7	-0.07342272
6	0xbcabbdd8	-0.020964548
7	0x3d909242	0.070591465
8	0x3a1a709c	0.0005891414
9	0x3d07f80d	0.033195544
10	0xbd045deb	-0.03231613
11	0x3c27b9fd	0.010237214
12	0x3df14f5c	0.11782715
13	0x3cadd9b1	0.021221967
14	0x3d28fa83	0.04125453
15	0x3d306163	0.043061625
16	0xbd5668a1	-0.052345876
17	0xbc7b6d10	-0.015345827
18	0x3c40096e	0.011720998
19	0xbc723771	-0.014783726
20	0xbe030c7f	-0.12797736
21	0x3e5327dd	0.20620675
22	0xbc9e70ab	-0.019340834
23	0x3d80e4cd	0.0629364
24	0xbd46e032	-0.048553653
25	0x3ccd92c5	0.0250944
26	0x3cc2c6b9	0.023776399
27	0x3c98a809	0.018634813
28	0xbd8822c8	-0.06647259
29	0xbd344295	-0.04400881
30	0xbb9a83b4	-0.0047154073
31	0xbd430f33	-0.047621917
32	0xbd5cd8ba	-0.053917624
33	0x3b969dba	0.004596439
34	0x3d08ff01	0.033446316
35	0xbd4014d0	-0.04689485
36	0x3ae12fc5	0.0017180374
37	0x3c15e8de	0.009149758
38	0xbc9be636	-0.019030672
39	0xbc0444ae	-0.008073015
40	0xbde252fc	-0.11050984
41	0xbd33b972	-0.043878026
42	0xbbbf57b4	-0.0058393124
43	0x3de11395	0.10990063
44	0x3e077a5d	0.13230272
45	0x3e79c4c5	0.24391468
46	0x3bc13d80	0.005897224
47	0xbb918e7e	-0.004442035
48	0xbe094312	-0.13404492
49	0x3e085739	0.13314523
50	0x3d2df1cf	0.042466935
51	0xbc9b9059	-0.018989729
52	0xbda1f593	-0.07908168
53	0xbd1891d2	-0.03724844
54	0x3cba065c	0.02270811
55	0x3c9c2d87	0.019064678
56	0xbd1c5821	-0.038169984
57	0x3df88103	0.12133982
58	0xbc97193c	-0.01844465
59	0xbcc3bc96	-0.023893636
60	0xbb88c12a	-0.0041734176
61	0x3d46969c	0.048483476
62	0xbd3eabed	-0.04655068
63	0x3ca0945e	0.019601997
64	0xbc084596	-0.008317372
65	0x3dfc277c	0.123122185
66	0x3d45c82f	0.048286613
67	0xbd037a3d	-0.032098997
68	0xbc5df62c	-0.0135474615
69	0x3d4f53a7	0.050616886
70	0xbd3ce26c	-0.04611437
71	0xbd7dd042	-0.06196619
72	0x3e4a0eda	0.19732228
73	0xbda17c15	-0.07884995
74	0x3d2af448	0.04173687
75	0x3d12b364	0.03581561
76	0xbd6dd2e0	-0.058062434
77	0x3de59e3c	0.112118214
78	0xbd812d48	-0.06307465
79	0xbb2212f1	-0.0024730528
80	0x3e04cedd	0.12969537
81	0x3e378bb9	0.17924394
82	0x3d74fad6	0.05980953
83	0x3d19802e	0.037475757
84	0x3d3ed1d8	0.04658684
85	0x3e271923	0.16318183
86	0xbb854999	-0.0040676114
87	0xbcfb4747	-0.030673636
88	0xbd4d9697	-0.05019244
89	0x3dabb1cb	0.08383521
90	0xbc368141	-0.011139215
91	0x3d0e3482	0.034718044
92	0x3c1c457e	0.009538053
93	0x3e3b6435	0.18299945
94	0xbc93d143	-0.01804412
95	0xbd29a4cb	-0.041416924
96	0xbe480dcc	-0.19536513
97	0xbe413eca	-0.18871608
98	0x3cb1d580	0.02170825
99	0xbce4a3e8	-0.027910188
100	0x3da29ba7	0.079398446
101	0xbd37e191	-0.04489285
102	0x3d0af64c	0.033926293
103	0x3d49325b	0.04912029
104	0xbd014888	-0.03156331
105	0xbc3824b2	-0.011239218
106	0x3cf130bc	0.029442184
107	0xbc67f642	-0.0141578335
108	0xbc2a247f	-0.010384678
109	0x3e834c7c	0.2564429
110	0xbd4af78f	-0.049552497
111	0xbbc98231	-0.006149553
112	0x3d82c08a	0.0638438
113	0x3d5c0c1c	0.053722486
114	0xbd3d5837	-0.046226706
115	0xbc4b2a7a	-0.012400264
116	0xbd933073	-0.07186975
117	0x3d870847	0.06593376
118	0xbd0317a2	-0.03200496
119	0x3c370377	0.01117026
120	0xbd22a5e2	-0.03970898
121	0x3d21990e	0.039452605
122	0xbd37f944	-0.044915453
123	0xbe09d9d1	-0.13461997
124	0xbcee0543	-0.029055243
125	0xbe87c83a	-0.26519948
126	0x3c0a37a1	0.0084361145
127	0xbd889481	-0.0666895
128	0xbcc4aced	-0.024008239
129	0xbc89a2d6	-0.016801279
130	0xbc911048	-0.017707959
131	0x3ab9864a	0.0014154401
132	0x3d9b9b78	0.07598013
133	0x3eb7924b	0.358538
134	0xbc0e574a	-0.0086878035
135	0x3d11a602	0.035558708
136	0x3d600f50	0.054702103
137	0x3d73b74c	0.059500977
138	0xbd3362a3	-0.04379524
139	0x3d68dd95	0.056851942
140	0x3cd24d4b	0.025671622
141	0x3da5432b	0.08069452
142	0x3ccfb1f3	0.025353407
143	0xbcb9f510	-0.022699863
144	0x3c52f127	0.012874878
145	0x3d5a0ba4	0.053233758
146	0xbc802f2b	-0.015647491
147	0xbcf36049	-0.029708998
148	0x3c891e06	0.01673795
149	0xbe822f6d	-0.25426808
150	0xbc22f94b	-0.009947131
151	0xbd81cf06	-0.06338315
152	0x3dae8aed	0.08522592
153	0xbe101cad	-0.14073439
154	0x3e02b055	0.12762578
155	0xbcfd373c	-0.030910127
156	0xbd94058d	-0.07227621
157	0xbc142df0	-0.0090441555
158	0x3cdc938b	0.026925823
159	0xbd09721b	-0.033556085
160	0xbe381883	-0.179781
161	0xbae10631	-0.0017167983
162	0xbc5523bd	-0.013009009
163	0x3ca64ad4	0.020299353
164	0xbd3a1288	-0.04542783
165	0x3cb1e5fc	0.02171611
166	0x3ce0fbf6	0.027463894
167	0x3bfaff7b	0.00765985
168	0x3b574955	0.0032850106
169	0x3de37096	0.111054584
170	0x3c1a03f1	0.009400354
171	0x3d0eda3e	0.0348761
172	0xbce7ea91	-0.028310092
173	0xbcfafff7	-0.030639632
174	0xbb945726	-0.0045269905
175	0x3d8d89cb	0.069110475
176	0x3e44a723	0.19204383
177	0xbda7d4da	-0.08194895
178	0x3d40f116	0.047104917
179	0x3df128c0	0.117753506
180	0x3c842941	0.016132953
181	0xbc8d1719	-0.017222928
182	0x3d16080d	0.03662877
183	0xbd77227b	-0.060335618
184	0x3e3999a9	0.18125023
185	0x3d02cf3b	0.03193591
186	0xbd3374e7	-0.04381266
187	0xbc6c32cc	-0.014416408
188	0x3cdfc1b0	0.027314037
189	0x3c70c75d	0.014695969
190	0xbb2ffcd5	-0.002685358
191	0xbcbc8072	-0.023010466
192	0x3d84c09a	0.06482048
193	0x3d56f02e	0.052475147
194	0x3b3f2a77	0.0029169598
195	0x3cb75ad7	0.022382183
196	0x3df2515e	0.11831926
197	0x3d58960a	0.052877463
198	0xbc94a7dc	-0.018146448
199	0x3d69838f	0.05701023
200	0xbe2b23c2	-0.1671286
201	0xbd21f03d	-0.03953575
202	0x3cc9fd48	0.024656907
203	0x3c17daf1	0.009268508
204	0x3d311951	0.043237034
205	0xbd456a9d	-0.048197377
206	0xbc998a8d	-0.018742824
207	0xbce6760b	-0.02813246
208	0xbd143509	-0.03618339
209	0xbd74987e	-0.05971574
210	0x3ca72de1	0.020407619
211	0x3d066bf9	0.032817814
212	0xbdacf1d2	-0.08444561
213	0x3d66a1db	0.0563067
214	0xbc8db377	-0.01729749
215	0xbc700f0d	-0.014652026
216	0xbd3c44ce	-0.045964055
217	0xbd58db87	-0.052943733
218	0xbd356a92	-0.044291086
219	0x3cd13027	0.025535656
220	0xbbea4529	-0.007149358
221	0xbd049aa8	-0.032374054
222	0x3d37a33d	0.04483341
223	0xbd88a185	-0.066714324
224	0x3d842ce9	0.064538784
225	0x3c947256	0.018120926
226	0x3d087bd4	0.033321217
227	0x3cb0170e	0.021495368
228	0x3e42c611	0.19020869
229	0xbdbc5f8a	-0.0919791
230	0xbd3a24dd	-0.04544531
231	0x3c722b9b	0.014780904
232	0x3d5d9b2c	0.05410306
233	0xbd0d3922	-0.034478314
234	0x398daac7	0.00027020855
235	0xbc5e9ad7	-0.013586721
236	0x3e30c0ed	0.17261095
237	0x3bd50e83	0.006501974
238	0xbc542d8c	-0.012950312
239	0xbc8f29de	-0.017476019
240	0xbd0cd88c	-0.034386203
241	0xbd8f5099	-0.06997795
242	0x3d0f6ad7	0.035014
243	0x3c0f81d9	0.008758985
244	0xbd50022f	-0.050783332
245	0xbcf67e64	-0.030089565
246	0xbcab66fe	-0.020923134
247	0x3c8b6242	0.017014626
248	0x3d90debe	0.07073735
249	0xbdfece4e	-0.12441693
250	0xbd32486b	-0.043526094
251	0xbd105f02	-0.035246857
252	0xbe5d4bee	-0.21610996
253	0xbc59a3bd	-0.013283667
254	0x3d00dd09	0.031460796
255	0xbc89db66	-0.01682825

fc1.bias f4 [256]
0	0x3b2fef6e	0.0026845592
1	0xbe1c4360	-0.15260077
2	0x3dd4fb23	0.10399463
3	0x3d912b73	0.070883654
4	0xbd2f63bf	-0.042819735
5	0xbd4638a9	-0.04839388
6	0xbddbf8d0	-0.107408166
7	0xbe20553d	-0.15657516
8	0xbd6a4e40	-0.05720353
9	0xbda4a9b9	-0.080401845
10	0xbe2cd7f9	-0.16879262
11	0x3d8153b0	0.0631479
12	0xbe2935cd	-0.1652443
13	0xbb6a899a	-0.0035787583
14	0x3dcad6da	0.09904261
15	0x3d4b7c26	0.049678944
16	0x3a919b91	0.0011108984
17	0x3d8a472c	0.06751856
18	0xbe2ae989	-0.16690649
19	0x3deb9090	0.115021825
20	0x3e167b1a	0.14695397
21	0x3dff7402	0.124732986
22	0xbdf3d79c	-0.119063586
23	0x3db16f2d	0.08663783
24	0xbd6bc033	-0.057556342
25	0xbcd62816	-0.026142161
26	0x3db0f72a	0.08640893
27	0xbc51daff	-0.01280856
28	0x3d0d1eac	0.03445308
29	0x3c96a0b4	0.018387176
30	0xb6faedb3	-7.4782524e-06
31	0x3dae96a8	0.08524829
32	0xbe6416d4	-0.22274333
33	0x3ad2542c	0.0016046814
34	0xbca7e450	-0.02049461
35	0xbd326c11	-0.04356009
36	0xbe45ea18	-0.19327581
37	0xbdce2d1f	-0.100672
38	0xbe1c3598	-0.1525482
39	0xbbd87160	-0.006605312
40	0x3d629a3e	0.055322878
41	0xbe217de4	-0.1577068
42	0xbd7e5819	-0.062095735
43	0xbe3dd802	-0.18539432
44	0x3daba52b	0.08381113
45	0xbe2b1d39	-0.16710366
46	0xbd3f344c	-0.046680734
47	0xbcede0f7	-0.029037936
48	0xbd8f1237	-0.06985896
49	0x3df5abef	0.11995684
50	0x3d1a9b3e	0.037745707
51	0x3dc4ab79	0.09603018
52	0x3e09ed37	0.13469397
53	0xbe030708	-0.12795651
54	0x3bf1ae5f	0.007375523
55	0x3e2db47b	0.16963379
56	0xbdac3d3a	-0.084101155
57	0xbcd95b67	-0.026532842
58	0x3ccea922	0.025227133
59	0xbe05ef3a	-0.13079539
60	0xbccc4ede	-0.02493995
61	0xbb23b5dc	-0.0024980223
62	0xbe08fbf3	-0.13377361
63	0x3d7c94f6	0.061665498
64	0xbe13d28a	-0.14435783
65	0xbd8ae9db	-0.06782886
66	0x3d4e4153	0.050355267
67	0xbd1371ae	-0.035997085
68	0x3d7174ed	0.0589494
69	0xbd696c55	-0.05698808
70	0xbe2ca57f	-0.16860007
71	0xbdd4611f	-0.10370087
72	0xbd0445d4	-0.032293156
73	0xbe17424c	-0.14771384
74	0xbd98e849	-0.0746618
75	0xbaf29bb1	-0.0018509534
76	0x3e36926b	0.17829292
77	0x3da3c7c1	0.079970844
78	0x3ca82007	0.020523084
79	0xbdb70c64	-0.0893791
80	0xbdc32e81	-0.09530354
81	0x3daec216	0.08533113
82	0x3cf80d21	0.030279698
83	0xbd9276f4	-0.07151595
84	0xbda54da3	-0.08071449
85	0xbda142bc	-0.07874057
86	0x3dac37af	0.08409058
87	0xbdc91823	-0.09819057
88	0xbd370886	-0.044685863
89	0xbdb500b5	-0.088380255
90	0xbdecae1e	-0.11556648
91	0xbe197b5d	-0.14988466
92	0xbe19332d	-0.14960928
93	0x3dd408c9	0.10353238
94	0xbba9f511	-0.005186685
95	0x3d6d117b	0.057878
96	0x3cfa7039	0.03057109
97	0x3cf1b267	0.029504014
98	0xbdd91dbc	-0.106013745
99	0x3dd0b7ea	0.10191329
100	0xbcfb3347	-0.0306641
101	0xbe03f911	-0.1288798
102	0x3e24b766	0.16085586
103	0xbda05df6	-0.078304216
104	0xbd5a7b7b	-0.053340416
105	0xbdeb4f24	-0.11489704
106	0x3d61281c	0.054969892
107	0x3e267276	0.16254601
108	0xbe4883bc	-0.19581503
109	0xbe2ea19c	-0.17053837
110	0xbe0cb586	-0.1374112
111	0xbdc92ee9	-0.098234005
112	0x3db57a1f	0.088611834
113	0x3d2dd5d5	0.042440254
114	0x3dd4dceb	0.10393699
115	0xbd148c24	-0.03626646
116	0x3d6c24bb	0.057652216
117	0xbdf263e1	-0.11835457
118	0x3cb5ffad	0.022216642
119	0xbceadef6	-0.02867077
120	0x3cce62db	0.025193622
121	0xbe10e9ec	-0.14151734
122	0xbdded0e7	-0.10879689
123	0x3dad7827	0.08470183
124	0xbd1f4b3f	-0.03889012
125	0xbddd5fa4	-0.108092576
126	0xbe01e3a4	-0.12684494
127	0xbb9ae32f	-0.0047267894
128	0x3d66523c	0.05623077
129	0xbd1f5cc8	-0.038906842
130	0x3db8552d	0.09000621
131	0x3ca0cc36	0.019628625
132	0xbcc6edd4	-0.024283327
133	0xbc90219f	-0.017594157
134	0x3dc4dc05	0.09612278
135	0x3e0904a0	0.1338067
136	0xbdb02b63	-0.08602025
137	0xbe05bb97	-0.13059841
138	0x3c5d6c16	0.013514539
139	0x3d8a5052	0.06753601
140	0xbda0b31e	-0.07846664
141	0xbe252b98	-0.16129911
142	0x3e076a51	0.1322415
143	0x3d26f164	0.04075755
144	0xbe4274fc	-0.18989938
145	0xbb869e5b	-0.004108233
146	0xbd92ce00	-0.07168198
147	0x3e44b511	0.19209696
148	0x3dd6c7ca	0.104873255
149	0xbb9545f9	-0.0045554605
150	0xbdebdba3	-0.11516502
151	0xbdb5c0b4	-0.08874646
152	0x3cba904e	0.022773888
153	0x3d8fab2f	0.070150726
154	0xbd75d3db	-0.060016494
155	0x3df58126	0.11987524
156	0x3cd5abcb	0.026082894
157	0xbdd21705	-0.10258297
158	0x3ccf3c89	0.02529742
159	0xbd84a2b2	-0.06476344
160	0xbd29b132	-0.041428752
161	0x3ccab2e0	0.024743497
162	0xbd24a069	-0.04019204
163	0x3db35e51	0.08758224
164	0x3ddfd4e3	0.10929277
165	0xbd63af59	-0.055587146
166	0xbe0af9df	-0.13571881
167	0xbd85e195	-0.06537167
168	0x3d2d0ba6	0.042247437
169	0x3d1d3edd	0.03839003
170	0x3e015f16	0.12633929
171	0xbe174a87	-0.14774524
172	0xbdd4bccd	-0.103875734
173	0xbdb6cda5	-0.08925942
174	0x3d6a559c	0.05721055
175	0x3da5c69c	0.08094522
176	0xbdc417ae	-0.09574829
177	0xbe1b852d	-0.15187521
178	0xbc99cd28	-0.018774584
179	0xbe1df2a0	-0.15424585
180	0x3df79a30	0.12089956
181	0xbe578a5b	-0.21048872
182	0xbc32973c	-0.010900315
183	0x3ca1b998	0.019741818
184	0x3ddae523	0.106882356
185	0xbd9484e5	-0.0725191
186	0x3dc19447	0.0945211
187	0xbc3d582a	-0.0115566645
188	0x3d136417	0.035984125
189	0xbe027c4a	-0.12742725
190	0x3d94ff79	0.0727529
191	0xbd618515	-0.055058558
192	0xbe264a93	-0.16239385
193	0xbb11c0d2	-0.0022240174
194	0xbda9e133	-0.082949065
195	0x3d36e50a	0.044652022
196	0x3e0c0218	0.13672674
197	0xbd3eea2c	-0.046610042
198	0x3e2f56ec	0.17123002
199	0x3cbde9ea	0.023182828
200	0x3d8e8581	0.069590576
201	0x3c6cfd4c	0.014464688
202	0x3d28a009	0.041168246
203	0xbd9d734e	-0.07688008
204	0xba55483a	-0.0008136068
205	0x3c2ae07b	0.010429497
206	0x3ca04d99	0.019568251
207	0x3d6cd314	0.057818487
208	0x3e0101a3	0.1259828
209	0x37e814ab	2.766618e-05
210	0xbd033c13	-0.032039713
211	0xbe0feafa	-0.1405448
212	0x3e1146ff	0.14187239
213	0xbe0e4215	-0.13892396
214	0xbd9bfdf0	-0.07616794
215	0x3d541a70	0.051783025
216	0x3db062a6	0.08612566
217	0x3c28ff56	0.010314783
218	0xbe2d9a51	-0.16953398
219	0x3c293c97	0.010329387
220	0xbe0c1fc9	-0.13684
221	0x3daae61e	0.083446726
222	0xbe0e8b26	-0.13920268
223	0xbc9b3650	-0.018946797
224	0xbd21dfed	-0.039520193
225	0xbdbf9851	-0.09355224
226	0x3c702d7a	0.01465928
227	0x3dc7b955	0.09752146
228	0x3daa7515	0.08323113
229	0x3be3b317	0.0069488394
230	0x3e06a4c0	0.13148785
231	0x3da17271	0.07883156
232	0xbda91286	-0.08255486
233	0x3d7f292f	0.062295135
234	0x3e33ddbe	0.17565057
235	0xbce6c0af	-0.02816805
236	0x3d7fe54a	0.062474526
237	0xbd48abf5	-0.048992116
238	0xbdd6a987	-0.104815535
239	0xbcd9ec5f	-0.026601968
240	0xbd864066	-0.06555252
241	0x3d3b6773	0.045752954
242	0x3dc10171	0.09424103
243	0x3e0ec942	0.13943961
244	0xbe0a4555	-0.1350301
245	0xbdf709e4	-0.12062433
246	0xbdc57b4b	-0.09642657
247	0x3ce8c59f	0.028414546
248	0xbcb3ec04	-0.021963127
249	0xbdef4bde	-0.116843924
250	0xbd7eb7f3	-0.062187146
251	0x3d6297e5	0.05532064
252	0x3c655de7	0.013999439
253	0xbd75078c	-0.05982165
254	0x3c73e89e	0.014887003
255	0xbe3b3f17	-0.18285786

fc2.weight f4 [128, 256]
0	0xbd45fbb2	-0.04833574
1	0x3af380ad	0.0018577777
2	0x3cb6b6d2	0.022303972
3	0x3d37d2a5	0.04487862
4	0xbc800dba	-0.015631545
5	0x3d439102	0.047745712
6	0xbc3d045f	-0.011536687
7	0xbe03af4a	-0.12859836
8	0xbddda944	-0.108233005
9	0x3cf1d344	0.029519685
10	0x3cae3d3b	0.021269431
11	0xbc870179	-0.016480194
12	0xbe641fc2	-0.2227774
13	0x3d43602b	0.047699135
14	0xbdff92fd	-0.12479208
15	0x3dc49f1a	0.09600659
16	0xbd180677	-0.03711554
17	0x3e07c75d	0.13259645
18	0x3ce60481	0.02807832
19	0xbcc1eaf0	-0.023671597
20	0x3d3183bb	0.04333852
21	0xbd03904b	-0.03212003
22	0x3db097ce	0.086227044
23	0x3e2f2f56	0.17107901
24	0x3d7d498f	0.06183773
25	0xbd8d678e	-0.06904517
26	0x3b0f2dbf	0.0021847335
27	0xbd9d4bcc	-0.07680473
28	0xbddaa47c	-0.10675904
29	0xbe99a443	-0.30008134
30	0xbcf5f66f	-0.030024735
31	0x3d16c29f	0.0368067
32	0x3d510071	0.05102581
33	0xbdcf0ee1	-0.1011026
34	0x3d00558f	0.031331595
35	0xbd0108c2	-0.031502493
36	0xbd9ebc12	-0.07750715
37	0xbc8229f1	-0.01588914
38	0x3d874184	0.06604293
39	0x3d9a0602	0.07520677
40	0x3c175444	0.009236399
41	0xbe050b8a	-0.12992683
42	0xbdb5eaae	-0.08882652
43	0xbb7a742f	-0.0038216223
44	0xbde258d5	-0.110520996
45	0x3d88d689	0.06681544
46	0xbccc8510	-0.024965793
47	0x3de1ee2c	0.11031756
48	0x3c17d356	0.009266695
49	0xbd517aa2	-0.051142342
50	0xbd851da1	-0.06499792
51	0xbdb54aff	-0.08852195
52	0xbe1e87c4	-0.15481478
53	0xbd73b9dd	-0.059503425
54	0xbd66b52c	-0.056325123
55	0xbd7eca29	-0.062204514
56	0x3863e378	5.4332864e-05
57	0x3d047d6c	0.032346174
58	0xbe04dc72	-0.12974718
59	0x3d430577	0.047612634
60	0xbdcd9498	-0.10038108
61	0xbcc680b3	-0.02423129
62	0x3db888bc	0.09010455
63	0xbd435f1c	-0.047698125
64	0xbd2d244b	-0.04227094
65	0xbbb31dba	-0.00546619
66	0xbdade3bd	-0.08490703
67	0xbe03c7d3	-0.12869196
68	0xbc76275a	-0.015024031
69	0xbd82fef0	-0.06396282
70	0xbb387cd5	-0.0028150578
71	0x3c8aac6e	0.016927924
72	0xbd73fdd6	-0.05956825
73	0x3da9667a	0.08271499
74	0xbd12e9d4	-0.035867527
75	0xbd43db15	-0.047816355
76	0xbd663915	-0.05620678
77	0x3aaa331e	0.0012985205
78	0x3dba409b	0.09094354
79	0x3d1b4672	0.03790898
80	0xbda9a339	-0.082830854
81	0xbd9aef4d	-0.07565174
82	0xbd5259a8	-0.051355034
83	0xbdf1d98e	-0.118090734
84	0xbb6bfc23	-0.003600844
85	0xbd1408e8	-0.036141306
86	0xbe44824e	-0.19190332
87	0x3da59303	0.08084681
88	0x3d3b4cf5	0.04572769
89	0x3beb1027	0.0071735564
90	0xbe06690d	-0.13126011
91	0x3d29ecd2	0.041485615
92	0xbde8f946	-0.1137567
93	0x3d554536	0.052067958
94	0xbce9cc19	-0.028539704
95	0xbd8a350f	-0.067484014
96	0xbe060c38	-0.13090599
97	0xbb85011b	-0.0040589697
98	0x3d1e91d2	0.038713284
99	0xbe2ce525	-0.16884287
100	0x3dcad3d2	0.09903683
101	0xbe84d044	-0.25940144
102	0x3d28dd14	0.04122646
103	0xbe3b7103	-0.1830483
104	0xbd27c633	-0.040960502
105	0xbd04030c	-0.03222947
106	0x3d9de268	0.07709199
107	0x3d59894f	0.053109463
108	0x3dafccdf	0.08583998
109	0x3d2496c4	0.040182844
110	0x3d1b1dbc	0.037870154
111	0x3ca6b204	0.020348556
112	0xbd3dab01	-0.04630566
113	0xbd511ea7	-0.051054623
114	0x3c2e857c	0.010651942
115	0xbe080dff	-0.13286589
116	0x3d866c6d	0.06563649
117	0x3d869c35	0.06572763
118	0xbd44c15d	-0.048035968
119	0xbd87f540	-0.066385746
120	0x3a3c8431	0.0007191329
121	0x3db0f76d	0.08640943
122	0x3e1d708e	0.15374967
123	0x3a1f1e50	0.00060698856
124	0x3b88b8fd	0.004172443
125	0x3c98c2a8	0.018647507
126	0xbd762803	-0.060096752
127	0x3b89c2f7	0.00420415
128	0xbe0b2afa	-0.13590613
129	0x3d7543b4	0.05987902
130	0x3d3f66fa	0.046729065
131	0x3d433b81	0.04766417
132	0xbd13ede1	-0.03611553
133	0x3d95258e	0.072825536
134	0xbc90bf0d	-0.017669225
135	0xbcf3718d	-0.029717231
136	0xbc9dfcb3	-0.019285535
137	0x3c31f5b0	0.010861799
138	0x3d25dbf0	0.040492952
139	0x3d32f8a8	0.04369417
140	0x3cc3540b	0.023843786
141	0xbd1f3648	-0.038870126
142	0xbd0e9521	-0.03481019
143	0x3ce2232e	0.027604666
144	0xbb85cce2	-0.004083262
145	0xbda285c7	-0.07935672
146	0x3d2b02dd	0.041750778
147	0xbb623045	-0.0034513634
148	0xbdac6ac3	-0.08418801
149	0xbda22838	-0.07917827
150	0x3d5b3a1b	0.05352221
151	0xbe16e87e	-0.14737126
152	0x3bd5d353	0.006525436
153	0xbd86bba5	-0.06578759
154	0x3c8fb496	0.017542165
155	0xbe1b6122	-0.15173772
156	0x3d7b63c3	0.061374437
157	0x3d83dbdd	0.0643842
158	0xbe22e109	-0.15906157
159	0x3d557c71	0.05212063
160	0xbc82d245	-0.015969405
161	0x3d197511	0.03746516
162	0x3dae8ea9	0.08523304
163	0x3ca579d8	0.020199701
164	0x3e300747	0.17190276
165	0xbe60bf3a	-0.21947947
166	0xbdebfdd0	-0.1152302
167	0x3cd69809	0.026195543
168	0x3b69c15a	0.0035668225
169	0xbc198494	-0.009369988
170	0x3d944737	0.07240146
171	0xbde4e438	-0.11176342
172	0xbe8f3b30	-0.27974844
173	0xbd79afd4	-0.0609587
174	0xbd9fb8b2	-0.077989
175	0x3ac47ecf	0.0014991405
176	0x3ddbc995	0.10731808
177	0xbd1c80e2	-0.03820885
178	0xbe3c293e	-0.18375108
179	0xbdc933aa	-0.09824307
180	0x3ba1c914	0.0049373005
181	0x3b6661e3	0.003515356
182	0xbd99bf9a	-0.07507248
183	0x3c55586f	0.0130215725
184	0x3cf07d18	0.029356524
185	0x3d88db0a	0.066824034
186	0xbd74206c	-0.059601232
187	0xbd10b69c	-0.0353304
188	0xbe0a4881	-0.1350422
189	0x3d522b04	0.051310554
190	0x3db06bd7	0.08614319
191	0xbd190ecf	-0.03736764
192	0x3e11f90f	0.14255165
193	0xbd764dcd	-0.06013279
194	0xbd374a86	-0.044748805
195	0xbdaeb180	-0.08529949
196	0x3e1acf90	0.15118241
197	0x3d244dd6	0.040113293
198	0xbb8569b7	-0.00407144
199	0x3bcb5ec1	0.006206364
200	0xbe154edb	-0.14580862
201	0xbc5d1fa1	-0.01349631
202	0xbdec54f7	-0.11539643
203	0xbdad26b8	-0.08454651
204	0x3dd35b2d	0.10320125
205	0xbe51cd47	-0.20488463
206	0xbdd467a3	-0.1037133
207	0xbc78d657	-0.015187821
208	0xbd275f74	-0.040862516
209	0xbbe8a283	-0.007099451
210	0xbdb8d189	-0.09024341
211	0x3d998a88	0.07497126
212	0x3d501762	0.05080355
213	0xbd268e72	-0.04066319
214	0xbce4fa32	-0.027951334
215	0x3e0826ac	0.13296002
216	0xbe1edcbc	-0.15513891
217	0x3c06f94c	0.008238148
218	0xbd1f5e04	-0.03890802
219	0x3d3f0051	0.04663116
220	0xbde3378e	-0.110945806
221	0x3cda0878	0.026615366
222	0xbd5d98ca	-0.05410079
223	0x3c86df84	0.016464002
224	0xbcd3ec9c	-0.02586966
225	0xbe131b85	-0.14365967
226	0xbcb9de21	-0.022688927
227	0x3d4c487c	0.049873814
228	0x3da4e9b1	0.080523856
229	0x3d0f950a	0.035054244
230	0xbdc58026	-0.09643583
231	0x3db14bec	0.08657059
232	0x3d14719b	0.036241155
233	0xbe0ff461	-0.14058067
234	0xbcd4dbe9	-0.025983768
235	0xbd49bd0e	-0.049252562
236	0x3d81cd96	0.063380405
237	0xbe165e08	-0.14684308
238	0x3e1e617f	0.1546688
239	0xbd420494	-0.047367647
240	0x3d9bc06e	0.076050624
241	0xbc764837	-0.015031866
242	0x3db25cc3	0.08709099
243	0xbe799f24	-0.24377114
244	0x3c6ab3c9	0.014325091
245	0x3dc14183	0.094363235
246	0xbd272d94	-0.04081495
247	0x3bb7f24a	0.0056136
248	0xbe118690	-0.14211488
249	0xbd6acaf3	-0.057322454
250	0x3d062b86	0.03275635
251	0xbd19a951	-0.03751499
252	0x3cb642ba	0.022248615
253	0xbd1c3fb4	-0.03814669
254	0xbca182c4	-0.019715674
255	0x3dc145b1	0.09437121

fc2.bias f4 [128]
0	0x3cde692e	0.027149763
1	0xbc8d0f60	-0.017219245
2	0xbd357ff4	-0.04431148
3	0xbcbd7681	-0.023127796
4	0x3d419066	0.04725685
5	0xbd9ed242	-0.07754947
6	0x3d8232f7	0.06357377
7	0x3d287c95	0.041134436
8	0xbd418afd	-0.04725169
9	0xbd51f216	-0.05125626
10	0xbbeed4b1	-0.0072885384
11	0xbcf4cabc	-0.029881828
12	0x3d0633a7	0.032764103
13	0x3d01bd97	0.031674948
14	0x3d278a27	0.040903237
15	0xbd27e75a	-0.04099212
16	0xbc8ac73e	-0.01694071
17	0xbb802909	-0.003911142
18	0xbce71704	-0.028209217
19	0xbd076db7	-0.033063617
20	0x3d81cbe4	0.06337717
21	0x3decdb14	0.11565223
22	0x3c3bc2ba	0.011460001
23	0xbcee114c	-0.029060982
24	0x3c27c789	0.010240444
25	0xbc26ae6b	-0.01017342
26	0xbc30d5f9	-0.010793203
27	0xbdb5d6a0	-0.08878827
28	0xbb6f9494	-0.0036557065
29	0x3dcf0817	0.10108965
30	0xbc3d398a	-0.011549363
31	0xbd06336a	-0.032763876
32	0x3b935b31	0.004496955
33	0xbc9c6ab9	-0.019093858
34	0x3d9bc450	0.07605803
35	0x3d459686	0.048239253
36	0x3c5721f9	0.013130658
37	0xbd674fcd	-0.05647259
38	0x3be13a43	0.0068734004
39	0x3e0c2cf1	0.13689019
40	0xbce106e1	-0.0274691
41	0xbd7cd09e	-0.06172239
42	0xbd238667	-0.039923098
43	0xbd530f71	-0.051528398
44	0x3d15e22f	0.03659266
45	0x3b7e0f1d	0.0038766332
46	0x3ceba803	0.028766638
47	0xbce5c8f4	-0.028049923
48	0x3b91b2ba	0.0044463547
49	0xbd65872c	-0.056037113
50	0xbb850f68	-0.0040606745
51	0xbc7075b6	-0.014676502
52	0xbce150ec	-0.027504407
53	0x3c841018	0.016120955
54	0x3dcef35f	0.10105013
55	0x3baf109d	0.0053425566
56	0xbd1425c7	-0.03616884
57	0xbc5392de	-0.012913434
58	0xbd2ee8e3	-0.042702567
59	0x3b1c25de	0.0023826282
60	0xbd883076	-0.06649868
61	0x3d9d4a27	0.07680159
62	0xbd9f51ff	-0.077793114
63	0x3cb0aac1	0.021565797
64	0xbd3ecd31	-0.046582405
65	0x3d46dd3a	0.04855082
66	0xbbf5405d	-0.0074844793
67	0x3d359aa0	0.044336915
68	0x3d9a44cf	0.075326554
69	0x3d1bf328	0.03807369
70	0xbcd20b27	-0.025640083
71	0xb9eb2012	-0.00044846587
72	0x3bbe03ca	0.0057987915
73	0x3b6a0cf8	0.0035713296
74	0xbda3572a	-0.079756096
75	0xbd355d59	-0.044278476
76	0x3cdf6f60	0.027274787
77	0x3d5ee6ba	0.054419257
78	0xbd221524	-0.039570943
79	0xbd49506e	-0.04914897
80	0xbd9cde22	-0.07659556
81	0xbc545121	-0.012958796
82	0xbd50d946	-0.050988458
83	0xbca78283	-0.020447975
84	0xbd644bd4	-0.055736378
85	0x3d7c4ac2	0.061594732
86	0xbb2f9ffa	-0.0026798234
87	0xbcd5d66b	-0.026103219
88	0x3c681c01	0.014166833
89	0xbc9630b6	-0.018333774
90	0xbd289001	-0.041152958
91	0xbcf1ff52	-0.029540692
92	0x3dc77e09	0.09740836
93	0xbd4dd13f	-0.05024838
94	0xbc01f5c1	-0.007932127
95	0xbd16f696	-0.036856256
96	0x3cbc3578	0.022974715
97	0xbcea899d	-0.028630072
98	0xbd219ebe	-0.03945803
99	0xbbb51075	-0.0055256435
100	0xbb4eb8bc	-0.0031543216
101	0xbd5df718	-0.054190725
102	0x3d63c4e7	0.055607703
103	0x3ccfc997	0.02536468
104	0x3d133422	0.03593839
105	0x3cb98b85	0.022649536
106	0xbcbabcba	-0.02279507
107	0x3caca8de	0.021076616
108	0x3ccc2b30	0.024922937
109	0xbd1bc173	-0.038026284
110	0x3cbf5658	0.023356602
111	0xbcb48040	-0.02203381
112	0x3cabc1c5	0.02096642
113	0x3a4fc3f4	0.00079256226
114	0x3c04a99a	0.008097077
115	0xbd957b66	-0.07298927
116	0x3d9cfd73	0.07665529
117	0xbd89d3ca	-0.06729849
118	0xbd5a0f87	-0.053237464
119	0x3d09f5fe	0.033681862
120	0xbd50566e	-0.050863676
121	0xbd9f4c49	-0.07778222
122	0xbd8743fe	-0.06604765
123	0xbcc3a9a3	-0.0238846
124	0xbd1bd728	-0.038046986
125	0x3b5af535	0.0033410315
126	0xbd34a5a8	-0.044103295
127	0xbd8be013	-0.06829848

fc3.weight f4 [1, 128]
0	0xbd6639ce	-0.05620747
1	0xbd649845	-0.055809278
2	0xbdf51f4c	-0.1196886
3	0x3c9d687a	0.019214857
4	0xbd1dc2ed	-0.038515974
5	0xbd95fe1e	-0.0732386
6	0x3cd11b73	0.025525784
7	0x3c2fcf11	0.010730521
8	0xbde3de1b	-0.11126348
9	0x3d2bcab7	0.04194137
10	0x3d56e801	0.05246735
11	0x3b55c0e1	0.0032616185
12	0x3c8f45f5	0.017489413
13	0x3ca51da6	0.020155739
14	0x3d5b57af	0.05355042
15	0x3cec0348	0.028810158
16	0x3d23b4bd	0.039967287
17	0xbcefc2f5	-0.029267767
18	0x3dabf586	0.08396439
19	0x3c6463c0	0.013939798
20	0x3d3fc4a7	0.0468184
21	0x3c63308a	0.013866553
22	0xbd07a50f	-0.033116397
23	0x3c918c0a	0.017766971
24	0xba38c7b4	-0.0007048801
25	0x3b1bfef9	0.0023803099
26	0x3caff57a	0.021479357
27	0xbd1c75fc	-0.038198456
28	0xbd1fac14	-0.038982466
29	0x3d341ff0	0.04397577
30	0xbde43061	-0.1114204
31	0xbdd6b8b4	-0.10484448
32	0xbc6f1dc7	-0.014594502
33	0x3c0836d7	0.008313856
34	0xbd3d114a	-0.046159066
35	0x3d096044	0.03353907
36	0x3d02b96e	0.03191512
37	0xbca83e14	-0.020537414
38	0x3ce1a21e	0.027543124
39	0x3c9f5801	0.019451143
40	0x3d8a38bb	0.06749102
41	0xbcd6556b	-0.026163777
42	0x3d9581f0	0.07300174
43	0x3d13737a	0.0359988
44	0x3ddd85d8	0.10816544
45	0x3cdea0a9	0.027176218
46	0x3c261586	0.0101369675
47	0x3bab4f3c	0.0052279513
48	0xbd497754	-0.049186066
49	0xbcce5266	-0.025185775
50	0x3d903c03	0.07042696
51	0x3d888ae6	0.06667118
52	0xbd3888da	-0.045052387
53	0x3cb4d4eb	0.022074183
54	0x3cace5b7	0.02110563
55	0xbce4c4a5	-0.027925799
56	0xbdf76152	-0.12079109
57	0xbe0e8ab0	-0.13920093
58	0xbb9f5a79	-0.00486308
59	0x3ccf7d26	0.02532823
60	0x3dc2da5b	0.09514304
61	0x3c90e0c1	0.017685296
62	0xbd60badd	-0.054865707
63	0xbd938cb4	-0.07204571
64	0x3c8c8226	0.017151903
65	0xbd4eba00	-0.050470352
66	0x3d47dac1	0.048792604
67	0xbd77e8d1	-0.060524765
68	0x3ce0f6c0	0.02746141
69	0x3d295a2f	0.04134577
70	0x3d9806c6	0.07423167
71	0x3aae2258	0.0013285382
72	0xbdad6efc	-0.08468434
73	0x3c5a1296	0.013310095
74	0x3cfd94e1	0.03095478
75	0x3de7843c	0.113045186
76	0xbd60ee9b	-0.054915052
77	0x3d5e5dac	0.05428855
78	0x3c8867b5	0.016651014
79	0x3d27dfdd	0.040984977
80	0x3d8cf195	0.068820156
81	0x3d0f4872	0.0349812
82	0xbd319e83	-0.04336406
83	0x3cb60aae	0.02222189
84	0x3c4e5bc3	0.01259512
85	0x3cf78201	0.030213358
86	0x3c1e54c0	0.009663761
87	0x3ccde2f9	0.025132643
88	0xbba964d0	-0.0051694885
89	0xbc44f12b	-0.01202039
90	0xbd5ef8e7	-0.05443659
91	0xbd198087	-0.03747609
92	0x3ba13f4d	0.004920876
93	0xbccf94cd	-0.025339508
94	0xbceca2ba	-0.028886188
95	0x3d7daa44	0.061929956
96	0xbd7ec5bd	-0.062200297
97	0x3a787f5f	0.0009479429
98	0xbc0beab6	-0.008539846
99	0xba69bd50	-0.00089164544
100	0xbd5059c2	-0.05086685
101	0xbdf4c545	-0.11951689
102	0xbda17a19	-0.078846164
103	0x3cb998db	0.022655895
104	0x3c4df8c3	0.012571516
105	0x3bbc8bdd	0.0057539777
106	0x3d30dade	0.043177478
107	0x3cb3c064	0.021942325
108	0x3c942fc2	0.018089179
109	0x3ce52e2a	0.027976114
110	0x3cf8cd6a	0.030371387
111	0xbd037386	-0.032092594
112	0x3d60bec7	0.05486944
113	0xbd09b8f7	-0.03362366
114	0x3c80b0cf	0.015709309
115	0xbdd4c037	-0.103882246
116	0xbd9463a0	-0.072455645
117	0x3ac4e405	0.0015021568
118	0x3c3805f5	0.011231889
119	0x3c9b7bd6	0.018979948
120	0xbdb53c48	-0.08849388
121	0x3cb916b3	0.022593832
122	0xbcfe4c42	-0.031042222
123	0xbd6c9b13	-0.057765078
124	0x3a93c3b2	0.0011273532
125	0xbc8d65f7	-0.017260535
126	0xbd59e35a	-0.053195335
127	0xbd42806e	-0.04748576
