checkpoints/checkpoint_max_agent1__actor.pth (torch_old, 159264 bytes, 6 tensors)

fc1.weight f4 [256, 24]
0	0x3c93756a	0.018000323
1	0xbcb163a4	-0.021653958
2	0x3c52885f	0.012849896
3	0xbdd6d270	-0.104893565
4	0xbdff37d8	-0.12461823
5	0x3cca785f	0.0247156
6	0x3c8e7eab	0.017394384
7	0xbce46dda	-0.027884413
8	0xbc8c6062	-0.017135803
9	0x3cd88f42	0.026435498
10	0xbd43be90	-0.047789156
11	0xbd6a50e1	-0.05720604
12	0xbcbbf4d4	-0.022943892
13	0xbd9a75c3	-0.075419925
14	0x3c69bc7c	0.01426613
15	0xbb8355f5	-0.0040080496
16	0xbd703e36	-0.05865308
17	0xbcfc6ef4	-0.030814625
18	0xbd28f2b0	-0.04124707
19	0x3d4a04a6	0.04932084
20	0xbc89da4d	-0.016827727
21	0xbe368276	-0.17823204
22	0x3cc5e4c2	0.024156932
23	0x3b88139d	0.0041527287
24	0x3c0cce2f	0.00859408
25	0x3cdc3f34	0.026885606
26	0xbc77feec	-0.015136462
27	0x3da4235a	0.08014555
28	0xbd146d1b	-0.036236864
29	0xbd9010cf	-0.07034456
30	0xbbd8e556	-0.006619136
31	0xbc4e9a9a	-0.012610102
32	0xbcf6de0f	-0.030135183
33	0xbd85ebc5	-0.0653911
34	0x3cfe5954	0.031048454
35	0xbc030730	-0.007997319
36	0xbdb962d6	-0.090520546
37	0x3c85ad24	0.016317911
38	0xbc861d8f	-0.016371517
39	0x3b073e27	0.002063641
40	0xbc200055	-0.009765704
41	0xbe016c68	-0.1263901
42	0xbd070ac9	-0.03296927
43	0xbbd48792	-0.006485888
44	0xbc55e4ec	-0.0130550675
45	0x3e38f13e	0.18060777
46	0x3c489d3a	0.012244517
47	0xbd378286	-0.04480221
48	0xbdae4179	-0.08508582
49	0x3d302617	0.043005075
50	0x3d42a5fd	0.04752158
51	0xbd44ed9d	-0.04807817
52	0xbd750b25	-0.05982508
53	0x3d33b5c9	0.043874536
54	0xbd105ac4	-0.03524281
55	0xbdd0f88b	-0.10203656
56	0x3a9d929d	0.0012021844
57	0x3d330a75	0.043711144
58	0xbd44b593	-0.048024725
59	0xbd3e5320	-0.046465993
60	0xbca20700	-0.019778728
61	0xbd600eab	-0.05470149
62	0xbcec4349	-0.028840678
63	0xbcda27ff	-0.0266304
64	0x3c22567d	0.009908316
65	0x3d15c865	0.036568064
66	0xbd579571	-0.052632753
67	0x3bfef0ca	0.007780169
68	0xbc01ee73	-0.007930386
69	0xbdc5b814	-0.09654251
70	0xbbcce4e6	-0.0062528728
71	0x3da9c95d	0.0829036
72	0x3c4c53b7	0.012471131
73	0x3c3d8747	0.011567897
74	0x3d0a5704	0.03377439
75	0x3b8dae1f	0.0043237354
76	0xbd9c3a55	-0.076283135
77	0xbc409b64	-0.011755798
78	0x3d6be7fd	0.05759429
79	0xbb2cd0dc	-0.0026369607
80	0xbcdd648e	-0.027025487
81	0xbc349d42	-0.011023821
82	0xbd2cbb03	-0.042170536
83	0x3d11bdd5	0.03558143
84	0x3d5a3d88	0.053281337
85	0x3dc91836	0.09819071
86	0xbb73efd1	-0.00372218
87	0x3ddc02e9	0.107427426
88	0x3d155ef3	0.036467504
89	0x3cb4cd93	0.022070682
90	0xbc3f2d78	-0.011668555
91	0x3dbb0546	0.09131865
92	0x3e19ea71	0.15030839
93	0x3e8a7654	0.27043402
94	0x3dadb286	0.08481316
95	0x3df78dbf	0.12087583
96	0xbd3c1b10	-0.045924246
97	0xbd844289	-0.06458003
98	0x3dad0cc5	0.08449701
99	0x3d1dabcd	0.03849392
100	0x3c8b7a69	0.017026143
101	0x3e0ee48c	0.13954371
102	0xbcae0d66	-0.021246623
103	0xbd0a343b	-0.033741217
104	0xbcf75a24	-0.03019435
105	0xbc85e892	-0.01634625
106	0x3cc02244	0.02345384
107	0x39c934e1	0.00038377105
108	0x3df0a1b6	0.11749594
109	0x3e921a75	0.2853581
110	0x3d3a1c66	0.04543724
111	0x3d8aa377	0.0676946
112	0x3d42bc42	0.047542818
113	0x3d0f33c5	0.03496148
114	0xbc81f0b2	-0.015861843
115	0x3d915da7	0.07097941
116	0x3da46008	0.08026129
117	0x3e268556	0.16261801
118	0x3cbaa0d1	0.022781761
119	0x3e0e934a	0.13923374
120	0x3c9ab4bf	0.018885015
121	0x3d15a3ee	0.03653329
122	0xbd4e9a66	-0.050440215
123	0xbcca0e98	-0.024665162
124	0x3cd72478	0.026262507
125	0x3d66ec45	0.056377668
126	0x3ce3857d	0.027773613
127	0xbbd2e9d5	-0.0064365664
128	0xbc5fb757	-0.0136545515
129	0x3d28f803	0.041252147
130	0xba8b663c	-0.0010635327
131	0xbd1b606c	-0.037933752
132	0xbda0f39d	-0.078589655
133	0x3d88d895	0.06681935
134	0x3d88414e	0.06653081
135	0xbc43efb2	-0.011959003
136	0x3c0691fc	0.008213516
137	0xbdc4ccf9	-0.09609408
138	0x3d6f20e4	0.058380976
139	0x3d256ae2	0.040385135
140	0xbd1295c1	-0.035787348
141	0x3e2c85dd	0.1684794
142	0x3d88718c	0.06662282
143	0x3c687990	0.014189139
144	0xbcf27cfd	-0.029600615
145	0x3d9a3dd0	0.07531321
146	0x3ce39fdf	0.027786193
147	0xbd7db810	-0.061943114
148	0x3d3201b6	0.043458663
149	0xbe1d418a	-0.15357032
150	0x3d623c1c	0.055233106
151	0x3ce20f30	0.027595133
152	0x3d73c888	0.059517413
153	0x3cd047de	0.025424894
154	0x3d138bf5	0.036022145
155	0x3cd55d54	0.026045479
156	0xbd5beabb	-0.053690653
157	0xbb1eeaf1	-0.0024248923
158	0x3c721ffd	0.014778134
159	0x3d0c6ad5	0.03428157
160	0x3c5b3714	0.013379831
161	0x3bfecc11	0.0077757915
162	0x3d5aee3e	0.05344986
163	0x3cd846bb	0.026400914
164	0xbb11f4de	-0.0022271196
165	0x3da42b70	0.080160975
166	0x3d528524	0.051396504
167	0x3d6a2736	0.0571663
168	0xbd0adef8	-0.033904046
169	0xbbe72564	-0.007054018
170	0xbd57737c	-0.05260037
171	0xbc3ee0b9	-0.011650258
172	0x3dc2f1bd	0.09518764
173	0x3e22e211	0.1590655
174	0xbcca40fa	-0.024689186
175	0xbd6b5e0d	-0.05746274
176	0xbcd070dc	-0.02544444
177	0x3d53889b	0.05164395
178	0xbbbc4a1a	-0.0057461383
179	0x3c574459	0.013138854
180	0x3d1acb2d	0.03779142
181	0x3e429060	0.19000387
182	0x3bfb2fc9	0.0076656085
183	0x3ca921c5	0.020645985
184	0x3bbcd967	0.005763221
185	0x3d411492	0.047138758
186	0xbd6716dc	-0.056418285
187	0x3e1adb8d	0.15122814
188	0x3d6fb88e	0.058525614
189	0x3e324ce5	0.17412145
190	0x3ca4e4e6	0.020128679
191	0x3e06e6c2	0.13173965
192	0xbd401b7c	-0.04690121
193	0x3d498fcf	0.049209412
194	0x3d66f7c5	0.056388635
195	0x3d999587	0.07499223
196	0xbbbdd34d	-0.0057930113
197	0x3d4cf2bb	0.050036173
198	0x3d7104ff	0.058842655
199	0x3d4b4731	0.04962844
200	0x3c2b9ce1	0.010474415
201	0x3c63b318	0.01389768
202	0x3c5993e0	0.013279885
203	0xbc6153b2	-0.013752865
204	0xbca61a16	-0.02027611
205	0x3e0ece2f	0.1394584
206	0x3d093063	0.03349341
207	0x3c340cd4	0.010989387
208	0x3d251a35	0.040308196
209	0xbd1fb1f2	-0.03898806
210	0x3d485a35	0.048914153
211	0x3c9296d1	0.01789418
212	0xbdfbac96	-0.122887775
213	0x3e2e9188	0.17047703
214	0xbcebaa6e	-0.02876779
215	0xbd4627f3	-0.048377942
216	0xbcae0b11	-0.021245511
217	0x3c361750	0.011113957
218	0xbb9c0bc3	-0.0047621443
219	0x3cf2ee6e	0.029654708
220	0xbd03ab0a	-0.032145537
221	0x3df2b1f5	0.11850349
222	0xbc53f571	-0.012936936
223	0x3d4183c1	0.04724479
224	0xbdcd42b0	-0.10022485
225	0xbc9b942f	-0.018991558
226	0x3d1b62d9	0.037936065
227	0x3c0506c3	0.008119288
228	0xbc0e81fd	-0.008697984
229	0x3d888772	0.06666459
230	0xbbf04558	-0.007332485
231	0xbd7eaf50	-0.06217891
232	0xbcd57110	-0.026054889
233	0xbd2f7798	-0.042838663
234	0xbd630b0f	-0.05543047
235	0x3d4d7961	0.050164584
236	0x3c9ffebf	0.019530652
237	0xbe116f0d	-0.14202519
238	0x3d2a13ff	0.041522976
239	0x3cc4f540	0.024042726
240	0xbd948d24	-0.07253483
241	0xbc90bddd	-0.017668659
242	0x3c129202	0.008945944
243	0x3cfa6db6	0.030569892
244	0xbc49c424	-0.01231483
245	0x3e118bcb	0.14213483
246	0xbd08f011	-0.03343207
247	0x3db0d2ae	0.08633934
248	0xbcbca39f	-0.02302724
249	0xb9c19b1c	-0.00036927394
250	0x3cf7ef3c	0.030265443
251	0x3ceccb4b	0.028905531
252	0x3db37073	0.08761682
253	0x3e2cdc4c	0.16880912
254	0xbc35d857	-0.011098943
255	0x3d4e651b	0.05038939

fc1.bias f4 [256]
0	0xbd8a3f83	-0.06750395
1	0x3e2d2715	0.1690944
2	0x3dd8a34c	0.105780214
3	0x3e044017	0.12915073
4	0xbd76b856	-0.06023439
5	0xbe0e31f9	-0.1388625
6	0xbe475fa2	-0.19470075
7	0xbc828d27	-0.015936447
8	0xbe1e2c57	-0.15446602
9	0xbdf5883b	-0.119888745
10	0x3e334aa0	0.17508936
11	0xbcc1f10c	-0.02367451
12	0x3e058bd0	0.13041615
13	0xbe35424c	-0.17701072
14	0xbcfce376	-0.03087018
15	0x3e751c4f	0.2393658
16	0x3d13b56e	0.036061697
17	0x3d5f23df	0.05447757
18	0xbd851534	-0.06498185
19	0xbe183ca2	-0.1486688
20	0x3e0c8d76	0.13725838
21	0xbe1c6399	-0.15272368
22	0x3c562e11	0.0130725065
23	0xbdbd29ff	-0.09236526
24	0x3d0e746c	0.034778997
25	0xbe43941f	-0.19099472
26	0x3dce3031	0.100677855
27	0x3cfc7c2e	0.030820932
28	0xbe157ea2	-0.14599088
29	0xbd7c88c0	-0.061653852
30	0xbd849fa9	-0.06475765
31	0xbdec3221	-0.11532999
32	0xbe03a27c	-0.12854952
33	0x3e018313	0.12647657
34	0xbe001aa4	-0.12510163
35	0x3de1c8c2	0.1102462
36	0xbe12ddc1	-0.14342405
37	0x3e55fdc3	0.20897584
38	0xbd7830a3	-0.06059326
39	0x3e076787	0.13223086
40	0xbdf7b83b	-0.12095686
41	0xbe0b982b	-0.13632266
42	0xbcdf444a	-0.027254242
43	0xbda4ebc1	-0.08052779
44	0xbd30a6e7	-0.04312792
45	0xbd8f7f86	-0.07006745
46	0x3d171819	0.036888216
47	0xbe4d05e0	-0.20021772
48	0x3e550df1	0.208061
49	0x3de5b1c2	0.11215545
50	0xbd871f2f	-0.06597745
51	0x3e467720	0.1938138
52	0xbdf0d413	-0.117592
53	0xbe006d62	-0.12541726
54	0x3d90831f	0.07056259
55	0xbce81ff9	-0.028335558
56	0x3e0d7369	0.13813557
57	0xbdc1ad9f	-0.09456944
58	0xbe02b15f	-0.12762974
59	0x3e43c5c0	0.19118404
60	0x3d1a91b0	0.037736595
61	0x3d466dba	0.048444487
62	0x3c203bee	0.009779913
63	0xbdc63187	-0.09677415
64	0x3d8fafd8	0.070159614
65	0x3cf22c95	0.029562274
66	0xbe0a1a18	-0.13486516
67	0x3e220052	0.15820435
68	0xbe5509df	-0.20804547
69	0xbd817b52	-0.063223496
70	0xbd1df05e	-0.03855931
71	0xbe3fa3e4	-0.18714863
72	0xbe3e6c10	-0.1859591
73	0xbd12ef8e	-0.03587299
74	0xbd10871a	-0.035285093
75	0x3e07b11b	0.13251154
76	0x3e2d272e	0.16909477
77	0x3e81f564	0.2538253
78	0x3dd72cb2	0.10506572
79	0x3cfd60fc	0.030930035
80	0xbcb495f3	-0.022044158
81	0xbd9b9424	-0.07596615
82	0xbe4e661a	-0.20156136
83	0xbe2de59c	-0.1698212
84	0x3de727d1	0.11286891
85	0xbe123855	-0.14279301
86	0xbd49917e	-0.049211018
87	0x3cbc0a24	0.022954054
88	0xbe18f8f5	-0.1493872
89	0x3df99c6d	0.12188039
90	0xbca1d902	-0.019756798
91	0x3d6d1106	0.057877563
92	0xbd9ec93c	-0.07753226
93	0x3e436237	0.19080435
94	0xbe495112	-0.19659832
95	0xbe48ec05	-0.19621284
96	0x3e528c07	0.20561229
97	0xbe060a2f	-0.13089822
98	0x3e610f01	0.2197838
99	0x3e1f3612	0.1554797
100	0x3db84a45	0.08998541
101	0xbcb0c784	-0.021579511
102	0x3d27d132	0.04097099
103	0x3d41a645	0.047277708
104	0xbd35a4a8	-0.04434648
105	0x3e1a14de	0.15047023
106	0x3e46cc6b	0.19413917
107	0x3c9da96c	0.019245826
108	0x3d580de2	0.052747615
109	0x3ba50189	0.0050355834
110	0xbd9e9092	-0.07742418
111	0xbe1e00f1	-0.15430047
112	0xbd17bc5c	-0.037044868
113	0xbe2ad531	-0.16682889
114	0xbd58e841	-0.05295587
115	0x3de45f3e	0.111509785
116	0x3e57697b	0.21036331
117	0xbe40b877	-0.18820368
118	0xbe0068ba	-0.1253995
119	0x3e503189	0.20331396
120	0xbd80a596	-0.06281583
121	0x3d0b7ae5	0.03405275
122	0x3e250e8d	0.16118832
123	0x3e2531a9	0.16132225
124	0x3e0b871c	0.13625759
125	0x3db46676	0.088086054
126	0x3d58c84a	0.052925386
127	0x3d6bd00a	0.05757145
128	0x3d8d2e8e	0.06893645
129	0xbe3f28b3	-0.1866787
130	0xbe41bc97	-0.18919598
131	0x3e3d671d	0.18496366
132	0xbe5463d1	-0.20741202
133	0x3e0b048f	0.13575958
134	0x3e55472f	0.20827936
135	0x3de30926	0.11085729
136	0x3dc65346	0.09683852
137	0x3cf2e182	0.029648546
138	0x3e0e525a	0.13898602
139	0x3ddcee13	0.107875966
140	0x3d5d3a05	0.05401041
141	0xbe12b95c	-0.14328521
142	0x3e14797a	0.14499465
143	0x3d158bda	0.036510326
144	0x3e267c98	0.16258466
145	0xbde45459	-0.111489005
146	0xbd87bb37	-0.06627505
147	0xbdc5b28f	-0.09653198
148	0x3c8008da	0.01562922
149	0x3e3c9181	0.1841488
150	0x3d3ee6dd	0.046606887
151	0x3e222b94	0.15836936
152	0x3e2b419c	0.16724247
153	0xbdca3df4	-0.09875098
154	0x3e3e23c9	0.18568338
155	0x3c58b6a5	0.01322714
156	0x3e564381	0.20924188
157	0x3cdec8af	0.027195303
158	0xbd2f2794	-0.042762354
159	0x3e226a7a	0.1586093
160	0xbe1455c8	-0.14485848
161	0x3c96ebb6	0.018422943
162	0xbc8fbb07	-0.017545236
163	0xbb88b79d	-0.004172279
164	0xbbf23a60	-0.0073922127
165	0x3e32222f	0.17395853
166	0x3c1ef177	0.009701124
167	0x3dd626d1	0.104566224
168	0x3e11444a	0.14186206
169	0x3e7a5797	0.24447475
170	0x3d7d5914	0.06185253
171	0xbe25fd35	-0.16209872
172	0xbe5bd3b5	-0.21467479
173	0xbe00819f	-0.12549447
174	0xbe485b14	-0.19565994
175	0xbe09f8bc	-0.13473791
176	0xbc2b5a14	-0.010458488
177	0x3e68e372	0.22743014
178	0xbde16821	-0.11006189
179	0x3dd850ac	0.10562262
180	0xbcd03329	-0.02541502
181	0x3e2a2731	0.16616513
182	0x3dd11890	0.10209763
183	0x3df39b57	0.11894863
184	0x3e4a8ae8	0.19779551
185	0xbe2bd366	-0.16779861
186	0xbe10f9dd	-0.14157815
187	0xbd92042a	-0.071297005
188	0x3d341746	0.043967508
189	0x3e61b94e	0.22043344
190	0x3e572f5c	0.2101416
191	0x3dbaf30b	0.09128388
192	0xbd810ee7	-0.063016705
193	0xbdf371b5	-0.11886922
194	0x3e7bc5e0	0.24587202
195	0xbe18d66f	-0.1492555
196	0xbe19b6ee	-0.15011188
197	0x3de98d6b	0.114039265
198	0x3e319eb6	0.173457
199	0x3daa9d4d	0.08330784
200	0x3c8a383c	0.016872518
201	0xbd83674a	-0.06416185
202	0x3c9b1d39	0.018934833
203	0xbdc199d6	-0.0945317
204	0x3e4a1e63	0.19738154
205	0x3e80376b	0.2504228
206	0xbda91712	-0.082563534
207	0x3e081479	0.1328906
208	0xbc48583a	-0.012228066
209	0xbe001b12	-0.12510327
210	0x3c247ee3	0.010040018
211	0xbd381e24	-0.04495062
212	0x3e220758	0.15823114
213	0x3c197d3c	0.009368237
214	0xbd81a285	-0.06329826
215	0xbe3cc8b1	-0.18435933
216	0x3e069619	0.13143195
217	0x3e12f74c	0.14352149
218	0x3ccb09e7	0.024784995
219	0x3c854747	0.01626934
220	0xbd94a70d	-0.07258425
221	0x3d353ec8	0.044249326
222	0x3e52e949	0.20596804
223	0xbd11ad70	-0.035565794
224	0x3d6587e4	0.0560378
225	0xbe1ddef9	-0.15417089
226	0x3d6ab8f0	0.057305276
227	0xbdd2503a	-0.10269208
228	0xbd5f6d88	-0.054547817
229	0xbe03612f	-0.12830041
230	0x3e40cad6	0.18827376
231	0x3df51aa9	0.11967976
232	0xbd91c8a3	-0.071183465
233	0x3c0a8350	0.008454159
234	0x3d5856df	0.05281722
235	0x3df0456d	0.11731992
236	0xbdd08d3c	-0.10183188
237	0x3e0e3632	0.13887861
238	0x3d0e9b65	0.034816165
239	0x3e062558	0.13100183
240	0xbdcd5c6c	-0.10027394
241	0xbe028375	-0.1274546
242	0x3e123247	0.14276992
243	0xbcad109e	-0.021126088
244	0xbd1b2019	-0.037872408
245	0x3e529978	0.20566356
246	0xbd3156ca	-0.04329566
247	0xbe007d88	-0.12547886
248	0x3be7a415	0.0070691206
249	0xbd5967ce	-0.05307751
250	0xbd04a141	-0.032380346
251	0xbe29c80d	-0.1658022
252	0x3e2c7129	0.16840042
253	0x3e6d5e0a	0.23180404
254	0xbe1aa598	-0.15102232
255	0x3df208e3	0.11818101

fc2.weight f4 [128, 256]
0	0xbcef92b5	-0.02924476
1	0xbdb167b8	-0.08662361
2	0x3c4bfc4c	0.012450289
3	0x3bf56e80	0.0074899793
4	0x3d8dd8b8	0.069261014
5	0xbc7c4a43	-0.015398565
6	0x3b4b336d	0.0031005994
7	0x3e06400b	0.13110368
8	0xbd24322b	-0.040086906
9	0x3db28b0b	0.087179266
10	0xbd520efa	-0.051283814
11	0xbd5a253f	-0.053258177
12	0xbdca4551	-0.09876502
13	0xbc59ffe7	-0.013305641
14	0x3dc6eac4	0.09712747
15	0xbcaaee08	-0.020865455
16	0x3cf73fb4	0.030181743
17	0x3b25ee7f	0.0025319157
18	0xbdd67c83	-0.104729675
19	0xbcaa3e16	-0.020781558
20	0xbd685bbf	-0.05672812
21	0x3d9707ec	0.07374558
22	0x3db9dc35	0.09075204
23	0xbda18157	-0.07885998
24	0xbd842372	-0.06452073
25	0x3dd05cbc	0.10173938
26	0xbe3502ae	-0.17676803
27	0xbd14c484	-0.036320224
28	0xbe34c64e	-0.17653772
29	0xbd053415	-0.032520372
30	0x3c7949fd	0.015215394
31	0x3d1ffd72	0.039060064
32	0x3e11f8f1	0.1425512
33	0xbd96142a	-0.07328065
34	0x3de50ae0	0.11183715
35	0xbd0a4973	-0.033761453
36	0x3cdaca77	0.02670787
37	0xbcf23724	-0.029567309
38	0xbc841b27	-0.016126228
39	0x3d80f798	0.06297225
40	0x3b7a8036	0.0038223392
41	0xbe18df25	-0.14928873
42	0x3cdee38b	0.02720811
43	0xbc277857	-0.010221562
44	0x3dda79a7	0.106677346
45	0x3dba381c	0.09092733
46	0x3d156d9e	0.036481492
47	0xbccc6248	-0.024949208
48	0x3d5fe896	0.05466517
49	0x3d2e0926	0.042489193
50	0xbc9de824	-0.019275732
51	0xbdb7b33f	-0.08969735
52	0x3c62cd9f	0.013842969
53	0xbdb2f318	-0.08737773
54	0xbd97cb10	-0.07411778
55	0xbe0a519c	-0.13507694
56	0x3d94eaf2	0.07271375
57	0x3c9df1e4	0.019280382
58	0xbd9d30f9	-0.076753564
59	0xbdbff086	-0.09372048
60	0xbca9942e	-0.02070054
61	0x3e16da02	0.14731601
62	0x3d389c79	0.0450711
63	0xbc1f21d5	-0.009712656
64	0xbd3f14bc	-0.046650633
65	0x3d1edad3	0.038782906
66	0x3d2e1ee6	0.042509936
67	0x3c0022e7	0.007820821
68	0xbd2280a0	-0.039673448
69	0xbd11dcbd	-0.035610903
70	0xbb465af1	-0.0030266608
71	0x3d55cf98	0.05219993
72	0xbd4f4177	-0.05059954
73	0x3da920e2	0.08258225
74	0xbc5c6286	-0.013451224
75	0x3d068c99	0.032848928
76	0xbd3757f0	-0.044761598
77	0xbe0685f9	-0.13137044
78	0xbd0fb213	-0.035081934
79	0xbd242623	-0.040075433
80	0xbcb6b924	-0.022305079
81	0xbd23396d	-0.039849687
82	0xbcc3eba7	-0.023916079
83	0x3d898e71	0.06716622
84	0x3d877668	0.06614381
85	0x3c0c79f2	0.008573996
86	0xbde08948	-0.10963684
87	0x3ce7a8d9	0.028278755
88	0xbce3c54e	-0.027804043
89	0xbb58bf65	-0.0033073064
90	0x3dc16d2f	0.09444653
91	0xbd8ecc57	-0.069725685
92	0x3aa54f1c	0.0012612077
93	0x3d168248	0.03674534
94	0xbaa8351a	-0.0012833208
95	0x3d097e59	0.03356776
96	0x3d15a486	0.036533855
97	0xbdfdc28f	-0.12390625
98	0x3d8191de	0.0632665
99	0xbd9134ea	-0.07090171
100	0x3d80c42b	0.06287416
101	0x3dcd4d21	0.10024477
102	0x3ce2ae68	0.027671054
103	0xbbc56c4c	-0.006024873
104	0x3d39d1f6	0.04536625
105	0xbd391bf1	-0.045192663
106	0xbda7d408	-0.081947386
107	0x3d804a77	0.06264203
108	0xbc8c3432	-0.017114732
109	0x3c7c10bc	0.015384849
110	0xbe6d197f	-0.23154257
111	0x3cb6f50c	0.022333644
112	0x3d4d7406	0.050159477
113	0x3cf2231c	0.029557757
114	0x3c08460a	0.00831748
115	0x3d730a9a	0.059336282
116	0xbcab43aa	-0.020906288
117	0x3dce215c	0.100649565
118	0xbdb5fbc5	-0.08885912
119	0x3d4225c9	0.047399316
120	0x3dbb98dc	0.09160015
121	0xbdb83290	-0.08994019
122	0xbe3cf4c4	-0.18452746
123	0x3c2eae53	0.010661679
124	0xbc139c4b	-0.009009431
125	0x3d8a3688	0.06748682
126	0x3b915552	0.00443522
127	0xbe10df47	-0.14147674
128	0xbe06c5c6	-0.13161382
129	0x3d65f686	0.056143306
130	0x3ce4f9bf	0.02795112
131	0x3d3e6a1a	0.046487905
132	0xbd80c373	-0.06287279
133	0x3de27ab2	0.110585585
134	0x3d146201	0.036226276
135	0xbd542291	-0.051790778
136	0x3b0d579a	0.0021567107
137	0x3d75b869	0.05999032
138	0xbda3577c	-0.07975671
139	0xbb7b200b	-0.003831866
140	0xbd4edc3f	-0.05050301
141	0x3d431f8b	0.047637504
142	0xbd7c805a	-0.061645843
143	0xbcc162b1	-0.02360663
144	0xbcd34e35	-0.025794128
145	0x3cee09e4	0.02905745
146	0xbcfc44c3	-0.030794507
147	0x3cd1b83b	0.025600543
148	0xbb13856e	-0.002250995
149	0x3da97848	0.08274895
150	0x3db3dafe	0.08782004
151	0xbd0f5653	-0.034994435
152	0xbc276bf6	-0.010218611
153	0xbe30309d	-0.17206044
154	0x3d6d0b8e	0.057872348
155	0x3e1e5eba	0.15465823
156	0x3d0a6d8c	0.03379588
157	0x3d3b3f09	0.045714412
158	0x3ce69098	0.02814512
159	0xbd33265e	-0.04373776
160	0x3d92ab3d	0.07161567
161	0xbe479f97	-0.19494472
162	0x3dbbf416	0.09177415
163	0x3d06d2be	0.032915823
164	0x3da63148	0.081148684
165	0xbd0d8315	-0.034548838
166	0xbc50cd1f	-0.012744217
167	0xbc55925f	-0.013035386
168	0xbb87323d	-0.004125862
169	0xbc5aa22a	-0.013344327
170	0xbcfaf147	-0.030632628
171	0xbdce84ed	-0.10083947
172	0xbdce412d	-0.10071025
173	0xbdd4bdbd	-0.10387752
174	0x3bc294e7	0.0059381607
175	0xbbe01916	-0.006838928
176	0x3d29f25b	0.041490894
177	0xbd1149bd	-0.035470713
178	0x3d526123	0.051362168
179	0x3cd4ee1f	0.025992451
180	0x3cd72fed	0.02626797
181	0x3c30a565	0.010781621
182	0x3db72a58	0.08943623
183	0xbc27d5eb	-0.010243873
184	0x3d56c40e	0.052433066
185	0x3d056d07	0.03257468
186	0x3d951b02	0.07280542
187	0xbc934994	-0.01797942
188	0x3e0370e8	0.12836039
189	0x3da1b243	0.07895329
190	0xbdd5916d	-0.104281284
191	0xbd2316cc	-0.039816663
192	0xbd551ed8	-0.052031368
193	0xbd0b825f	-0.03405988
194	0xbd7d3649	-0.06181935
195	0x3d6fc087	0.058533218
196	0xbd473218	-0.048631757
197	0xbcd8efb1	-0.026481481
198	0x3d8395f3	0.06425085
199	0xbd117742	-0.035514124
200	0x3d88e8fe	0.06685065
201	0xbc0163cd	-0.0078973295
202	0x3ca44c3a	0.020055879
203	0x3d83d007	0.064361624
204	0x3da6c552	0.081431046
205	0x3d2d0d68	0.042249113
206	0xbde4f18a	-0.111788824
207	0x3dcb2431	0.09919012
208	0xbc898455	-0.016786734
209	0x3d108fef	0.035293516
210	0x3d0c10d0	0.03419572
211	0x3dc4c3de	0.09607671
212	0x3d92303a	0.07138105
213	0x3dbedf9f	0.09319996
214	0x3dd75a78	0.105153024
215	0xbb957e0a	-0.004562144
216	0x3da231ac	0.079196304
217	0x3dac3e40	0.08410311
218	0xbdb0de77	-0.08636182
219	0xbdd00b83	-0.10158446
220	0x3b4606c6	0.003021644
221	0x3dcceb8d	0.10005865
222	0x3d45600f	0.04818731
223	0x3dcc4033	0.099731825
224	0xbd63bcf8	-0.055600137
225	0xbd87f087	-0.06637674
226	0xbd2f7c6d	-0.04284327
227	0x3dc90740	0.09815836
228	0xbce3b108	-0.027794376
229	0xbbe934d3	-0.007116893
230	0x3d63e470	0.055637777
231	0x3c94c7bc	0.018161647
232	0xbd969636	-0.07352869
233	0xbd809bf9	-0.062797494
234	0xbd11a90b	-0.035561603
235	0x3c985d5e	0.018599208
236	0xbd536173	-0.051606607
237	0xbcefcada	-0.029271532
238	0x3db0dea1	0.08636213
239	0xbb823f21	-0.0039748107
240	0x3c85ddfc	0.016341202
241	0xbd8aa5c3	-0.06769898
242	0x3cde5c40	0.027143598
243	0xbd3a1d7c	-0.045438275
244	0x3d75908b	0.0599523
245	0x3d99b0e1	0.0750444
246	0x3dd11d68	0.10210687
247	0xbde46589	-0.11152179
248	0x3d632326	0.055453442
249	0xbdeb3d12	-0.114862576
250	0xb865ea5b	-5.4816115e-05
251	0xbe3b4b8e	-0.1829054
252	0x3c1234a3	0.008923682
253	0xbd4eeb4d	-0.05051737
254	0xbe47b593	-0.19502859
255	0xbd39a93e	-0.045327418

fc2.bias f4 [128]
0	0x3d87ae59	0.06625051
1	0x3d20c08f	0.03924614
2	0xbcb840fc	-0.022491924
3	0x3c1b6d48	0.009486504
4	0x3d3702ed	0.044680525
5	0x3d74d5a8	0.05977407
6	0x3d0473d4	0.032337025
7	0xbd42e668	-0.047583014
8	0x3d34e9bb	0.044168215
9	0x3dafe9a0	0.08589482
10	0x3d99512b	0.07486185
11	0x3d8a4190	0.06750786
12	0xbd39873d	-0.04529499
13	0x3d005f69	0.03134099
14	0xbd0ed77e	-0.034873478
15	0x3c89f209	0.016839044
16	0xbccb01d2	-0.024781141
17	0x3d6074ee	0.054799013
18	0xbcfaad01	-0.030600073
19	0xbafc91fe	-0.0019269583
20	0xbd03c1df	-0.03216731
21	0x3d286b41	0.04111791
22	0x3d6d527d	0.057939995
23	0x3d2a5776	0.041587315
24	0x3da46882	0.08027746
25	0x3cc97652	0.024592552
26	0xbd24fc8e	-0.040279917
27	0x3ce40310	0.027833492
28	0x3d38257c	0.044957623
29	0xbd1737ed	-0.03691857
30	0x3d339250	0.043840706
31	0x3d3dd9cd	0.04635029
32	0xbce6c54e	-0.028170254
33	0x3b995d58	0.004680317
34	0xbcee988b	-0.029125473
35	0xbc54bb9c	-0.012984183
36	0x3d8df60b	0.069316946
37	0x3d500f7d	0.05079602
38	0x3c938a52	0.018010292
39	0xbd62a91a	-0.05533705
40	0x3d102820	0.035194516
41	0x3d8f0196	0.06982724
42	0x3c4d3455	0.012524684
43	0x3d592769	0.0530161
44	0x3ce9d71c	0.028544955
45	0x3c827b2c	0.015927874
46	0xbd29c1c1	-0.041444544
47	0x3dc859a2	0.09782721
48	0xbcf310e4	-0.02967114
49	0xbcd860fc	-0.026413433
50	0xbd044d43	-0.032300245
51	0x3ccd6b1e	0.025075492
52	0xbce3a180	-0.02778697
53	0x3d6a013d	0.057130087
54	0xbcbcebd0	-0.023061663
55	0x3d90fd16	0.07079522
56	0x3d072210	0.03299147
57	0x3daaee06	0.083461806
58	0xbcca834f	-0.024720816
59	0x3d9b8128	0.07592994
60	0x3cc2290d	0.023701215
61	0xbc967398	-0.018365666
62	0xbd2abbb5	-0.041682918
63	0x3d699b14	0.05703266
64	0x3da5e04d	0.080994226
65	0x3d9afb5e	0.07567476
66	0xbd4d4e7f	-0.050123688
67	0xbcefc695	-0.029269496
68	0xbd3cee86	-0.04612591
69	0x3dc23b20	0.094839334
70	0x3d12db4b	0.035853665
71	0xbd10d3ba	-0.03535817
72	0x3d89e022	0.06732203
73	0xbc6fa720	-0.014627248
74	0x3d5877a3	0.05284847
75	0x3d55b56e	0.052174978
76	0xbd79d489	-0.060993705
77	0x3db4d845	0.08830313
78	0xbcd159b7	-0.025555475
79	0xbd31c01b	-0.043396097
80	0xbcc67204	-0.024224289
81	0xbbd520f7	-0.006504174
82	0xbbcd3a4b	-0.0062630526
83	0xbc323012	-0.010875719
84	0x3d24217f	0.040071007
85	0x3d1c1d69	0.038113985
86	0x3cab7fac	0.020934902
87	0xbcf64e2a	-0.030066568
88	0x3d3b17ef	0.04567712
89	0xbc504271	-0.012711153
90	0x3d9b5ec9	0.07586438
91	0x3d87f4f8	0.06638521
92	0x3bb734f9	0.0055910316
93	0x3c83997b	0.016064396
94	0x3c938e80	0.018012285
95	0x3d484a43	0.048898946
96	0x3dceb126	0.10092382
97	0xbcae7ca3	-0.021299666
98	0x3d33a192	0.043855257
99	0x3d8d9726	0.06913595
100	0x3d2f9a2c	0.04287164
101	0x3d8dc955	0.06923167
102	0x3b92d5a7	0.0044810358
103	0x3d8d589c	0.069016665
104	0xbd09ed22	-0.033673413
105	0xbd1876cb	-0.037222665
106	0xbc1dfb5d	-0.009642449
107	0x3b3d94b7	0.0028927752
108	0x3c38cc00	0.011279106
109	0x3cf7eecc	0.030265234
110	0x3c0bc7f4	0.008531559
111	0xbc9c1dff	-0.019057272
112	0xbc34b8cf	-0.01103039
113	0x3d9a84c3	0.075448535
114	0x3c4f587a	0.012655372
115	0x3cb307e0	0.021854341
116	0x3baf85bc	0.0053565186
117	0xbc1b5015	-0.009479542
118	0x3cc65512	0.024210487
119	0x3c9d0c38	0.019170865
120	0x3d25519d	0.040361036
121	0x3da9e424	0.082954675
122	0x3d3f8c99	0.046764944
123	0xbc1ab7bf	-0.009443223
124	0x3d14120f	0.036150035
125	0x3d71e131	0.05905265
126	0x3dc4817c	0.0959501
127	0x3ba1106d	0.004915288

fc3.weight f4 [2, 128]
0	0x3cba0998	0.022709653
1	0xbd45488c	-0.04816489
2	0xbca23a01	-0.019803049
3	0x3d5c6734	0.05380936
4	0xbd088879	-0.033333275
5	0xbdc055ae	-0.09391342
6	0x3dd2bffc	0.10290524
7	0x3c9b30aa	0.018944103
8	0x3c80d86e	0.015728202
9	0xbcd83a40	-0.026394963
10	0xbce76428	-0.028246
11	0x3cfeef21	0.031119885
12	0x3d2417af	0.04006165
13	0xbdc8d093	-0.098054074
14	0x3cacb079	0.021080242
15	0x3cc4f30d	0.024041677
16	0xbd2b003d	-0.041748274
17	0xbd587817	-0.0528489
18	0x3cc4b40a	0.02401163
19	0xbcbb786b	-0.022884568
20	0x3caa0fd8	0.020759508
21	0xbd951176	-0.07278721
22	0xbd75a2f2	-0.05996985
23	0xbd0776a9	-0.033072148
24	0xbdc351d3	-0.09537091
25	0xbcb3d4fe	-0.021952149
26	0xbc896be8	-0.016775087
27	0x3cd85cbc	0.026411407
28	0xbcda759e	-0.026667412
29	0x3d58fa32	0.05297298
30	0xbcd70dde	-0.02625173
31	0xbc365add	-0.011130062
32	0xbce2bce3	-0.027677959
33	0xbcf5635d	-0.029954607
34	0xbd2a0994	-0.04151304
35	0x3d8f5324	0.0699828
36	0xbcd46f58	-0.025932
37	0xbd8fe3d2	-0.07025875
38	0x3c9b1edd	0.018935615
39	0x3d8346a9	0.06409962
40	0xbcc47c39	-0.023985015
41	0x3e0cc784	0.13747984
42	0x3d69970b	0.05702881
43	0x3daacaa0	0.08339429
44	0x3d5cefc1	0.053939585
45	0xbdaeeb4d	-0.08540974
46	0x3ced4d1d	0.028967435
47	0xbde7c000	-0.11315918
48	0x3cfd6179	0.030930268
49	0xbdedddd3	-0.11614575
50	0xbd042cfb	-0.03226946
51	0xbd89563f	-0.06705903
52	0x3d41f4da	0.04735265
53	0xbd2cf443	-0.042225134
54	0x3d4a03b3	0.049319934
55	0x3cf95de5	0.03044028
56	0xbc11448e	-0.008866442
57	0xbd3db259	-0.046312664
58	0x3d5628f8	0.052285165
59	0xba837f25	-0.0010032399
60	0xbcf48d0f	-0.029852418
61	0x3b1a9418	0.0023586806
62	0xbd22dea5	-0.03976311
63	0xbab601a7	-0.001388599
64	0xbddf809c	-0.10913202
65	0xbd9a7f39	-0.07543797
66	0xbdcec0c7	-0.10095363
67	0x3d67bff7	0.056579556
68	0x3d87331a	0.06601544
69	0xbd857c67	-0.065178685
70	0xbc844e2e	-0.01615056
71	0x3c8998d1	0.016796501
72	0xbd5084c2	-0.050907858
73	0x3d340a5e	0.0439552
74	0xbd9aebf6	-0.07564537
75	0x3c8f4828	0.017490461
76	0x3d3feb46	0.046855234
77	0xbcee640b	-0.029100439
78	0xbd336e19	-0.04380617
79	0xbd81b5e9	-0.06333525
80	0x3d28b945	0.04119231
81	0x3c8e0e2b	0.01734074
82	0x3d9a05c5	0.07520632
83	0xbda61ce6	-0.08110981
84	0xbd2c6d49	-0.04209641
85	0xbced217a	-0.028946627
86	0xbd3a97a3	-0.04555477
87	0x3c31a2bf	0.010842024
88	0x3dede677	0.11616223
89	0xbcdfbe20	-0.027312338
90	0xbdb009fd	-0.08595655
91	0x3cee1164	0.029061027
92	0x3a830112	0.0009994826
93	0xbcbcb1eb	-0.023034057
94	0x3dab7cea	0.08373435
95	0xbd1e1c0c	-0.038600966
96	0xbd98332b	-0.074316345
97	0x3d2fa79e	0.04288446
98	0x3cb8c2f0	0.022553891
99	0xbd8653b8	-0.06558937
100	0x3d2cf9ef	0.042230543
101	0xbcfcfbed	-0.030881846
102	0xbd82f3fe	-0.06394194
103	0x3c53b585	0.012921696
104	0xbbc28e23	-0.005937354
105	0x3d1dd0f8	0.038529366
106	0x3d13a9af	0.036050495
107	0x3cc8643c	0.024461858
108	0x3d85c5df	0.065318815
109	0x3c06cca5	0.008227502
110	0xbacce55c	-0.0015632319
111	0xbd078b53	-0.033091854
112	0x3d24c947	0.040231016
113	0xbe7ab042	-0.244813
114	0x3b421b5a	0.0029618354
115	0xbdd91311	-0.1059934
116	0xbde3a4ac	-0.11115393
117	0xbda41db8	-0.08013481
118	0x3d5697bd	0.052390803
119	0xbd377348	-0.044787675
120	0x3c25d3bf	0.010121285
121	0xbc219013	-0.00986101
122	0x3d3db242	0.046312578
123	0x3cf47e4e	0.029845383
124	0xbd01d241	-0.031694654
125	0x3e18d711	0.14925791
126	0xbd84433e	-0.06458138
127	0xbd5fc280	-0.05462885
128	0xbd406140	-0.046967745
129	0xbcede1a4	-0.029038258
130	0xbb307f76	-0.0026931441
131	0xbe3aa9b0	-0.18228793
132	0xbc929b96	-0.017896455
133	0x3d02dde0	0.031949878
134	0xbe059bea	-0.13047758
135	0xbe8ebe5f	-0.27879617
136	0xbe7bd01a	-0.24591103
137	0x3d166126	0.03671374
138	0x3d19ccdd	0.03754889
139	0x3e4096cb	0.18807523
140	0xbd88b150	-0.06674445
141	0x3cae060e	0.021243121
142	0x3d05d783	0.03267623
143	0x3da97f8a	0.08276279
144	0xbc7fdcbc	-0.015616592
145	0x3a4b498e	0.0007754796
146	0x3d7ebb5b	0.062190395
147	0x3b8926e5	0.004185545
148	0x3ce8a634	0.028399564
149	0x3cdc8dab	0.026923021
150	0xbc0dda6a	-0.008658031
151	0xbc767f25	-0.015044962
152	0x3cc7e726	0.024402212
153	0x3d07afcb	0.033126634
154	0x3c0118a4	0.00787941
155	0xbddec232	-0.108768836
156	0xbba72837	-0.0051012295
157	0xbcbe5bce	-0.023237135
158	0x3d353fab	0.04425017
159	0x3d5d60f1	0.05404753
160	0x3d848839	0.06471295
161	0xb9f2b7b0	-0.00046294695
162	0x3d307ac1	0.043085817
163	0xbdcf915f	-0.10135149
164	0x3b93f3dc	0.0045151543
165	0x3d5c00dc	0.053711757
166	0x3d14a890	0.036293566
167	0xbd9d9061	-0.07693554
168	0x3d49e81e	0.04929363
169	0x3cdc92b9	0.026925432
170	0xbe0ce6c7	-0.1375991
171	0xbe1d5d8b	-0.15367715
172	0xbe73a2bd	-0.23792548
173	0x3d369cfc	0.044583306
174	0xbe51fd0b	-0.20506684
175	0x3d3429e4	0.043985263
176	0xbdbcf0ed	-0.092256404
177	0x3d138c2c	0.03602235
178	0xbca7de7a	-0.020491827
179	0xbc023d07	-0.00794912
180	0xbe48069f	-0.19533776
181	0x3d425114	0.047440603
182	0xbd69fa99	-0.057123754
183	0xbdfc62d0	-0.123235345
184	0x3d87baa9	0.066273995
185	0x3ae5bfd5	0.0017528484
186	0xbe508715	-0.2036403
187	0x3d753ca7	0.059872296
188	0xb9c92f68	-0.00038373028
189	0xbe454a30	-0.19266582
190	0xbdf8f5d3	-0.12156262
191	0x3d8ee557	0.06977337
192	0x3d3da872	0.04630322
193	0xbd1e16c6	-0.038595937
194	0xbe2a0b0f	-0.16605781
195	0xbe0c0705	-0.13674553
196	0xbe4cb583	-0.19991116
197	0x3baa133c	0.005190281
198	0xbbe84e7e	-0.007089435
199	0x3dcdfe47	0.10058265
200	0x3d561747	0.052268293
201	0xbc8de953	-0.017323172
202	0x3c8bcf4c	0.01706662
203	0x3dd2bcee	0.10289942
204	0xbd5eacbe	-0.05436396
205	0x3d04d07f	0.0324254
206	0xbd5f25f8	-0.05447957
207	0xbd1db17c	-0.03849934
208	0xbe2b07d4	-0.16702205
209	0x3da8ac0e	0.08235942
210	0xbdd1873b	-0.10230871
211	0xbb18979e	-0.002328373
212	0x3d5fe1f5	0.05465885
213	0x3d5a186e	0.053245954
214	0x3c5d24f4	0.01349758
215	0xbe414135	-0.18872531
216	0xbe5bd102	-0.21466449
217	0xbc19302f	-0.009349867
218	0x3d96a676	0.07355969
219	0x3dce85ce	0.10084115
220	0x3a02c40e	0.0004988321
221	0x3cfa670f	0.03056672
222	0xbe0eac80	-0.13932991
223	0x3cef6fa6	0.029228043
224	0x3d1f55d9	0.03890023
225	0xbe3347aa	-0.17507806
226	0x3df19c72	0.11797418
227	0x3cd3f8cc	0.025875472
228	0x3e60d0fe	0.21954724
229	0xbc5760bb	-0.013145621
230	0x3d6610bb	0.0561683
231	0x3db26d30	0.08712232
232	0xbe59f45e	-0.21284625
233	0xbdc875e9	-0.097881146
234	0xbe50577a	-0.2034587
235	0x3d18093f	0.037118193
236	0xbe49bf38	-0.1970185
237	0xbe30f3f4	-0.1728056
238	0xbe96e31a	-0.2947014
239	0x3c090a23	0.008364233
240	0x3b277ed5	0.0025557776
241	0xbc23b084	-0.009990815
242	0x38dfd58d	0.000106732456
243	0xbcea158b	-0.028574726
244	0xbb8ccb49	-0.0042966944
245	0xbda3292b	-0.079668365
246	0xbdca9de5	-0.09893397
247	0xbbd0ba22	-0.006369845
248	0xbe5e9ffc	-0.21740717
249	0x3d85a881	0.0652628
250	0xbe6c3f4a	-0.23071018
251	0xbe739ca6	-0.23790225
252	0x3c0411c3	0.008060875
253	0x3dc32ff9	0.095306344
254	0xbd04c302	-0.032412536
255	0x3d6e8513	0.05823238

fc3.bias f4 [2]
0	0xbacb1a16	-0.0015495445
1	0x3d147d4e	0.036252312
