checkpoints/checkpoint_random_agent1__critic.pth (torch_old, 187419 bytes, 5 tensors)

fc1.weight f4 [256, 52]
000000 1c 5e 1d 3d 1f 0f 87 3d c4 42 79 3c af 57 c8 bc
       0.038419828 0.06594681 0.015213672 -0.024455873
000010 78 17 96 3d d5 69 43 be c5 43 6c bb 18 0e 7b 3d
       0.07328695 -0.1908334 -0.0036051136 0.061292738
000020 49 dd 6f 3c b0 2e 65 bc e2 81 08 bd 63 8d 79 3c
       0.014640161 -0.013988182 -0.03332699 0.015231463
000030 bd 31 00 3e b6 ee b0 3c 03 d7 24 3d 2b d6 44 3d
       0.12518974 0.021598201 0.040244114 0.04805581
000040 f1 f7 72 bc 34 21 84 bd 88 18 0e 3c b4 bb 63 3c
       -0.014829622 -0.064516455 0.008672841 0.013899732
000050 ba 8a 0c bc aa a9 6c 3d 50 69 b7 bc 2d a3 bb 3d
       -0.008577997 0.05777899 -0.022389084 0.09161983
000060 bd d8 83 3d dc 2e b9 bd f3 ed b0 3c 4e 02 a6 3d
       0.06437824 -0.09042141 0.021597838 0.08105908
000070 28 cf e1 3b 10 4b 25 be 13 e5 e1 bb 48 85 72 3c
       0.00689115 -0.16141915 -0.006893763 0.014802285
000080 fb ed 92 3c 56 20 0c be 1f 37 01 3d a0 83 35 bd
       0.017935744 -0.1368421 0.03154671 -0.04431498
000090 88 f2 b8 bb d7 12 1c 3c 8d 75 ab bc 1d 02 b4 bb
       -0.0056441464 0.009525976 -0.020930076 -0.005493416
0000a0 9e 64 81 bd a4 b7 4d be 72 4b bb bb 1a 4b c0 bd
       -0.06318019 -0.20089585 -0.005715781 -0.093893245
0000b0 d5 68 53 3c 8c 8e c3 3d a9 49 c5 3b b2 3b 55 be
       0.012903412 0.09548673 0.006020744 -0.20823553
0000c0 8a 03 41 3e 25 a6 45 3e fa af 29 be da b7 b3 3e
       0.18849006 0.1930166 -0.16571036 0.35101205
0000d0 5c 42 53 bd 2b 95 2b bd 0a dd b2 3c 5a b9 f9 3c
       -0.051576957 -0.041890305 0.021833915 0.03048389
0000e0 d7 67 4c bc cc 8a d6 bd 71 42 9e bc d6 62 4c bc
       -0.012475929 -0.10475692 -0.019318791 -0.012474736
0000f0 d1 73 4e 3c e6 8d f6 3c 77 ec 3b bd dc 48 81 3d
       0.012600855 0.03009696 -0.045879807 0.06312725
000100 80 fb 13 bd f8 4a 6a bd cd 87 48 3d ac 35 3b 3c
       -0.03612852 -0.057200402 0.048957635 0.011426371
000110 00 8b 05 bd 4b 06 43 3d 45 a3 3b bd 73 2c 13 3d
       -0.032603264 0.047613423 -0.045810003 0.035931062
000120 9f 42 a8 3d 48 28 c0 3d 92 33 2c 3d 21 ec 08 3e
       0.08215832 0.09382683 0.04204137 0.13371326
000130 8c 99 95 bd 90 98 7c bc 48 1b 55 bd 72 a1 c3 bd
       -0.07304677 -0.015417233 -0.05202797 -0.095522776
000140 dc fe d4 3d 3e e7 3f bd 56 1d 91 3d 0e a1 63 bd
       0.10400173 -0.04685139 0.070856735 -0.055573516
000150 35 cc 47 3d 98 45 fa bb 6d 44 de 3c f2 71 1a be
       0.04877873 -0.0076376908 0.027132237 -0.15082529
000160 78 59 b7 bc ad 9b c5 bd 0c 56 a4 3c 5e f7 ae bd
       -0.02238153 -0.096488334 0.020060562 -0.08543275
000170 3e 7a 1e 3c 19 2f 32 bd 4c ac 02 bc 61 17 77 bd
       0.0096726995 -0.043501947 -0.007975649 -0.06032503
000180 8d 40 a4 bd a2 64 83 bc 32 28 02 3d b4 c4 3f bd
       -0.080201246 -0.016039196 0.031776614 -0.04681845
000190 44 a9 97 be e8 cf de bd 7b 07 d6 3d 7e ef 41 be
       -0.29621327 -0.10879499 0.104506455 -0.18939015
0001a0 fc cb b5 bd ee c3 6d bc dd 0c 1e 3d 62 66 2d bc
       -0.088767976 -0.014512045 0.038586486 -0.010583492
0001b0 7b fc ea bc f1 47 ba bc f1 82 25 bd b7 c1 28 bb
       -0.028684845 -0.022739382 -0.04040808 -0.0025750229
0001c0 58 e7 00 bc e1 10 23 3d a8 ca 17 bb 87 4a 97 3b
       -0.007867657 0.03981102 -0.0023161564 0.0046170386
0001d0 76 72 80 bd 38 97 d8 bd e1 10 43 3c fe e9 e6 3c
       -0.06271832 -0.10575718 0.01190588 0.028187748
0001e0 bf 0d 05 be 5e 92 16 3d 01 cb c7 bc ba 90 93 ba
       -0.12993525 0.03676068 -0.024388792 -0.0011258342
0001f0 c1 f6 3c 3d c2 8f 8a be dd 43 ed 3c a8 d0 88 3d
       0.04613376 -0.27062804 0.028963024 0.06680423
000200 3d 76 8e bd 0c bc 0a bd a9 b2 97 bc 0b 7a d4 bc
       -0.06956146 -0.03387074 -0.018517809 -0.0259371
000210 d4 15 c1 3d f4 84 a2 3d 4b 9c 1b bc bf 72 06 3c
       0.094279915 0.07935515 -0.009497712 0.008206069
000220 0e c9 90 3a 7b 1e f4 3c b9 d7 54 bd 18 33 04 3e
       0.0011046247 0.02979969 -0.05196354 0.12910116
000230 ab 55 87 3c 39 5c ba bd 2a c7 8c 3c f0 f4 4a 3d
       0.016520342 -0.09099621 0.017184813 0.049549997
000240 09 2e 26 bd 1b d4 fe 3c 44 ee 99 bc 2b 03 79 bd
       -0.040571246 0.031107 -0.018790372 -0.060794037
000250 9e 6a 6f bd 00 f7 84 be 97 77 56 bc 69 78 c1 bd
       -0.058451287 -0.25969696 -0.013090036 -0.094467945
000260 66 d6 84 be 71 e1 c7 bd 2e 76 c3 bd 8d 70 e4 bb
       -0.25944823 -0.097597964 -0.09544025 -0.006971425
000270 0f 8d 22 bd 68 08 51 bc c1 88 a7 3c 61 ea 8e bd
       -0.039685305 -0.012758352 0.020450952 -0.06978298
000280 a3 eb 06 be be 9e 53 3d 4e 9c 9f bc ee 7a 82 bc
       -0.13175826 0.05166506 -0.019483712 -0.015927758
000290 d3 31 bc 3c 28 05 7d 3c 61 cb 19 3d a0 ba 6a bd
       0.022972977 0.015443124 0.037547473 -0.057306886
0002a0 92 9d 60 3b bb bf 99 3d e0 9c 9f 3c e2 80 f6 bc
       0.0034273607 0.07507273 0.019483984 -0.030090753
0002b0 07 3d 2e 3d a6 26 cf bc 32 6f bf bc d7 bf be 3d
       0.04253867 -0.025286984 -0.023368452 0.09313934
0002c0 57 e3 e3 3d 8d 01 25 be fe 88 e7 3c 51 2f 11 3e
       0.11127346 -0.16113873 0.028263565 0.14178206
0002d0 89 0c ac bb 48 d9 79 3e 99 18 1f 3d a3 6e 0c bd
       -0.0052505177 0.24399292 0.038841818 -0.0342852
0002e0 b4 6c 08 3e 40 bb ae 3d 51 64 2a bd 22 9d 3e 3c
       0.13322717 0.08531809 -0.041599575 0.011634143
0002f0 db 30 9f bc 82 6d 82 3e 09 e1 b7 bc ed 3f 1f bd
       -0.019432476 0.25474173 -0.022446172 -0.038879324
000300 35 76 84 3d de 1d 87 3c 4f fc 89 bc 0b 6f d5 3b
       0.06467859 0.016493734 -0.016843943 0.0065134815
000310 99 9f 80 3d 06 e7 91 3e 0b 64 2c bb 97 0e 24 bd
       0.06280441 0.2849657 -0.0026304747 -0.040052976
000320 9c dc b0 bd 4a 26 f3 bd 67 8c 24 3d c9 cd b3 bd
       -0.08635828 -0.118725374 0.04017296 -0.08779485
000330 5f ce 4e bd 55 95 e6 bd 34 b1 be bb fe 19 09 be
       -0.05048978 -0.112589516 -0.005819464 -0.13388821
000340 60 05 c6 bd 6a 83 96 bd df 7c 5c 3b 5e 07 2d 3d
       -0.09668994 -0.07349284 0.0033643765 0.042243354
000350 56 8a 73 3c 47 8f 9a bc d7 a8 0c bd 00 49 ab bb
       0.014864525 -0.018867148 -0.034340706 -0.005227208
000360 e2 49 81 bd b7 2a 12 bd 75 b5 33 bd 84 ca f4 3d
       -0.0631292 -0.035685267 -0.043874223 0.11952689
000370 c4 1a 19 bc 19 65 18 bd 5d 58 39 3d dd 74 df 3c
       -0.00934476 -0.03720579 0.045250285 0.027277404
000380 b1 b9 94 3d 52 ca 6e 3d dc ba 5f 3d 93 f0 b6 3c
       0.0726198 0.058298416 0.054621562 0.022331512
000390 bd 51 df 3d cc 12 5b 3c e5 cb c5 bc 3f de 7f 3c
       0.10904262 0.013371181 -0.024145076 0.015616952
0003a0 a9 2e fa 3c dd 18 62 3d 1e 0b ad ba dd 0e 9b 3c
       0.030539827 0.055199493 -0.0013202166 0.018927986
0003b0 e7 1e 96 3d e8 a3 8c bd fe 3b 6e bc 92 65 76 3c
       0.07330113 -0.068672 -0.01454067 0.015038865
0003c0 63 b9 cb bc 17 ae 8f 3d 35 9c 65 3d 4a 4a 3b 3d
       -0.024868673 0.07015627 0.056057174 0.045725144
0003d0 0c 04 47 bd 9c 09 0f bd 82 5f fc 38 5b 1b 5d 3d
       -0.048587844 -0.034921274 0.00012034086 0.053981166
0003e0 88 8c b0 3d 69 38 f3 3c 93 60 83 bd 3b b9 13 3d
       0.08620554 0.029689984 -0.064149044 0.03606532
0003f0 b5 2e 0a be 52 8d bc 3d 1d 8f 31 3c b8 2a 5f 3d
       -0.1349438 0.09206642 0.0108373435 0.0544841

fc1.bias f4 [256]
000000 32 9c ff bc 8c 45 7d bd 29 3d 13 3e e0 61 f8 3d
       -0.03120241 -0.061833903 0.143788 0.12128043
000010 fb 55 0b bd 96 0d 77 3d a8 43 ef bd 80 d7 ae bd
       -0.034017544 0.06031569 -0.11682826 -0.08537197
000020 a8 9b 48 be e9 2c 9e bd b7 ca 23 be c3 69 98 3d
       -0.19590628 -0.0772341 -0.15995298 0.074420474
000030 0d af 5d be 24 18 9a 3d f6 50 9f 3d c1 69 33 3d
       -0.21648808 0.07524136 0.07779114 0.043802027
000040 47 5c ca bb 46 09 00 3e b9 93 5f be d6 ea 95 3d
       -0.006175551 0.12503538 -0.21833695 0.07320182
000050 b3 4d a5 3d 50 4a 0a 3e e0 61 df bd 94 a7 2b 3d
       0.080714606 0.1350491 -0.1090734 0.04190786
000060 47 25 9d bd 83 81 12 3d e3 b9 9c 3d 7d c2 2e 3d
       -0.07673126 0.035768043 0.076526426 0.042665947
000070 28 76 c3 3b 0f f1 64 bc 0e a6 71 bd cd 25 0a 3e
       0.005965013 -0.0139734885 -0.058996253 0.13490982
000080 dd e9 6a be b7 35 bf 3b a1 36 14 bd 1b 50 62 bd
       -0.22940774 0.0058352607 -0.03618491 -0.055252176
000090 30 f7 1d be 74 53 62 bd c6 45 07 be 8c 04 b1 bc
       -0.15426326 -0.05525537 -0.1321021 -0.021608613
0000a0 26 33 2e 3d 84 ba ee bd a2 2a 12 be ae f7 03 be
       0.042529248 -0.11656669 -0.14274076 -0.12887451
0000b0 39 f8 91 3d 21 8d 07 be c7 9e 4f bd 99 b1 9b bd
       0.07127423 -0.1323743 -0.05068853 -0.076022334
0000c0 d9 44 ce bd 68 68 98 3d fc b9 d0 bc f1 ce 94 3d
       -0.100717254 0.07441789 -0.02547931 0.072660334
0000d0 93 62 bb 3d 3c 8d c3 bd d9 e9 4f 3c 2f 4f e3 3d
       0.09149661 -0.09548423 0.012690031 0.110990874
0000e0 cc 56 a8 bd b0 ee 8a 3d 25 ed 34 bc b0 68 4b be
       -0.0821968 0.06783807 -0.011042868 -0.19864154
0000f0 a4 e2 17 3d 48 5e 67 bd 17 40 a1 bd 95 6c 2f 3e
       0.037081376 -0.056486398 -0.07873552 0.17131265
000100 86 c7 b7 bd ac 5a bf bd e5 2e c6 3d 86 40 bc 3c
       -0.08973603 -0.09343466 0.09676913 0.022979986
000110 37 2d 7f 3d 62 10 0d bd e8 cb 02 be ff 15 ae bd
       0.06229898 -0.034439452 -0.12773097 -0.08500289
000120 15 20 8d bd fe 3b 1e be 2d 63 2f be d1 ae 7c bd
       -0.06890885 -0.15452573 -0.17127676 -0.061690155
000130 ef 46 80 3e ff 96 b2 3d ba ff 23 bb 27 29 ac bd
       0.25054118 0.087202065 -0.002502425 -0.08406287
000140 db 09 09 be eb c6 e9 3d 15 46 7b 3d 62 ec b3 3c
       -0.13382666 0.11414894 0.061346132 0.021963302
000150 69 cb de bd 19 61 93 bd 40 cd a5 3d 5c 25 ae bc
       -0.10878641 -0.07196254 0.08095789 -0.021258049
000160 b7 9b 53 3d 62 cd cd bd 7e fb e0 bd 31 e8 75 bd
       0.051662173 -0.10048939 -0.10985468 -0.060035888
000170 04 af a6 bd 8b e9 1b 3e cc 6c 12 bb 8e 57 15 3d
       -0.0813885 0.15225808 -0.002234268 0.03646045
000180 82 3c ba 3d 78 fd a4 3d 33 c7 40 bd c2 da a4 3d
       0.09093572 0.08056158 -0.04706497 0.08049537
000190 34 0d 26 bc c5 31 09 be ab 4e 12 3e 32 69 f2 bd
       -0.010134984 -0.13397892 0.14287822 -0.11836471
0001a0 92 04 58 bd 0d 5b d3 bd eb ee 1d 3d 2b f8 61 3d
       -0.052738734 -0.10320101 0.038557928 0.055168312
0001b0 9f 31 5c be 89 cf 5c be 77 68 e2 bd 81 e6 c6 bd
       -0.21503304 -0.21563543 -0.11055081 -0.09711934
0001c0 9c ff c4 3d d4 3a 84 bd 06 81 c3 3d bc eb 6b 3d
       0.09619066 -0.06456533 0.09546094 0.05759786
0001d0 13 76 fc 3c f9 0d 56 bd f1 cf 85 3d 81 3f 28 3d
       0.03081802 -0.05225942 0.06533802 0.041076187
0001e0 30 c5 47 3d 63 a6 f2 bd 32 7a 08 bd 99 d7 9d 3d
       0.048772037 -0.11848142 -0.03331966 0.077071376
0001f0 4a 82 10 bd bb 24 c8 bd 29 7d 8e bd 8a 01 26 bd
       -0.035280503 -0.09772631 -0.06957466 -0.04052881
000200 75 4b 6d 3d 94 75 9b bd 74 94 93 3d d5 eb e3 3c
       0.05793329 -0.075907856 0.072060496 0.027822414
000210 63 1c 34 bd 4b c5 65 3c ac 1e d0 3d 56 2a ab 3d
       -0.043972384 0.014024089 0.101621 0.08357684
000220 28 8b a0 bc 50 97 0c be 2f 94 7e 3d 8b 0a c3 3d
       -0.019597605 -0.13729596 0.062153038 0.09523495
000230 f9 78 6e 3c 50 39 e5 bd 7b e9 16 3e 4e af 53 3d
       0.014555209 -0.11192572 0.14737503 0.051680855
000240 32 16 51 be b5 58 f1 bc 2f c8 e7 bc 50 59 01 3e
       -0.20418623 -0.029461244 -0.028293697 0.12631726
000250 4b 6d 8c 3d d8 f2 53 3d 2a 20 f9 3b 46 8d 19 be
       0.068567835 0.051745266 0.007602711 -0.14995298
000260 fc 7f 52 3d 3f 5f 56 3d 57 ec 10 ba 47 d5 a2 3c
       0.051391587 0.052336928 -0.00055283814 0.01987709
000270 04 fa 11 3d eb 15 99 bd 2f c9 a2 3c 44 ea a6 bc
       0.035638824 -0.07474884 0.019871322 -0.020375378
000280 bd b1 c8 ba ad 88 17 bd e0 ee f4 bc 73 de 66 3d
       -0.0015311759 -0.03699558 -0.02989906 0.056364488
000290 cc 76 bc 3d c4 24 58 3d 06 4d aa bc e5 33 94 bd
       0.09202346 0.052769437 -0.02078868 -0.072364606
0002a0 b0 c3 7b bb 54 d9 a3 3c 75 35 28 3d 1c cf 02 be
       -0.00384162 0.020001091 0.041066606 -0.12774318
0002b0 a9 fb d0 bd 32 11 df bd e5 05 af 3d 40 fb de 3d
       -0.1020425 -0.108919516 0.08546046 0.10887766
0002c0 a7 74 0b 3b be 3f 86 bd 3b f7 94 bc 72 15 00 be
       0.0021279247 -0.065551266 -0.018184295 -0.1250818
0002d0 21 a7 bc 3d 1c 78 28 be ec 3f 57 3d dd a1 0c 3d
       0.09211565 -0.16452068 0.052551195 0.034334052
0002e0 5f 20 f7 3d fa 8a 8b bd b9 82 b6 3d 88 3c 7b 3b
       0.12066721 -0.06813617 0.08911652 0.003833564
0002f0 d9 ca 93 3b 7f 4f 0d be 78 86 1c 3e 94 a4 b6 bd
       0.0045102653 -0.13799857 0.15285671 -0.089181095
000300 6a 2d fe bd 5f 52 03 3c 4e 76 8c bd 40 a6 b2 3d
       -0.12411006 0.008015244 -0.06858502 0.08723116
000310 69 e4 c7 3d 71 a2 ae bc b6 d8 7a 3d c8 b7 d2 bc
       0.09760363 -0.021317692 0.061241828 -0.0257224
000320 45 34 af 3d 6b 81 36 3d 00 42 d8 bc 62 28 3e be
       0.085548915 0.044557016 -0.026398659 -0.18570092
000330 dc d5 5e 3c c7 bf 79 bd a1 cc 1c 3d d0 e7 76 3d
       0.013600793 -0.06097391 0.038281087 0.060279667
000340 a2 43 90 3d 33 fc 61 bc 4e c7 4f bd 1e 5c 64 bd
       0.0704415 -0.013793039 -0.05072718 -0.055751912
000350 49 e9 ce 3d e7 88 c3 bd 64 5f f9 bc 19 68 28 3d
       0.10103089 -0.095475964 -0.030440994 0.0411149
000360 0b 70 33 3d 3f 0c 4a 3d d6 49 1c be c8 ad 14 3d
       0.043808024 0.049328085 -0.15262541 0.036298543
000370 41 2e bc bd 70 da 32 3c 00 67 22 be 1b d7 16 bd
       -0.0918851 0.010916337 -0.15859604 -0.036826234
000380 ff af 92 bb f1 98 00 bd 9e 5b be 3d 0f 33 f1 3d
       -0.004476547 -0.031395856 0.09294818 0.11777317
000390 d6 ea 9a 3d 27 9c 22 3d 1c cc 0a 3e ab 2c c5 3d
       0.07564323 0.0396997 0.13554424 0.0962766
0003a0 c2 09 b3 bd e9 1f b5 3d 79 6e 21 3e ff fa 44 bd
       -0.087420955 0.08843977 0.15764798 -0.04809093
0003b0 79 f4 6d bc 5f da fc bd fa bf ef bd e4 37 2e 3d
       -0.014523619 -0.123463385 -0.117065385 0.04253377
0003c0 10 59 e9 bd d4 32 45 3d 75 8c 87 bb da cf 67 3c
       -0.113939404 0.048144177 -0.004136617 0.014148677
0003d0 2f 53 44 bd e8 07 cc bd 7d d2 83 bd 7c 37 4a bd
       -0.047930893 -0.099624455 -0.06436632 -0.04936932
0003e0 9e 9a 2f bd 32 b1 11 be 45 93 8c bd 44 ac 5e 3c
       -0.042872064 -0.14227751 -0.06864027 0.013590876
0003f0 f5 9b 6a bd c7 74 12 bd 49 3c a6 3c ad 9b 0f be
       -0.05727764 -0.0357559 0.020292418 -0.1402423

fc2.weight f4 [128, 256]
000000 e1 47 ba bc 3d ba df bb fe 18 aa 3c fd a7 c1 bd
       -0.022739353 -0.0068276213 0.02076387 -0.09455869
000010 8c 24 23 bd 99 1a c5 bb ad 6f 2e 3d a4 5f 34 3d
       -0.039829776 -0.0060151336 0.04258697 0.044036523
000020 c3 da 57 bd a7 cb fc 3d e4 db 25 bd af 4b 56 bd
       -0.05269886 0.12343531 -0.040492907 -0.05231827
000030 0e bb 8f 3c 99 05 bc 3d 60 d3 d5 bb 2a e5 be 39
       0.01754525 0.09180755 -0.006525442 0.00036410365
000040 7a 34 d7 bd 3a 21 b4 3d b8 50 db bc e2 7d fa 3c
       -0.10508056 0.087954 -0.026771888 0.030577604
000050 77 de a7 bd ce 43 8a bc 84 3b 63 3d 23 e5 cb 3d
       -0.08196729 -0.016878035 0.05547668 0.09955814
000060 0b e7 e6 3d db 7f 50 bd 4c 53 a0 3d 33 e2 e9 bd
       0.11274537 -0.050903182 0.078283876 -0.11420097
000070 85 c9 2c bd bc f8 4d bd c0 f7 d8 bd fc cb b0 bd
       -0.04218437 -0.05028604 -0.105941296 -0.08632657
000080 9a 17 17 bd 45 56 39 bd c4 ed 48 bb 63 e6 d3 bd
       -0.036887743 -0.04524829 -0.0030659297 -0.10346677
000090 43 3c 41 bd 59 8b c3 3d b2 38 a6 bc 05 8f 37 bd
       -0.04717661 0.09548063 -0.020290706 -0.04481413
0000a0 8a cf aa bb c7 39 7d bd 26 c0 71 3c 04 1e 3e be
       -0.005212729 -0.06182268 0.014755284 -0.18566138
0000b0 08 a9 d8 bd 1e c4 ad 3c 39 7f 52 3d 0e 80 4c 3c
       -0.10579115 0.02121168 0.05139086 0.0124817025
0000c0 1c 3d 3d be 7e 6f d7 bc 6d d8 4e bd 5f 3f 1d bd
       -0.18480343 -0.02629828 -0.05049937 -0.038390514
0000d0 c6 d2 e2 bc a6 2d 41 bd 5b 88 07 bd f6 1f bc bd
       -0.027688395 -0.047162674 -0.033089023 -0.091857836
0000e0 d4 45 5c 3c da 24 d8 3d cd 0c c3 3c c9 51 01 3e
       0.013444383 0.10553904 0.023809815 0.12628855
0000f0 91 79 b5 bd 90 a7 96 3c 7a dc 9f bd b0 f8 21 be
       -0.088610776 0.018390447 -0.078057244 -0.15817523
000100 b6 9f 21 bc 98 5c 3a bd 86 ea c2 bd c0 bc 84 bd
       -0.009864738 -0.04549846 -0.09517388 -0.06481314
000110 0e df d1 3d 17 ac 20 bd 1a c8 e9 bd b6 73 51 3c
       0.102476224 -0.039226618 -0.114151195 0.012783935
000120 da e1 52 bc cc 80 c5 bd eb b1 e4 bc 9a 90 83 bd
       -0.01287123 -0.09643707 -0.02791687 -0.06424065
000130 ac bf 04 bd 94 b7 58 3c 24 df 4d bd f6 d7 b2 3d
       -0.032409355 0.013227362 -0.05026163 0.087325975
000140 ab 1f c2 bc 29 38 d0 bd bf 5a e9 bc 6d 99 8d bd
       -0.023696741 -0.10166962 -0.028485654 -0.06914029
000150 0f 9d 07 be 29 2b 46 bd ca 3d 1b be 25 85 c1 3c
       -0.13243507 -0.048381004 -0.1516029 0.023623059
000160 13 76 ba bc e1 f0 9c 3c fe 51 dd bd ec c3 b0 3c
       -0.02276138 0.019157829 -0.108066544 0.021577798
000170 95 91 b5 bc 31 9c 4a be 98 b4 73 3d a1 d8 98 be
       -0.022164145 -0.19786145 0.0594984 -0.29852775
000180 2d 4d 69 be 49 a9 5c bd 48 c7 96 bb 01 8d 1f 3b
       -0.22783346 -0.05387238 -0.004601393 0.002434552
000190 7c d4 af 3d 0d 60 cc bc a7 e9 08 3e b0 0d d4 bd
       0.0858545 -0.024948144 0.13370381 -0.10354173
0001a0 5d a4 1f be 28 3f 3a bd e6 aa 56 3e d3 c8 c8 3c
       -0.15590043 -0.045470387 0.2096363 0.024509823
0001b0 bb 48 c0 3d 7b 53 59 3d 2c b4 f4 3c e5 52 04 3e
       0.09388872 0.05305813 0.029871069 0.12922247
0001c0 e8 93 9c bd 42 b4 38 be 98 54 52 bd 2a f2 e1 bd
       -0.076453984 -0.18037513 -0.051350206 -0.11032517
0001d0 18 28 8f 3d 2a f2 ba bc 23 7f 95 3d 46 63 aa bc
       0.06990069 -0.022820551 0.0729964 -0.02079929
0001e0 b8 47 47 bc 95 e7 fb 3c f1 54 e6 3c b1 45 98 bd
       -0.012163095 0.030750075 0.028116675 -0.074351676
0001f0 83 8d 0a 3a 98 77 54 3c 20 a5 cd ba a8 60 54 3d
       0.0005285369 0.0129679665 -0.001568947 0.05184999
000200 e7 31 12 be 48 23 f4 3d 02 3e 83 bd 64 e4 f3 bb
       -0.14276849 0.11920792 -0.064083114 -0.007442998
000210 47 15 b3 bd f0 9e 4c 3d 7a 04 7b bd 52 c4 6d bc
       -0.08744293 0.049956262 -0.061283566 -0.014512138
000220 b9 21 3e bc f9 4b 73 3c 9e c5 22 bd 3e c2 ab 3d
       -0.01160472 0.014849656 -0.039739244 0.08386658
000230 f0 78 c4 3c 9d cf 93 3b 30 e8 c4 bd 04 0d 47 3d
       0.023983449 0.0045108334 -0.09614599 0.048596397
000240 a1 79 c6 3d 31 9a 24 be a8 06 71 3d 98 5b 57 bd
       0.096911676 -0.16074444 0.05884424 -0.052577585
000250 1b 10 a4 bd 63 0d d8 bd 4e ee bb 3d e3 0c ce bd
       -0.080108844 -0.10549428 0.091763124 -0.10061052
000260 74 50 8a 3d 30 f6 b0 bd 8c 83 c2 3d 5c 99 be 3c
       0.067536265 -0.086407065 0.09497747 0.023266487
000270 36 92 cb 3d 34 b2 4e 3d 76 1c bd bd ce 40 59 3b
       0.09939997 0.050462916 -0.09233944 0.00331502
000280 bf bc 96 bc e2 c5 89 bb 3a 71 52 3d 4d 61 3a 3c
       -0.018400548 -0.0042044977 0.051377513 0.011375737
000290 5f 50 91 3d a2 54 2d ba 60 f0 82 3c f7 23 74 bd
       0.07095408 -0.00066120375 0.01598376 -0.05960461
0002a0 1c 59 56 bc e9 f5 94 bc 2f 09 16 3e c4 9d 74 3d
       -0.013082769 -0.018183665 0.14651941 0.05972077
0002b0 7f 6a b6 b9 b9 3b d3 bd a4 eb 87 bd 22 e7 1b 3d
       -0.0003479309 -0.103141256 -0.06636742 0.038062222
0002c0 17 b7 15 3c bc af ef bc b1 cd a5 bd 56 4b d7 bd
       0.00913789 -0.029258601 -0.08095873 -0.10512416
0002d0 99 07 a5 bc d1 50 11 bd 14 3e f3 bd f9 a2 90 bd
       -0.020145224 -0.035477463 -0.11877075 -0.070623346
0002e0 f3 05 9f 3d 16 41 70 3d c0 2b da bd 41 dc eb bc
       0.077648066 0.05865582 -0.10652876 -0.028791549
0002f0 dc 04 64 be a4 54 83 b9 f1 cb 72 3d 29 31 c4 bd
       -0.22267479 -0.0002504933 0.059276525 -0.09579689
000300 a7 0f 71 be af 55 f0 bc dd 53 8e 3d 8c 6e c6 3c
       -0.23541127 -0.029337732 0.069495894 0.024222635
000310 79 f7 2d 3c d8 04 1e bd 9e 44 43 bd 99 3e 96 3d
       0.010618084 -0.038578838 -0.04767286 0.07336158
000320 27 7f fd bb fb 94 c7 3d 24 b8 3b bc cf fc d4 bd
       -0.007736105 0.09745213 -0.011457477 -0.10399782
000330 99 6c d0 3c fd 9c 6e bb 8f 4d 75 bd e6 e5 0b 3d
       0.025442408 -0.003640949 -0.05988842 0.034154795
000340 85 47 c5 bc 2c 11 0f 3c 4c e1 75 3d 36 bb 82 bd
       -0.024081955 0.008732121 0.060029313 -0.06383364
000350 f1 79 0b 3a 27 7f 8d bd e7 b1 21 bd 3b 68 0a bc
       0.00053206 -0.06909018 -0.0394763 -0.008447702
000360 c6 65 20 be 2c 11 c0 3d bf f4 43 3b 3a 6b 1a bb
       -0.15663823 0.09378275 0.0029900519 -0.0023562447
000370 54 81 52 bd 60 b0 a0 3c ed 4f 18 be 9c b1 41 3b
       -0.05139287 0.019615352 -0.1487424 0.0029555326
000380 7e 99 45 bd 12 89 85 bd ca fa 9a bd f9 59 63 3d
       -0.048242085 -0.06520285 -0.075673655 0.055505726
000390 21 be a3 3c 7f 96 db 3d 0c 06 00 bd 26 35 75 3d
       0.019988121 0.10722064 -0.031255767 0.05986514
0003a0 15 69 94 3d 7b bb a8 bd 55 d0 93 bd 0e a3 86 be
       0.07246605 -0.08238884 -0.072174706 -0.26296276
0003b0 5a 7d 27 3c 69 53 27 be de 4d 84 3d 54 4f b5 3c
       0.010222757 -0.16340412 0.064601645 0.022132553
0003c0 88 50 e5 bc cb 8c 5c 3d 1a 89 e4 bc d5 60 bc bd
       -0.027992502 0.05384521 -0.027897406 -0.09198157
0003d0 61 88 0e 3e f6 b6 73 bd 5b 57 e3 3c 5f 1e c5 bc
       0.13919212 -0.059500657 0.027751615 -0.024062334
0003e0 4e 7b 98 bd 9e 3d 9d bb 6e d9 6b 3a 8f 76 a4 3b
       -0.074453935 -0.004798605 0.0008996938 0.005019016
0003f0 7e bf 72 bc 35 a8 4f bd 35 3a 6f bd c8 a6 7d bd
       -0.014816163 -0.050697524 -0.05840512 -0.061926633

fc2.bias f4 [128]
000000 32 e0 02 3d 6d d4 9f 3d d9 27 98 bb bf 23 ff bc
       0.03195209 0.07804189 -0.004643422 -0.031144975
000010 cf 11 10 bd e0 9a 39 3b f9 8f 8a 3d f4 b3 d3 3c
       -0.035173234 0.0028321072 0.06765742 0.025842644
000020 40 ff c7 3b 9a 1c 86 bd 5a a0 e4 3b 47 52 57 bd
       0.006103426 -0.06548424 0.006977123 -0.0525687
000030 9a 53 2f bc 82 9d 0a 3d 05 1b 50 3d f6 bf c0 bd
       -0.0107010845 0.033841617 0.050807018 -0.09411614
000040 fd 21 bd 3c 45 48 4e 3d 81 08 c4 bc 1d bd 0b 3d
       0.023087496 0.05036189 -0.023929836 0.0341159
000050 50 e2 37 3c ff e4 e0 bc 69 0a c9 bd bf 36 6f bd
       0.011223391 -0.027452944 -0.09816439 -0.05840182
000060 7a 30 e2 3c d4 8e 9e bc 2e 9d a8 bc 57 69 ac bd
       0.027611006 -0.019355215 -0.020582762 -0.084185295
000070 f8 b2 a1 bb 35 19 54 3d 8d ad 46 bc a2 d2 37 bd
       -0.004934665 0.05178185 -0.012126339 -0.04487861
000080 f9 b9 4f bd 0a 69 05 bb 6f 11 ea 3d 83 39 c2 3c
       -0.050714467 -0.0020356798 0.114291064 0.023709064
000090 46 f0 1f bc c4 6f 13 3d 7f 52 9a 3d f2 8d 58 3d
       -0.0097618755 0.03599526 0.07535266 0.052869745
0000a0 09 3b 97 3c f9 1d e6 bc 17 86 b9 3d c4 e8 cf bd
       0.018460767 -0.028090464 0.09058779 -0.101518184
0000b0 b3 d2 66 bd fc 2e a5 3d 49 f6 ae 3c d7 71 56 3d
       -0.056353282 0.08065602 0.021357672 0.05235466
0000c0 d4 c9 bb bc 8d 30 ce 3c e1 3b 43 3e bc db 52 bd
       -0.022923388 0.025169635 0.1906581 -0.051479086
0000d0 3b a5 a2 bc 53 05 38 3c a9 a7 19 3d 58 e9 49 3d
       -0.019854179 0.011231738 0.03751341 0.0492948
0000e0 55 ba 2e bd 43 1c e9 3b e4 d1 35 bd 13 9e 81 3d
       -0.04265817 0.0071139648 -0.04438962 0.063289784
0000f0 a9 6d 42 3d 6d 07 6c 3d 71 32 d3 bd 0f f1 8f 3c
       0.04746786 0.05762427 -0.10312355 0.017571
000100 f8 31 ac bd b1 ed 95 3d cd a4 ab bc dd e5 45 bd
       -0.08407968 0.07320727 -0.020952607 -0.048314918
000110 27 3b 1b 3e b3 df d3 3d 75 bd e5 3d 12 0b 9c 3d
       0.15159284 0.103454016 0.11217777 0.07619299
000120 24 08 17 3d e4 18 2b 3d d5 19 2a 3d fc af f8 bc
       0.036872998 0.041771784 0.04152854 -0.030357353
000130 55 93 0b 3e 6b 65 96 3d f2 19 96 3c ce 39 ad 3b
       0.13630421 0.07343563 0.018322919 0.005286432
000140 21 47 6c bd 1b e4 72 3b ed 5a 8e bd 5e cc f0 bd
       -0.05768502 0.003706223 -0.069509365 -0.1175773
000150 1d 6d ea bd ac 2e f0 3c 85 15 3b bd e8 8c 4f bd
       -0.11446593 0.02931913 -0.04567482 -0.050671488
000160 69 89 a5 3c e3 71 1e 3d 17 55 38 bd 35 31 4c 3b
       0.020207124 0.03868283 -0.045003023 0.003115726
000170 72 04 cd 3d bc 06 75 3d 41 dd f6 bc 04 ef d6 3c
       0.100106135 0.059820876 -0.030134799 0.026237018
000180 f7 d3 3e bc bf 4b 5a 3c 34 f7 50 bd cb 89 52 3c
       -0.011647216 0.013323723 -0.051017 0.012850235
000190 6f 1a 54 3b 5b 80 67 3c 73 d4 00 3e cf 95 cb bc
       0.0032364388 0.014129723 0.12581043 -0.024851708
0001a0 66 3e dd 3c 44 7c fd 3b 1b 74 74 3d ee b1 4a bc
       0.027007293 0.007735761 0.05968104 -0.012371523
0001b0 c4 6e 73 3d 87 36 3b bb 0b f1 fd 3c d6 89 00 bd
       0.059431806 -0.0028566436 0.030998727 -0.03138145
0001c0 64 ee f0 3d 69 c7 87 ba 5d 63 4f 3c 32 98 11 3d
       0.117642194 -0.0010359111 0.012657967 0.035545535
0001d0 ef c5 81 3d f8 b4 54 bd b7 f3 c0 bd 11 ab 78 3d
       0.06336581 -0.051930398 -0.09421485 0.060710017
0001e0 d4 66 8c 3d 33 c1 00 bd 98 63 dd 3a 81 1e 61 bc
       0.068555504 -0.03143425 0.0016890643 -0.013740183
0001f0 f0 99 57 bb b8 88 7a 3c d0 34 18 3d 4b 56 9b bd
       -0.003289815 0.015291385 0.03715974 -0.075848185

fc3.weight f4 [1, 128]
000000 85 b4 f7 3c e3 c8 98 3c cd 4d 82 3c be d2 82 bd
       0.030237446 0.018650478 0.015906239 -0.06387852
000010 6b 5a a5 bd 9b a1 8b 3c 9f c0 13 3d fe 69 a8 bd
       -0.080738865 0.017044833 0.03607237 -0.082233414
000020 19 c6 5e bd 0f 31 63 3d f7 c3 81 3c a0 c0 56 bd
       -0.05438814 0.055466708 0.015840514 -0.052429795
000030 d5 e8 77 3d 69 53 53 3c eb b6 a9 bc ff 8c 99 bd
       0.06052478 0.0128983045 -0.020717105 -0.07497596
000040 1d 87 90 3d 1f cc dc bd 4c f9 f3 bd 88 b8 57 bd
       0.07057021 -0.107811205 -0.11912784 -0.052666217
000050 ff bb 54 bd 04 46 0b bd 4a 32 a8 3d 44 76 8a bd
       -0.0519371 -0.03400232 0.08212717 -0.06760839
000060 5c 47 04 bd 58 27 0f bd 7b 3d ff 3c 52 50 02 bd
       -0.032294616 -0.03494963 0.031157246 -0.03181488
000070 8c 54 c5 bd c4 f3 ea 3c 88 ec f9 bd dd d8 e0 3d
       -0.09635267 0.02868069 -0.12203318 0.109788634
000080 90 6c 60 bd 3e d2 27 bd fd 96 2c 3d a2 8e f6 bc
       -0.054791033 -0.040971987 0.04213618 -0.03009731
000090 a9 27 80 bb ee 99 2c 3e da b5 5e 3d ee e6 cc bc
       -0.003910978 0.16855595 0.054372646 -0.02501246
0000a0 5e 29 84 bd 3f 24 c3 3c a7 62 97 3d bd 8f 16 bd
       -0.06453203 0.023820994 0.07391863 -0.036758173
0000b0 e4 44 21 bd 07 5b 85 3c a9 6a 37 bd 31 ba a9 3c
       -0.03937234 0.016278757 -0.044779453 0.020718666
0000c0 a5 0d f8 3c 54 50 ab 3c c6 fa ca 3c 8b 89 1f bd
       0.030279944 0.020912327 0.024777781 -0.03894953
0000d0 81 08 9d 3d 28 42 53 3d 40 b6 a8 3d d4 11 14 3d
       0.076676376 0.051576763 0.082378864 0.036149815
0000e0 d6 a0 00 be 93 aa 07 be d4 68 ce bb 85 9e 0d bd
       -0.12561354 -0.13248663 -0.0062991176 -0.034575004
0000f0 a6 00 b7 3c 95 f7 c3 3c c1 cf cf bd 67 30 30 bd
       0.022339176 0.023921767 -0.10147048 -0.04301491
000100 01 43 8d bc 01 60 51 bd ec f5 46 3d b7 18 fb bb
       -0.017243864 -0.051116947 0.048574373 -0.0076628583
000110 c5 d7 ae 3c f0 c5 d7 3c 65 7b e3 3c 7e 35 5d 3d
       0.021343121 0.026339501 0.0277688 0.054006092
000120 4d 2f 28 3e 6f b7 cf 3c 52 88 87 3c af 1a 03 3d
       0.16424294 0.025356023 0.016544495 0.03200787
000130 27 12 20 3c 3c e7 d0 3d 21 90 8c 3c f1 6a aa 3c
       0.009769953 0.102003545 0.01715857 0.020802947
000140 6a 82 94 3d 87 09 a8 3d 69 73 c3 3d e6 c2 11 bc
       0.07251437 0.08204942 0.09543497 -0.008896565
000150 4c a2 61 bc c4 72 fc 3c 2b 05 d0 3c 12 89 3c bd
       -0.013771605 0.030816443 0.02539309 -0.046029158
000160 07 be 5b bb 9f c0 cd 3c 50 30 e1 bc 1a 07 ed 3c
       -0.0033530013 0.025116263 -0.027488858 0.02893405
000170 07 ac 89 3c f0 c6 1f 3c 70 cb 0f 3d 55 8b b1 3d
       0.016805662 0.00975202 0.035106122 0.086691536
000180 ed b9 ea 3b 15 ea c5 3d 2d d5 33 3d b7 51 d2 3c
       0.0071632774 0.09663788 0.043904472 0.02567373
000190 18 19 a3 3d c1 36 58 bd 89 e8 9c 3c 0b b7 cf 3c
       0.07963771 -0.052786592 0.01915385 0.025355836
0001a0 e2 be 82 3c 2d 7a 7f 3d 0d da 60 3c 2f 99 f1 bc
       0.01596016 0.062372375 0.013723862 -0.029491989
0001b0 84 6a f9 3d 1e 52 fe 3c a2 80 d0 bc 38 37 f9 3c
       0.12178519 0.031045016 -0.025451962 0.030421838
0001c0 35 3e 28 3d f7 67 1b bd ff 1c 7a 3a 16 c2 dc 3c
       0.04107495 -0.037940945 0.0009541064 0.026948016
0001d0 e2 bb fc 3c a8 13 7a bd 41 54 2b bd db 39 55 3d
       0.030851308 -0.061053902 -0.041828398 0.05205713
0001e0 e8 9d 42 3c 80 79 95 3c fb 50 73 bd 4e 7c e2 bc
       0.011878468 0.018246412 -0.0594034 -0.027647164
0001f0 2a 3a 25 3d 5a b7 7b 3d 3a f6 d3 3d aa 95 05 bd
       0.040338673 0.061454155 0.10349698 -0.032613434
