checkpoints/checkpoint_random_agent0__actor.pth (torch_old, 159264 bytes, 6 tensors)

fc1.weight f4 [256, 24]
0.09120198 -0.074883915 0.032944817 -0.19873302 -0.09762964 -0.0071272827 0.03748944 -0.121723086
0.074146 -0.020704443 -0.018321909 -0.10145035 -0.053726785 -0.12544034 0.043733377 -0.04825304
-0.013025246 -0.11926287 -0.043367982 0.07956609 -0.1258518 -0.013660871 0.022035906 0.034397632
-0.014073409 0.1256201 -0.021454915 0.071594 -0.15039301 -0.08682078 -0.012937665 -0.021162102
-0.038845424 0.05382633 -0.013227575 -0.039287485 -0.15803374 0.0071116253 -0.06064763 -0.029226499
-0.0105077 0.009928824 -0.07439827 -0.058255628 -0.022237176 0.16612746 -0.029184505 -0.09657195
-0.074583076 0.08189257 0.019410856 0.045468006 0.10437516 0.1077817 -0.06335345 -0.008490354
0.018519511 0.082594976 -0.020722648 -0.056744434 0.062105816 0.053131945 -0.0015388005 -0.036908664
0.026271366 0.055946738 -0.093483515 -0.083713226 -0.031331997 0.080318406 -0.04710398 -0.008589666
0.027791481 0.059166674 -0.015219256 -0.055122294 0.09316092 0.024228934 0.0086006345 -0.062082876
-0.023687674 0.028973961 -0.05534617 -0.042845696 0.1486251 -0.021734826 -0.016897596 0.029000616
0.04909414 0.07543942 -0.052421212 0.012995966 0.1091711 -0.14659521 0.04406119 0.04255341
-0.06399468 -0.12622505 0.035142574 0.040791463 0.054161206 0.041852854 -0.070601076 -0.03144391
-0.044273406 -0.07419498 0.022584341 -0.051590934 0.053771473 0.05280759 0.044567604 0.015720071
0.012358022 -0.0630817 -0.008052137 0.021902626 -0.11759257 0.12207957 0.030591242 0.09015686
0.064816736 0.12967078 -0.05905695 0.076810025 0.0982662 -0.01494895 0.019156616 0.09503824
0.018417519 0.13376237 -0.04640572 -0.058212526 0.023824004 0.03489218 0.021188859 -0.032237973
0.08797445 0.032885637 0.06270984 -0.048904303 0.052199233 0.059002332 0.07095131 -0.07510054
-0.08325121 0.106355116 0.02700741 -0.024177156 0.038391106 -0.09683721 0.054454494 0.06536035
0.0024777814 0.054060075 0.015921772 -0.035668097 -0.016271401 0.0035882902 -0.0053222566 -0.027431892
-0.05463261 0.041877624 0.036961015 -0.06839849 0.065845564 -0.1628143 0.034907587 -0.037632957
-0.024769487 -0.062330443 -0.09419446 0.02780092 0.040439133 0.011832141 -0.066283055 -0.01801177
-0.019866752 -0.017643338 -0.039276 -0.043243885 -0.016926866 0.06563744 -0.025864325 -0.035736695
0.014417187 -0.031063754 -0.04612086 0.08440291 -0.0077361083 0.12836479 0.030425964 0.064914875
-0.06520715 -0.025221277 0.05023578 0.10916887 -0.012758556 0.06603514 0.052689746 0.08380526
0.015465255 -0.028318366 0.032694288 -0.0063876277 -0.028714119 0.03407323 0.052907474 0.018354623
0.035059277 -0.08906234 0.034851626 0.098283775 -0.13931102 0.11122864 -0.04283026 0.0320118
0.025284426 0.085036755 -0.03367574 0.035786804 0.075643234 0.13182497 -0.041850653 0.05337695
-0.049552575 0.054714505 0.053550195 -0.001596089 0.025801605 0.1256912 0.008281606 -0.07189469
0.035718236 0.029554509 -0.100156374 0.021271804 -0.018316507 0.07719792 -0.003203154 -0.0048499997
-0.039786506 -0.111145124 0.017978873 -0.034200523 -0.016662685 0.11452488 -0.024399094 0.021569947
0.010501307 -0.08072753 -0.05176272 0.11687263 0.09896099 -0.013666625 -0.09312659 0.138357
00000000: 1bc8 ba3d bd5c 99bd 25f1 063d ab80 4bbe
00000010: 0cf2 c7bd fb8b e9bb 878e 193d f449 f9bd
00000020: dcd9 973d 5d9c a9bc d417 96bc 33c5 cfbd
00000030: 9e10 5cbd 6f73 00be c521 333d fba4 45bd
00000040: d767 55bc 1740 f4bd a0a2 31bd 8cf3 a23d
00000050: 4bdf 00be d9d1 5fbc a584 b43c 88e4 0c3d
00000060: 2894 66bc 8ea2 003e 38c2 afbc e09f 923d
00000070: a000 1abe 18cf b1bd 80f8 53bc 255c adbc
00000080: 611c 1fbd ff78 5c3d 79b8 58bc eaeb 20bd
00000090: 99d3 21be a308 e93b a669 78bd 696c efbc
000000a0: 7d28 2cbc 82ac 223c 1f5e 98bd 749d 6ebd
000000b0: bd2a b6bc 511d 2a3e 5814 efbc 84c7 c5bd
000000c0: 03bf 98bd 4bb7 a73d 8403 9f3c a93c 3a3d
000000d0: a5c2 d53d a7bc dc3d 74bf 81bd 201b 0bbc
000000e0: 3bb6 973c 8e27 a93d 8bc2 a9bc da6c 68bd
000000f0: ab62 7e3d e2a0 593d 94b1 c9ba 8a2d 17bd
00000100: 0c37 d73c 6828 653d 4974 bfbd d771 abbd
00000110: fb55 00bd fa7d a43d 1af0 40bd acbb 0cbc
00000120: f6aa e33c c158 723d 305a 79bc eac7 61bd
00000130: 27cb be3d c27b c63c ade9 0c3c 9d4a 7ebd
00000140: a70c c2bc cd5a ed3c aab2 62bd f87e 2fbd
00000150: 2e31 183e 3c0d b2bc d46c 8abc b392 ed3c
00000160: f016 493d fc7f 9a3d a0b7 56bd 08ed 543c
00000170: 1995 df3d 0e1d 16be 8279 343d 7c4c 2e3d
00000180: a50f 83bd 2441 01be a9f1 0f3d f314 273d
00000190: 24d8 5d3d e66d 2b3d 4c97 90bd 54cb 00bd
000001a0: 0858 35bd 8af3 97bd cc02 b93c 0451 53bd
000001b0: 7a3f 5c3d c64c 583d 858c 363d 61c7 803c
000001c0: 4d79 4a3c fa30 81bd 1ced 03bc 236d b33c
000001d0: 60d4 f0bd db04 fa3d 7c9a fa3c 29a4 b83d
000001e0: a3be 843d 6bc8 043e b3e5 71bd 934e 9d3d
000001f0: ca3f c93d 71ec 74bc 56ee 9c3c 69a3 c23d
00000200: 56e0 963c 01f9 083e ed13 3ebd 4270 6ebd
00000210: 8f2a c33c 1aeb 0e3d 4294 ad3c f70b 04bd
00000220: f32b b43d 17b3 063d 046e 803d e14f 48bd
00000230: ddce 553d 6eac 713d ec4e 913d 50ce 99bd
00000240: 9c7f aabd b6d0 d93d a53e dd3c 2c0f c6bc
00000250: fe3f 1d3d 9652 c6bd ad0b 5f3d a6db 853d
00000260: 4662 223b 196e 5d3d 606e 823c b618 12bd
00000270: 9a4b 85bc 8529 6b3b 5366 aebb d9b8 e0bc
00000280: 72c6 5fbd df87 2b3d 6f64 173d 8214 8cbd
00000290: 0ada 863d cbb8 26be 42fb 0e3d 0425 1abd
000002a0: 61e9 cabc 354e 7fbd 06e9 c0bd c1be e33c
000002b0: 81a3 253d 99db 413c 69bf 87bd 6b8d 93bc
000002c0: 99bf a2bc c388 90bc dfdf 20bd 8020 31bd
000002d0: 36aa 8abc ec6c 863d 6ce1 d3bc a460 12bd
000002e0: 1136 6c3c 6a79 febc 3ae9 3cbd 6fdb ac3d
000002f0: 2e7f fdbb 0f72 033e df3f f93c 17f2 843d
00000300: 548b 85bd da9c cebc 09c4 4d3d ee93 df3d
00000310: 4309 51bc 6e3d 873d 34d1 573d 18a2 ab3d
00000320: fb61 7d3c ebfb e7bc 72ea 053d 4e4f d1bb
00000330: df39 ebbc 5f90 0b3d 82b5 583d 6f5c 963c
00000340: 519a 0f3d 5166 b6bd 94c0 0e3d 0149 c93d
00000350: 8ca7 0ebe d7cb e33d c86e 2fbd ce1e 033d
00000360: 4921 cf3c c027 ae3d 93ef 09bd 2f95 123d
00000370: d7ea 9a3d 20fd 063e 976b 2bbd caa1 5a3d
00000380: a4f7 4abd 511c 603d 7357 5b3d dc33 d1ba
00000390: e35d d33c 32b5 003e 93af 073c 863d 93bd
000003a0: 494d 123d 4c1c f23c c91e cdbd 3542 ae3c
000003b0: 800c 96bc f119 9e3d 02ec 51bb bfec 9ebb
000003c0: 2df7 22bd 0ea0 e3bd 6e48 933c d915 0cbd
000003d0: 2f80 88bc 058c ea3d 9ce0 c7bc 75b3 b03c
000003e0: ad0d 2c3c 7a54 a5bd 2505 54bd eb5a ef3d
000003f0: 0fac ca3d fbe9 5fbc 27b9 bebd 75ad 0d3e

fc1.bias f4 [256]
-0.053329933 0.12752473 0.11661281 0.10254941 -0.023720881 -0.1770097 -0.1803678 0.028275827
-0.16241801 -0.15194154 0.17622148 -0.013508999 0.07932933 -0.14904758 -0.013999534 0.21514788
0.061835017 0.024619343 -0.07752281 -0.20300736 0.13893957 -0.17630513 0.06300182 -0.17041667
-0.010769557 -0.2104601 0.068845 0.05685032 -0.1034048 -0.0027133347 -0.03983259 -0.0740049
-0.060334306 0.042188138 -0.08885285 0.05369294 -0.16804628 0.21135832 -0.09486926 0.057809547
-0.11999579 -0.009369924 0.04366893 -0.09790196 -0.0018304533 -0.08900432 -0.03129792 -0.09612123
0.24385826 0.13602218 -0.08532567 0.17473632 -0.07084808 -0.15789853 0.088140056 -0.0052580107
0.16003922 -0.052985314 -0.14324765 0.18734547 0.012925695 0.125439 -0.0020761127 -0.14395438
0.08458868 0.00018831935 -0.09845047 0.13822776 -0.2030486 -0.11646474 -0.0025107898 -0.14291953
-0.17311402 -0.040219054 -0.056395616 0.14499141 0.063088626 0.20972018 0.13665965 0.039891418
-0.0020861279 -0.037353557 -0.19628698 -0.22555615 0.12999204 -0.0532231 -0.07227251 0.081342846
-0.09159652 0.100372665 0.03803761 0.039510243 -0.05811664 0.15769778 -0.15660255 -0.17451003
0.17233247 -0.10959248 0.20903927 0.10360009 0.11638487 -0.048203446 0.037350893 0.07910879
-0.08732795 0.12327457 0.1127051 -0.009491513 0.061183758 -0.011635848 -0.014057069 -0.11590544
-0.065917544 -0.22357418 -0.06045139 0.13336755 0.21462099 -0.12968211 -0.12657936 0.172696
-0.066533394 0.045415085 0.17472923 0.18458197 0.07523297 0.13623595 0.035427865 0.015576527
0.15238711 -0.17698368 -0.15926464 0.18428655 -0.16576096 0.13452952 0.15998821 0.18336618
0.08454062 0.014313671 0.09548821 0.1582666 -0.0403161 -0.12813096 0.1883916 0.023634655
0.15166816 -0.11249614 -0.06499286 -0.0967657 0.034469377 0.2282672 0.061762266 0.22995625
0.15987386 -0.11718577 0.21999577 -0.017568246 0.20201555 0.07542851 0.009157833 0.17365874
-0.12534662 0.025167959 -0.020943515 0.0043330784 -0.07771048 0.18286045 0.020993834 0.06068095
0.07357658 0.17624387 0.080029055 -0.17906456 -0.15220878 -0.14538316 -0.17387417 -0.16343437
0.032569304 0.21575435 -0.11985223 0.16613193 -0.06235577 0.20280354 0.14496225 0.08074612
0.18620995 -0.105876684 -0.15580304 -0.08980449 0.056308933 0.2018766 0.1560018 0.077486165
0.0010768129 -0.0671284 0.22764733 -0.135688 -0.13097675 0.10996407 0.20955755 0.11020111
0.05630448 -0.003287225 0.03951858 -0.08913755 0.22896613 0.2444008 -0.058615677 0.15739611
-0.054421943 -0.053511873 0.057614908 -0.0050432463 0.18856509 0.06284178 -0.055637766 -0.18763545
0.16354053 0.1673573 0.09952776 -0.0595498 -0.08250666 0.08340115 0.27920923 0.009831237
0.059760682 -0.16429985 0.053786173 -0.06502041 -0.0129320845 -0.12601262 0.23073629 0.16572563
-0.0703335 -0.023652874 0.067955114 0.093587704 -0.11321804 0.118514396 0.06931267 0.1284788
-0.046722203 -0.08663383 0.1256389 -0.0055190693 -0.090860225 0.16830677 -0.024933523 -0.1427216
-0.048434887 -0.08820867 -0.045407712 -0.11858183 0.15769967 0.21418074 -0.13645147 0.13649698
00000000: 7d70 5abd d895 023e b2d2 ee3d 6d05 d23d
00000010: 4b52 c2bc 0842 35be 56b2 38be b5a2 e73c
00000020: e850 26be 9096 1bbe 6773 343e d954 5dbc
00000030: 6a77 a23d ee9f 18be 4d5e 65bc ba4f 5c3e
00000040: b746 7d3d 81ae c93c 47c4 9ebd 29e1 4fbe
00000050: 2d46 0e3e 5589 34be 1907 813d b581 2ebe
00000060: cc72 30bc da82 57be 9bfe 8c3d e2db 683d
00000070: e5c5 d3bd 34d2 31bb 7f27 23bd e28f 97bd
00000080: 1b21 77bd 78cd 2c3d 7cf8 b5bd 21ed 5b3d
00000090: 5314 2cbe 516e 583e d14a c2bd b4c9 6c3d
000000a0: 5ac0 f5bd 4f84 19bc 31de 323d d380 c8bd
000000b0: d2eb efba e647 b6bd 3f32 00bd 35db c4bd
000000c0: fbb5 793e 6649 0b3e 3abf aebd 14ee 323e
000000d0: cc18 91bd 27b0 21be c682 b43d 644b acbb
000000e0: 52e1 233e 2107 59bd 83af 12be 7ed7 3f3e
000000f0: 4bc6 533c 1573 003e 640f 08bb c768 13be
00000100: d43c ad3d 9777 4539 66a0 c9bd 948b 0d3e
00000110: f9eb 4fbe 1185 eebd 108c 24bb 7f59 12be
00000120: cd44 31be bcbc 24bd 17ff 66bd a178 143e
00000130: 9c34 813d e3c0 563e 82f0 0b3e 2f65 233d
00000140: 6bb7 08bb 0b00 19bd 74ff 48be 31f8 66be
00000150: a21c 053e 7700 5abd 9c03 94bd 1497 a63d
00000160: f596 bbbd 2f90 cd3d 53cd 1b3d 7ed5 213d
00000170: b70b 6ebd 877b 213e 6b5c 20be c2b2 32be
00000180: ec77 303e 0672 e0bd 640e 563e 492c d43d
00000190: 315b ee3d fa70 45bd 40fd 183d ca03 a23d
000001a0: ffd8 b2bd 6177 fc3d eed1 e63d 4a82 1bbc
000001b0: d29b 7a3d 49a4 3ebc 9f4f 66bc d55f edbd
000001c0: c7ff 86bd a1f0 64be e09b 77bd 8191 083e
000001d0: 9bc5 5b3e 63cb 04be 059e 01be 38d7 303e
000001e0: a942 88bd 2b05 3a3d 38ec 323e 0e03 3d3e
000001f0: be13 9a3d 7081 0b3e cf1c 113d b134 7f3c
00000200: 5e0b 1c3e 363b 35be 4516 23be 9db5 3c3e
00000210: 3ebd 29be 1bc2 093e f3d3 233e 58c4 3b3e
00000220: a223 ad3d e383 6a3c 538f c33d a410 223e
00000230: 7f22 25bd c334 03be bae9 403e 779d c13c
00000240: e64e 1b3e 6064 e6bd fa1a 85bd 182d c6bd
00000250: c32f 0d3d e0be 693e 6efa 7c3d a779 6b3e
00000260: f9b5 233e 18ff efbd 9246 613e 48eb 8fbc
00000270: 2add 4e3e 437a 9a3d bc0a 163c 99d3 313e
00000280: dd5a 00be 092d ce3c bc91 abbc 7ffc 8d3b
00000290: ac26 9fbd c53f 3b3e 43fb ab3c 968c 783d
000002a0: 51af 963d 4679 343e 46e6 a33d b35c 37be
000002b0: 9edc 1bbe 53df 14be 120c 32be 575b 27be
000002c0: 6467 053d b5ee 5c3e 1675 f5bd 7d1e 2a3e
000002d0: c468 7fbd bbab 4f3e fc70 143e 395e a53d
000002e0: d2ad 3e3e e0d5 d8bd d58a 1fbe 6beb b7bd
000002f0: 32a4 663d bdb8 4e3e f0be 1f3e 11b1 9e3d
00000300: d823 8d3a 9d7a 89bd 621c 693e ccf1 0abe
00000310: c51e 06be d834 e13d 4196 563e 1fb1 e13d
00000320: 879f 663d 7c6e 57bb 3cde 213d bf8d b6bd
00000330: 1976 6a3e 3444 7a3e fe16 70bd 722c 213e
00000340: 8be9 5ebd 442f 5bbd 9cfd 6b3d d141 a5bb
00000350: 3517 413e 31b3 803d 6de4 63bd 8223 40be
00000360: 2b77 273e b65f 2b3e 36d5 cb3d 7eea 73bd
00000370: 40f9 a8bd 39ce aa3d 83f4 8e3e 3213 213c
00000380: 9ec7 743d 383e 28be e44e 5c3d 6c29 85bd
00000390: 18e1 53bc 7409 01be 2246 6c3e fbb3 293e
000003a0: 030b 90bd acc3 c1bc 0d2c 8b3d e9aa bf3d
000003b0: dcde e7bd adb7 f23d cdf3 8d3d f28f 033e
000003c0: c85f 3fbd 146d b1bd 7ca7 003e 4fd9 b4bb
000003d0: ed14 babd 9c58 2c3e 6341 ccbc 9c25 12be
000003e0: a963 46bd bfa6 b4bd 70fd 39bd 08db f2bd
000003f0: 067c 213e 3252 5b3e efb9 0bbe ddc5 0b3e

fc2.weight f4 [128, 256]
-0.101294726 -0.18587098 0.04283216 0.0040300526 -0.0047084405 0.09845975 -0.004244603 0.10151672
-0.039333086 0.14702033 -0.12981352 -0.11803961 -0.036984865 -0.15917735 -0.016576529 0.08242657
-0.059499484 -0.007948638 -0.02551184 -0.12570779 -0.09187991 -0.04953133 -0.010342301 0.0385595
-0.014063738 -0.016749235 -0.047240663 -0.083440185 -0.10478127 -0.086945586 0.1701154 -0.09530079
-0.03663833 0.0013119912 0.0845669 0.041139577 0.031214075 -0.13649002 0.07794427 0.13769943
-0.020622991 0.19346127 0.23889394 -0.02392658 0.106273904 0.09153444 0.06554379 -0.067883864
-0.021694442 -0.013755249 -0.010718336 -0.06420016 0.016576052 -0.087220244 0.07715659 0.11182763
0.057372425 -0.029709663 -0.09505568 -0.069657825 -0.09650398 0.18305597 0.021976748 -0.056497626
-0.18611895 -0.027261479 0.0018350516 -0.057664078 -0.074489534 0.09480112 0.0265849 -0.12911442
-0.06718946 0.102073975 0.024248831 0.06526388 0.042847764 -0.11921739 0.20561914 -0.015051125
-0.056314923 -0.11387906 -0.066280246 0.040669575 0.026848245 -0.12429969 -0.14156738 -0.09529346
-0.12920521 -0.0051335297 0.0038159403 -0.0065356274 -0.12608439 0.08021533 -0.076298274 0.020427607
0.08902787 -0.030302756 0.05373064 -0.08205241 -0.08670503 0.15977132 0.30937847 0.079152554
0.12645842 -0.057034947 -0.119376086 0.06357057 -0.0096994685 0.006809015 -0.15088451 -0.07602965
0.04887207 -0.04030079 -0.028002096 0.00464858 0.064937145 0.14516476 -0.1153689 -0.005991573
0.07277453 0.009978348 -0.033304222 0.015630782 0.026020614 -0.02148292 0.0066120047 -0.0024298944
-0.07122334 0.09257678 0.020871593 -0.033392265 0.0038823197 0.07310272 0.06739183 -0.22559161
-0.02726255 -0.0010588543 -0.029923806 -0.09880097 -0.027144795 0.02539756 -0.044003576 -0.07438824
0.044120185 0.098645836 0.026481934 0.019898294 -0.022636255 0.008493753 0.023255585 -0.09800947
-0.033682525 0.053473495 -0.033059787 0.01780384 -0.033794533 -0.028668948 -0.032198384 0.18965666
-0.0024528503 -0.018162778 0.096367605 -0.0031416656 0.11638123 -0.11142589 -0.09312684 0.06512845
0.13678113 0.03485407 -0.078826375 -0.062172234 -0.10068836 -0.08351693 0.028042665 -0.08359371
-0.10845841 -0.005368681 0.02588303 0.30824086 0.100933515 -0.053204358 0.11514754 -0.028655615
0.054409716 -0.002272582 0.057543136 -0.024185535 -0.018438863 0.05481154 -0.10988189 -0.00958628
-0.100298874 -0.14837925 -0.047393095 -0.13109478 -0.16540053 -0.07477001 -0.015845137 -0.09465083
-0.03319849 -0.0079647545 0.020785013 0.026829738 0.009259057 0.06614816 -0.10958003 0.114377014
-0.028634546 0.3201307 0.0011627765 0.025889983 0.019659497 0.25290817 0.066135414 -0.1672284
-0.012985435 0.06339868 0.0516109 -0.07792155 -0.067848675 0.07317866 0.004951716 0.06240654
-0.046681408 -0.015291001 -0.05786542 0.12327063 -0.06875988 0.054442603 0.021213472 0.025652565
0.0590311 -0.0838967 -0.07577187 0.048818383 0.03021824 0.055444535 0.04129988 -0.03453995
0.010885571 -0.094603874 0.18334042 -0.11603501 -0.090264745 0.056211997 0.10691589 -0.037174124
0.054223705 -0.14938125 0.02047715 -0.095284596 -0.0104367025 0.00260315 -0.049362298 -0.08145505
00000000: 9c73 cfbd f654 3ebe c670 2f3d 880e 843b
00000010: 4349 9abb 44a5 c93d 5016 8bbb 00e8 cf3d
00000020: bb1b 21bd 7f8c 163e d6ed 04be c0be f1bd
00000030: 717d 17bd 63ff 22be 80cb 87bc 43cf a83d
00000040: bbb5 73bd 013b 02bc 35fe d0bc 8bb9 00be
00000050: 892b bcbd 5de1 4abd c172 29bc 91f0 1d3d
00000060: 986b 66bc b135 89bc 6d7f 41bd b0e2 aabd
00000070: 9097 d6bd 8710 b2bd bb32 2e3e 102d c3bd
00000080: 1312 16bd 1ff7 ab3a 6931 ad3d f981 283d
00000090: a9b4 ff3c 0ac4 0bbe 3fa1 9f3d 1401 0d3e
000000a0: 8cf1 a8bc b61a 463e 9da0 743e ad01 c4bc
000000b0: 22a6 d93d 6976 bb3d d33b 863d b206 8bbd
000000c0: 8bb8 b1bc b25d 61bc f69b 2fbc 607b 83bd
000000d0: 80ca 873c 87a0 b2bd 4604 9e3d e205 e53d
000000e0: 59ff 6a3d ae61 f3bc 8dac c2bd c3a8 8ebd
000000f0: e1a3 c5bd 0673 3b3e 9508 b43c 0e6a 67bd
00000100: f795 3ebe 7753 dfbc 1d86 f03a 2b31 6cbd
00000110: f88d 98bd 1727 c23d 94c8 d93c 9236 04be
00000120: a19a 89bd 290c d13d 7ca5 c63c 12a9 853d
00000130: 2381 2f3d 3f28 f4bd d38d 523e fe98 76bc
00000140: 7aaa 66bd 6d39 e9bd f0bd 87bd 2495 263d
00000150: daf0 db3c d690 febd 0af7 10be 3829 c3bd
00000160: 5f4e 04be 2b37 a8bb db14 7a3b d128 d6bb
00000170: 441c 01be ef47 a43d 4542 9cbd cc57 a73c
00000180: 3e54 b63d 7c3d f8bc a914 5c3d 180b a8bd
00000190: 6892 b1bd 189b 233e db66 9e3e bc1a a23d
000001a0: 517e 013e 7a9d 69bd 737b f4bd 4931 823d
000001b0: 85ea 1ebc 281e df3b 7881 1abe 6fb5 9bbd
000001c0: 142e 483d 7112 25bd a764 e5bc 1e53 983b
000001d0: c4fd 843d 12a6 143e 8846 ecbd f554 c4bb
000001e0: d00a 953d 3a7c 233c 026a 08bd 200c 803c
000001f0: 2f29 d53c f3fc afbc 84a9 d83b dd3e 1fbb
00000200: 8bdd 91bd e598 bd3d e7fa aa3c 54c6 08bd
00000210: 846e 7e3b e1b6 953d ba04 8a3d 7d01 67be
00000220: b655 dfbc 41c9 8aba c522 f5bc 2a58 cabd
00000230: c35e debc 8b0e d03c 183d 34bd dd58 98bd
00000240: 5eb7 343d d406 ca3d a4f0 d83c bf01 a33c
00000250: ab6f b9bc 6229 0b3c 7f82 be3c 30b9 c8bd
00000260: b0f6 09bd 0607 5b3d b369 07bd 5cd9 913c
00000270: 236c 0abd 24db eabc 74e2 03bd 5b35 423e
00000280: 00c0 20bb 1bca 94bc 615c c53d 67e4 4dbb
00000290: 4859 ee3d 4233 e4bd 49b9 bebd 1162 853d
000002a0: 5a10 0c3e 24c3 0e3d b96f a1bd 50a8 7ebd
000002b0: b335 cebd ed0a abbd bbb9 e53c 2e33 abbd
000002c0: 711f debd c3eb afbb a608 d43c bfd1 9d3e
000002d0: 3bb6 ce3d d0ec 59bd 79d2 eb3d 2ebf eabc
000002e0: b9dc 5e3d 99ef 14bb 5ab2 6b3d be20 c6bc
000002f0: 190d 97bc 1182 603d c209 e1bd c60f 1dbc
00000300: 7f69 cdbd bbf0 17be 431f 42bd b63d 06be
00000310: c25e 29be 0521 99bd a9cd 81bc 4bd8 c1bd
00000320: 24fb 07bd 9a7e 02bc 5545 aa3c 0aca db3c
00000330: 4db3 173c b078 873d 7f6b e0bd 7f3e ea3d
00000340: ff92 eabc 2ce8 a33e 4e68 983a 3b17 d43c
00000350: f40c a13c 2e7d 813e 0172 873d ec3d 2bbe
00000360: ddc0 54bc 2bd7 813d f365 533d 5595 9fbd
00000370: 3ff4 8abd b1de 953d 0142 a23b 009e 7f3d
00000380: 0135 3fbd 1b87 7abc 4a04 6dbd 5075 fc3d
00000390: fbd1 8cbd 35ff 5e3d e0c7 ad3c 5425 d23c
000003a0: 98ca 713d 08d2 abbd 482e 9bbd c9f5 473d
000003b0: 3e8c f73c cf19 633d 102a 293d c379 0dbd
000003c0: 6559 323c adbf c1bd 97bd 3b3e c3a3 edbd
000003d0: b9dc b8bd 8d3e 663d b8f6 da3d e543 18bd
000003e0: ad19 5e3d 66f7 18be b2bf a73c 9224 c3bd
000003f0: b4fe 2abc 9c99 2a3b 1f30 4abd e8d1 a6bd

fc2.bias f4 [128]
0.08334063 0.039574925 -0.053130377 0.0292459 0.01735996 0.029990345 0.047090694 -0.018073943
0.03043004 0.030861024 0.048257787 0.0729397 -0.035814665 0.016016789 0.010814553 0.062407404
-0.060070034 0.0057935924 -0.011436966 -0.028028125 -0.025754314 0.016145293 0.018422319 0.020480333
0.08902336 0.017543236 -0.039240982 0.04625747 0.037631582 0.013596882 0.015630204 0.056362957
-0.054813668 -0.023931926 -0.03521846 0.037803292 0.044501085 0.021578757 0.032105472 -0.060241092
0.030206837 0.0662495 0.019861074 0.08665169 0.035220847 0.00069993443 -0.047172714 0.09584663
-0.012067935 -0.017800964 -0.0033786972 -0.028649665 -0.0010017076 0.04279183 0.015605622 0.06018122
0.031216908 0.06336603 0.0032677567 0.07877543 -0.025224598 -0.018669812 -0.0015077312 0.069827564
0.07993024 0.050357204 0.018167498 -0.014953761 -0.0060290177 0.06923891 0.047408037 -0.046812743
0.07485528 0.039345518 0.008651189 0.04861373 -0.011677914 0.08696075 0.02405469 -0.111926295
-0.01009237 0.0107680075 0.02421205 -0.03886504 0.010941719 0.022561722 -0.0011963226 0.004957294
0.06461383 -0.0032849628 0.054540988 0.081635885 0.03222921 0.00019798595 0.028461184 0.0039337547
0.06671327 0.0455746 0.023985906 0.01728121 0.05501944 0.05828908 -0.011882084 0.011495762
-0.07910231 -0.047045253 -0.05713824 -0.029359132 0.06170665 0.030071922 -0.009840325 -0.027269518
0.03698064 0.047419555 0.037682265 -0.011491325 0.0017560155 -0.026401564 0.04651657 -0.013534562
0.06614382 0.08453419 0.023676425 0.0027601144 0.020513665 0.04957522 0.052070785 0.028951798
00000000: 7eae aa3d 5119 223d 3d9f 59bd 1995 ef3c
00000010: 7a36 8e3c 50ae f53c 2ce2 403d ce0f 94bc
00000020: 6b48 f93c 42d0 fc3c f5a9 453d 6961 953d
00000030: 66b2 12bd a435 833c 862f 313c e89e 7f3d
00000040: ff0b 76bd 2dd8 bd3b 1d62 3bbc 3d9b e5bc
00000050: b6fa d2bc 2243 843c 67ea 963c 5fc6 a73c
00000060: e151 b63d d5b6 8f3c 27bb 20bd 7978 3d3d
00000070: 9323 1a3d 75c5 5e3c ea0a 803c d8dc 663d
00000080: 4c84 60bd e30c c4bc 3b41 10bd a0d7 1a3d
00000090: c546 363d efc5 b03c 0781 033d 5dbf 76bd
000000a0: 5474 f73c d1ad 873d b1b3 a23c 7176 b13d
000000b0: bc43 103d ce7b 373a 2d38 41bd 3d4b c43d
000000c0: 97b8 45bc 54d3 91bc 226d 5dbb b4b2 eabc
000000d0: bb4b 83ba 7c46 2f3d b9ae 7f3c 9580 763d
000000e0: 9aba ff3c 0dc6 813d dc27 563b 0355 a13d
000000f0: d1a3 cebc 6ff1 98bc 109f c5ba c101 8f3d
00000100: 77b2 a33d 5b43 4e3d 01d4 943c 9f00 75bc
00000110: 118f c5bb 21cd 8d3d ee2e 423d b8be 3fbd
00000120: ba4d 993d c428 213d b7bd 0d3c 311f 473d
00000130: b954 3fbc 7a18 b23d 570e c53c 9d39 e5bd
00000140: 785a 25bc 4c6c 303c 5958 c63c f330 1fbd
00000150: e544 333c 5cd3 b83c edcd 9cba cc70 a23b
00000160: 4154 843d 8848 57bb 5f66 5f3d b730 a73d
00000170: c702 043d 739a 4f39 6e27 e93c bae6 803b
00000180: f8a0 883d 6fac 3a3d 177e c43c 5391 8d3c
00000190: 105c 613d 88c0 6e3d 13ad 42bc b858 3c3c
000001a0: 6400 a2bd 86b2 40bd ca09 6abd 9082 f0bc
000001b0: 1dc0 7c3d 6459 f63c 5139 21bc 5364 dfbc
000001c0: 0379 173d 023b 423d b858 1a3d 1c46 3cbc
000001d0: 1a2a e63a 1848 d8bc 2988 3e3d 11c0 5dbc
000001e0: 6976 873d 4320 ad3d 10f5 c13c 09e3 343b
000001f0: 460c a83c 630f 4b3d 2d48 553d 522c ed3c

fc3.weight f4 [2, 128]
0.19308601 0.023291292 0.03880526 -0.043453284 0.005783389 -0.011740522 -0.09398958 0.0065772124
0.019897869 0.05628795 0.004328907 -0.044773795 0.05373114 0.07200168 0.0062716226 0.013200553
-0.014069224 -0.27074516 0.041181244 -0.00987072 0.040554322 -0.048248 -0.0153426295 0.024883693
0.08334473 0.07128159 -0.0071175667 0.01902689 0.11460704 0.0052782055 0.0020000455 0.03808054
-0.030608805 0.14925018 0.16353354 -0.095250785 -0.002403134 -0.0073050894 0.017483493 0.19058625
0.08060234 0.024890952 0.06312815 -0.14026523 0.007686866 -0.02017382 -0.010022503 -0.10234361
0.076438904 0.17930552 0.0014751598 -0.14143836 0.00012869768 0.056121327 0.096993625 -0.002312755
0.05396226 -0.018235298 -0.007940258 0.040980097 -0.0055993227 0.19285977 0.092941456 0.054875802
0.079762585 0.00038794705 -0.018278185 -0.004964528 0.14787662 0.09648143 -0.0030241 -0.12206755
0.112658374 0.003088233 -0.032688856 0.07117677 0.024943825 0.05832157 -0.006977779 -0.030044878
-0.0030193587 -0.0055220276 -0.003912737 0.007412986 0.04136327 0.11163252 0.080679655 0.024331573
0.011221003 0.002764749 -0.014399081 0.064511344 -0.048708428 0.114671476 -0.04627453 -0.012759967
0.097896405 -0.012483361 0.027303325 -0.010183077 0.05781857 0.05295881 0.086096354 -0.0059491773
-0.09423926 -0.03544529 -0.10972576 -0.0071224812 0.036475364 -0.13825788 0.0063318713 0.025404373
0.025443936 0.10087732 -0.006125535 0.013893937 0.089433484 0.005374527 0.051681362 -0.006194305
0.004427889 0.07887271 -0.00055866566 0.008473091 0.1123576 0.09125802 0.011673809 -0.09797228
0.053928092 -0.078574 0.07757953 0.013527077 0.13884106 0.0038573437 0.025525758 -0.13328323
0.10473215 0.09316029 0.039552867 -0.014746336 -0.13747193 -0.005813704 -0.18030158 -0.17866927
0.02001674 0.004945665 -0.11463521 0.057432175 0.0064474004 -0.23439918 -0.1705282 -0.009516881
-0.1676954 -0.29280737 -0.13333471 -0.095658936 0.23654166 -0.10543552 -0.30705604 -0.16608347
-0.17453265 -0.040234562 0.0670563 0.09972462 0.081189856 0.018774847 -0.05694089 0.07679526
-0.02904716 -0.01720625 0.0050238324 0.06742921 -0.18098181 0.002639488 0.041957293 0.06955009
0.05689302 -0.031516246 -0.13998514 0.090216786 -0.15526457 -0.06627181 -0.123236366 0.048229735
0.0379968 0.002586707 0.0048363293 -0.03552805 0.058249433 -0.028668199 -0.06786181 -0.16112936
-0.03613544 0.04933006 -0.07382474 0.013820486 -0.1101604 0.0039627403 -0.05233815 -0.064089805
-0.083744965 -0.20602612 -0.19008258 -0.2134518 -0.12019004 0.00232277 -0.14210749 0.19643047
0.13266708 -0.15433544 -0.030996244 -0.23521984 0.018884584 -0.013260612 -0.021970408 -0.1776308
-0.1653624 -0.113236345 0.0137812635 -0.012121544 0.13210571 0.026220154 0.10042689 0.10715366
0.10502235 -0.09254016 0.06703121 0.10472941 0.012444448 -0.0893614 -0.101799585 0.044469774
0.102269866 -0.20870975 0.073768415 0.041309834 -0.20982862 0.14527124 -0.118299715 -0.13973026
-0.1861113 -0.019003231 0.15075758 0.08276238 -0.09884916 0.07791443 -0.068648495 0.02376398
-0.10937554 -0.06054809 -0.1720901 -0.11095145 -0.06997576 0.022013405 -0.19079366 0.026681526
00000000: 57b8 453e 61cd be3c 44f2 1e3d 12fc 31bd
00000010: 9582 bd3b 525b 40bc 9c7d c0bd a885 d73b
00000020: db00 a33c 328e 663d 81d9 8d3b ba64 37bd
00000030: 2f15 5c3d 9e75 933d 2f82 cd3b 2247 583c
00000040: 9a82 66bc 1c9f 8abe aaad 283d cdb8 21bc
00000050: 4a1c 263d b29f 45bd a75f 7bbc e3d8 cb3c
00000060: a4b0 aa3d 15fc 913d 7a3a e9bb 48de 9b3c
00000070: 19b7 ea3d ccf4 ac3b 3213 033b 57fa 1b3d
00000080: 51bf fabc 0ad5 183e 5675 273e d812 c3bd
00000090: e67d 1dbb 885f efbb 8b39 8f3c 0b29 433e
000000a0: d712 a53d 1ce8 cb3c 5549 813d b0a1 0fbe
000000b0: 1be2 fb3b 9143 a5bc 6d35 24bc 8799 d1bd
000000c0: 008c 9c3d de9b 373e 265a c13a 38d5 10be
000000d0: 05f3 0639 7adf 653d 98a4 c63d 9791 17bb
000000e0: 8807 5d3d 3162 95bc db17 02bc bfda 273d
000000f0: 867a b7bb 087d 453e 1758 be3d 73c5 603d
00000100: 915a a33d 5f65 cb39 22bc 95bc 7bad a2bb
00000110: f86c 173e 0e98 c53d fb2f 46bb 8dfe f9bd
00000120: 6fb9 e63d f463 4a3b c0e4 05bd 20c5 913d
00000130: fe56 cc3c 99e2 6e3d daa5 e4bb ad20 f6bc
00000140: 6fe0 45bb 20f2 b4bb 6b36 80bb a2e8 f23b
00000150: 886c 293d 979f e43d 603b a53d 0253 c73c
00000160: 4cd8 373c cb30 353b 1fea 6bbc 861e 843d
00000170: 7d82 47bd e1d8 ea3d 5d8a 3dbd 2e0f 51bc
00000180: e97d c83d 0387 4cbc 39ab df3c ecd6 26bc
00000190: 2ad3 6c3d 56eb 583d 4953 b03d 51f1 c2bb
000001a0: 8300 c1bd 152f 11bd e6b7 e0bd b463 e9bb
000001b0: 3167 153d 7993 0dbe 967b cf3b d51c d03c
000001c0: cd6f d03c c598 ce3d b6b8 c8bb 65a3 633c
000001d0: e728 b73d cd1c b03b d6af 533d 99f9 cabb
000001e0: d317 913b 0488 a13d 6b73 12ba b8d2 0a3c
000001f0: be1b e63d 7ce5 ba3d 8143 3f3c b1a5 c8bd
00000200: b4e3 5c3d 68eb a0bd 04e2 9e3d aca0 5d3c
00000210: 5a2c 0e3e 7dcb 7c3b 651b d13c 667b 08be
00000220: cf7d d63d d2ca be3d 3002 223d 9e9a 71bc
00000230: 71c5 0cbe e280 bebb faa0 38be 14f5 36be
00000240: 25fa a33c 3f0f a23b ddc5 eabd 003e 6b3d
00000250: b744 d33b 5706 70be f29e 2ebe b1ec 1bbc
00000260: 58b8 2bbe d9ea 95be e588 08be d5e8 c3bd
00000270: fa37 723e 94ee d7bd 7336 9dbe c911 2abe
00000280: b0b8 32be ffcc 24bd d054 893d 6c3c cc3d
00000290: de46 a63d b5cd 993c da3a 69bd d546 9d3d
000002a0: 4ff4 edbc 1ff4 8cbc f69e a43b 5318 8a3d
000002b0: 4c53 39be 43fb 2c3b 69db 2b3d 4770 8e3d
000002c0: a808 693d 2e17 01bd 4458 0fbe 94c3 b83d
000002d0: adfd 1ebe 84b9 87bd 5963 fcbd 8b8c 453d
000002e0: 88a2 1b3d be85 293b 127a 9e3b dc85 11bd
000002f0: f596 6e3d 92d9 eabc 22fb 8abd 18ff 24be
00000300: c102 14bd 510e 4a3d 6d31 97bd 526f 623c
00000310: c79b e1bd e0d9 813b 8760 56bd 8441 83bd
00000320: 7b82 abbd 83f8 52be 02a5 42be 1c93 5abe
00000330: 3226 f6bd 9d39 183b a084 11be 1225 493e
00000340: e1d9 073e 1c0a 1ebe d6eb fdbc 78dd 70be
00000350: d8b3 9a3c 0a43 59bc 49fb b3bc d9e4 35be
00000360: c354 29be 75e8 e7bd cfca 613c 7199 46bc
00000370: b846 073e a6cb d63c 9dac cd3d 6173 db3d
00000380: f515 d73d b285 bdbd a947 893d 5f7c d63d
00000390: cce3 4b3c 1c03 b7bd 4d7c d0bd f025 363d
000003a0: dd72 d13d 02b8 55be e513 973d 8034 293d
000003b0: 50dd 56be fcc1 143e 1f47 f2bd 7315 0fbe
000003c0: f693 3ebe aaac 9bbc 3260 1a3e 537f a93d
000003d0: 6e71 cabd 9a91 9f3d 9597 8cbd aeac c23c
000003e0: 4800 e0bd 4601 78bd 6338 30be 843a e3bd
000003f0: 744f 8fbd 7555 b43c 6a5f 43be 3793 da3c

fc3.bias f4 [2]
0.013298525 0.02129295
00000000: 0ee2 593c 8d6e ae3c
