checkpoints/checkpoint_per_agent0__critic.pth (torch_old, 187419 bytes, 5 tensors)

fc1.weight f4 [256, 52]
0	0x3c968cbe	0.018377658
1	0x3dee1470	0.11624992
2	0x3aa21495	0.0012365753
3	0xbd5d04fa	-0.053959824
4	0x3e452f1f	0.19256257
5	0xbd26ae87	-0.040693786
6	0xbc900881	-0.01758218
7	0x3d02354f	0.03178912
8	0x3d1971bb	0.037461977
9	0x3da41374	0.08011523
10	0xbcc8cea1	-0.02451259
11	0xbd617c22	-0.055050023
12	0x3de0e142	0.109804645
13	0xbcf18d6e	-0.029486384
14	0x3d48f17f	0.049058434
15	0xbcb61227	-0.022225453
16	0xb962f3d2	-0.0002164387
17	0x3cc29630	0.023753256
18	0x3c7b0908	0.015321977
19	0xbcd91dd5	-0.026503483
20	0xbe1d6558	-0.15370691
21	0x3c2e2e97	0.010631225
22	0xbc80f0f9	-0.015739905
23	0x3d51c876	0.051216565
24	0xbd235914	-0.039879873
25	0x3cd0cec4	0.025489219
26	0x3d1eeaf3	0.038798284
27	0x3c767bba	0.015044147
28	0xbde62a0d	-0.11238489
29	0xbc38cdf8	-0.0112795755
30	0x3c28ddab	0.010306756
31	0xbd51c456	-0.05121263
32	0xbd513ee5	-0.05108537
33	0x3c1a09e5	0.009401773
34	0x3c82919a	0.015938569
35	0xbd46fe67	-0.04858246
36	0x3c1f9663	0.009740445
37	0xbd2a3962	-0.04155863
38	0xbd15a8fc	-0.03653811
39	0xbc1feaa3	-0.009760532
40	0xbdf8a423	-0.121406816
41	0xbd14a55a	-0.036290504
42	0x3c907af1	0.017636748
43	0x3dcc9a77	0.09990399
44	0x3e21d33f	0.1580324
45	0x3d45ff31	0.048339073
46	0x3cf0a062	0.029373351
47	0xbc6c912b	-0.014438908
48	0xbdd1693c	-0.1022515
49	0xbcaad580	-0.020853758
50	0x3e1cc7ec	0.15310639
51	0x3d6c9ab8	0.05776474
52	0xbd30dafd	-0.043177593
53	0xbcaf4af5	-0.021398047
54	0x3c6cde84	0.014457349
55	0x3d6b2089	0.057404075
56	0x3dd826b5	0.10554258
57	0xbdd22871	-0.1026162
58	0xbcdab054	-0.026695408
59	0x3c6caeb3	0.014445948
60	0x3c84ada4	0.01619608
61	0x3d5eff3c	0.05444263
62	0xbd4ae97e	-0.04953908
63	0x3da1f0d3	0.07907262
64	0x3de56354	0.11200586
65	0xbe3361a0	-0.1751771
66	0x3d398ac6	0.04529836
67	0x3ce03ac2	0.027371768
68	0xbd39831d	-0.045291055
69	0x3d75bd11	0.05999476
70	0xbd312813	-0.04325111
71	0xbdb44d77	-0.08803838
72	0x3dab34da	0.0835969
73	0xbc9ba297	-0.018998427
74	0x3d36aeb9	0.044600222
75	0x3c1fa51d	0.009743956
76	0xbdfdd73b	-0.123945676
77	0xbd594c0d	-0.053051043
78	0xbd84ff87	-0.064940505
79	0x3ba9c4f9	0.0051809517
80	0xbc65a628	-0.0140166655
81	0xbd3722e6	-0.044711016
82	0x3d6d5613	0.057943415
83	0x3d38da05	0.045129795
84	0xbd746bd9	-0.059673164
85	0xbcc0fa6e	-0.023556914
86	0x3b6929ac	0.0035577817
87	0xbc91f4e1	-0.017816963
88	0xbe2e9ba6	-0.17051563
89	0xbe5b9cb8	-0.21446502
90	0xbb6648a9	-0.0035138524
91	0x3d42ddb5	0.047574718
92	0xbdf89c80	-0.12139225
93	0x3c2d74f6	0.010586968
94	0xbcf89101	-0.03034258
95	0xbd69bcf5	-0.05706497
96	0xbda732bf	-0.08163976
97	0xbe03f50c	-0.12886447
98	0x3c1a2acc	0.009409618
99	0xbd326a74	-0.043558553
100	0x3e0e24f2	0.13881281
101	0xbdfe26f5	-0.12409774
102	0xbcc4fcbc	-0.024046294
103	0xbd7d3461	-0.06181753
104	0xbbedf05f	-0.0072613205
105	0x3d958539	0.07300801
106	0x3d02468e	0.031805567
107	0xbe4247a8	-0.18972647
108	0x3d8dac75	0.06917659
109	0xbe1e96e9	-0.15487255
110	0xbd414935	-0.047188956
111	0xbe3a144c	-0.18171805
112	0x3d6889c1	0.056771997
113	0x3dec97d8	0.115523994
114	0xbc5b2755	-0.013376077
115	0xbdf6cf11	-0.120512135
116	0xbd065db7	-0.032804217
117	0xbcde3ba4	-0.027128048
118	0x3a5dc54f	0.0008459882
119	0xbdc6892e	-0.09694134
120	0xbd61e7c2	-0.055152662
121	0x3da779b4	0.0817751
122	0xbc87b9d7	-0.016568108
123	0xbe4c0ac6	-0.19925985
124	0xbcf3c80d	-0.029758478
125	0xbe1675e5	-0.1469341
126	0x3d16aa79	0.03678367
127	0xbe067b27	-0.13132916
128	0xbcf3250f	-0.029680757
129	0xbb0583d1	-0.0020372758
130	0xbd2ff11a	-0.04295454
131	0xbdd0be93	-0.10192599
132	0xbb6ab272	-0.0035811928
133	0xbd582df6	-0.052778207
134	0xbd0afecd	-0.033934403
135	0xbd8ad16e	-0.06778227
136	0x3d61feb9	0.055174563
137	0x3d989e24	0.07452038
138	0xbd750020	-0.059814572
139	0x3d01adc1	0.031659845
140	0xbc5b71b7	-0.013393811
141	0xbc4a9dc1	-0.012366713
142	0x3c18edd1	0.009334044
143	0xbd4429c0	-0.04789138
144	0x3c862862	0.016376678
145	0x3d8babc2	0.068198696
146	0xbcb8c2ab	-0.022553762
147	0xbd656faa	-0.056014694
148	0x3c8ee089	0.017441051
149	0xbe0b4469	-0.13600315
150	0xbc8a1026	-0.016853403
151	0xbdb7aeb7	-0.08968871
152	0x3cc8ec0b	0.024526617
153	0xbd4a860d	-0.049444247
154	0xbd867320	-0.06564927
155	0xbc9cc9ab	-0.019139132
156	0xbd35a016	-0.044342123
157	0x3dc0844d	0.09400234
158	0x3d08f855	0.033439953
159	0xbcf64f9f	-0.030067263
160	0xbdbee75c	-0.09321472
161	0xbd01c8fa	-0.031685807
162	0xbbd4d1aa	-0.0064947205
163	0x3cc2dfc5	0.023788342
164	0x3d598672	0.053106733
165	0x3e0b7600	0.13619232
166	0x3da0873b	0.07838293
167	0xbd3d9f6a	-0.046294607
168	0x3cc90c6b	0.024542054
169	0x3da1fd1c	0.07909605
170	0x3d7711ba	0.06031964
171	0xbc9c49fa	-0.019078244
172	0x3e117f0c	0.14208621
173	0x3db2a3de	0.087226614
174	0x3b7ea68d	0.0038856596
175	0xbd97fd60	-0.07421374
176	0x3e119f42	0.14220908
177	0xbcee2e9e	-0.029074963
178	0x3d6366c7	0.055517938
179	0xbcd179e2	-0.025570814
180	0x3cef66c1	0.029223802
181	0xbcf1ae6f	-0.029502122
182	0x3ce97b06	0.028501045
183	0xbc8d06b8	-0.017215118
184	0x3dc1e99d	0.09468386
185	0x3b00e967	0.0019670369
186	0xbd54bf5b	-0.051940303
187	0x3ceb253a	0.028704274
188	0x3d59752b	0.053090256
189	0x3c9bc2cb	0.019013783
190	0x3b0d8db3	0.0021599352
191	0x3d03e72b	0.03220288
192	0x3d326fff	0.04356384
193	0x3ca81279	0.020516621
194	0x3bfe5a44	0.0077622253
195	0x3d9eea36	0.07759516
196	0x3e277310	0.16352487
197	0x3d8819c8	0.066455424
198	0xbd12953a	-0.035786845
199	0xbc3604cf	-0.011109545
200	0xbdf037f4	-0.11729422
201	0x3c5a8637	0.013337663
202	0x3be5ea4c	0.0070164558
203	0xbd710e46	-0.058851503
204	0x3d5e42d9	0.05426297
205	0xbd6a3dbd	-0.057187784
206	0x3e280abe	0.16410348
207	0xbd6610c3	-0.05616833
208	0xbc96e06b	-0.018417558
209	0xbb903fa4	-0.004402118
210	0x3bdbe0a2	0.006710128
211	0x3b8cabbe	0.004292934
212	0x3dbc116d	0.09183011
213	0x3e95c2da	0.29250222
214	0xbcfde8e3	-0.030994838
215	0xbd30db49	-0.043177877
216	0xbc9f43fb	-0.019441595
217	0x3c2ff424	0.01073936
218	0xbd747991	-0.059686247
219	0x3c40dbb6	0.011771133
220	0x3c1a43e9	0.009415605
221	0xbd425d7f	-0.047452446
222	0x3cf12840	0.029438138
223	0xbda4d20d	-0.080478765
224	0x3da491ca	0.080356196
225	0x3dcd276d	0.100172855
226	0x3ccb2c66	0.024801444
227	0x3ca3a1fc	0.019974701
228	0xbbf78818	-0.0075540654
229	0xbebb5a7c	-0.36592472
230	0xbd5d0a84	-0.053965107
231	0x3c5941b2	0.013260292
232	0x3bd23592	0.0064150775
233	0x3db76cad	0.08956275
234	0x3a24e5e7	0.00062903616
235	0x3dfe1a2b	0.12407335
236	0xbb702c4c	-0.0036647497
237	0x3e7885aa	0.24269739
238	0xbc4e4c16	-0.0125913825
239	0x3df62309	0.12018401
240	0xbdce435d	-0.10071442
241	0x3d6d28df	0.057900306
242	0x3cc0b570	0.023524016
243	0x3d63c84d	0.055610944
244	0xbd89ed9e	-0.06734775
245	0xbd3901fc	-0.045167908
246	0xbd04c328	-0.032412678
247	0x3d82cc91	0.06386674
248	0xbd1bb762	-0.038016684
249	0x3c09e734	0.0084169395
250	0xbd455534	-0.04817696
251	0xbd29eed8	-0.041487545
252	0xbc964c5f	-0.018346963
253	0xbe930fab	-0.2872289
254	0x3cdb9f83	0.02680946
255	0xbcbcfa76	-0.023068648

fc1.bias f4 [256]
0	0xbd8dcb62	-0.06923558
1	0xbdcde9b0	-0.10054338
2	0x3d92546a	0.07145007
3	0x3d17cb06	0.037058853
4	0xbcbe7c01	-0.023252489
5	0xbd21bc38	-0.03948614
6	0xbdcf3921	-0.10118318
7	0xbe03ea94	-0.12882453
8	0xbdefd135	-0.11709825
9	0xbe063bdf	-0.13108777
10	0xbdfc8562	-0.12330128
11	0x3d21715e	0.039414756
12	0xbdfe2050	-0.12408507
13	0x3c4c64a0	0.012475163
14	0x3dc6389e	0.096787676
15	0xbd85f32f	-0.06540524
16	0x3d45afbf	0.048263308
17	0x3dbd2e9d	0.092374064
18	0xbe294c8d	-0.16533108
19	0x3dde4358	0.108526886
20	0x3e06393a	0.13107768
21	0x3e2665c5	0.1624976
22	0xbd622e4b	-0.05521993
23	0x3dc89708	0.09794432
24	0xbe0586a9	-0.1303965
25	0xbbc70181	-0.0060731773
26	0x3d98580a	0.07438667
27	0x3c0b0895	0.008485933
28	0x3ce3ac1e	0.027792033
29	0xbdab0e09	-0.08352286
30	0xbdf68bd1	-0.120383866
31	0x3d95f07f	0.073212616
32	0xbe432f61	-0.19061042
33	0xbc9c24d7	-0.019060535
34	0xbcaf59f6	-0.021405201
35	0xbe338708	-0.17531979
36	0xbe4703cb	-0.1943504
37	0xbe0f990e	-0.1402323
38	0xbdbe70a5	-0.09298829
39	0xbcfc13ce	-0.030771162
40	0x3df6881b	0.12037679
41	0xbe36a754	-0.17837268
42	0xbd82657b	-0.06367012
43	0xbe24dfca	-0.16100994
44	0x3dc67672	0.096905604
45	0xbe06b46f	-0.13154767
46	0xbcac452e	-0.021029081
47	0xbd01fd49	-0.031735692
48	0xbd87d177	-0.06631749
49	0x3dd54998	0.104144275
50	0x3d1d05ee	0.038335733
51	0x3d881563	0.06644704
52	0x3e01a292	0.12659672
53	0xbd8042bd	-0.06262729
54	0x3d842bb9	0.06453652
55	0x3e18b22d	0.14911719
56	0xbdb1bde5	-0.08678798
57	0xbd922f83	-0.071379684
58	0xba9f8c9c	-0.0012172642
59	0xbe046c8a	-0.1293203
60	0xbc858c7c	-0.01630234
61	0x3bc56f7e	0.006025254
62	0xbd640bdb	-0.05567537
63	0x3d88da28	0.06682235
64	0xbe31e214	-0.17371398
65	0xbd971688	-0.07377344
66	0x3cfa2ec1	0.030539872
67	0xbc38aa16	-0.01127102
68	0x3d83fece	0.064450845
69	0xbcfe5dde	-0.031050619
70	0xbe07fd86	-0.13280305
71	0xbe1dd39b	-0.15412752
72	0xbd1107a1	-0.035407666
73	0xbda153a0	-0.07877278
74	0xbe4a40ea	-0.19751325
75	0xbd89a3b7	-0.06720679
76	0x3dd96c51	0.10616363
77	0x3e18e66b	0.14931647
78	0x3c810c87	0.015753044
79	0xbd42875c	-0.04749237
80	0xbdde839e	-0.10864948
81	0x3e0c8739	0.13723458
82	0xbca851a1	-0.020546736
83	0x3c95e87c	0.018299334
84	0xbdbc94f9	-0.09208102
85	0xbdcc7cac	-0.09984717
86	0x3d6748d1	0.056465928
87	0xbda263a3	-0.079291604
88	0xbd64be41	-0.055845503
89	0xbd696c73	-0.05698819
90	0xbd8b5e99	-0.068051524
91	0xbd5d7d95	-0.054074842
92	0xbe50bfc6	-0.20385656
93	0x3de1c73a	0.110243276
94	0x3ce29a32	0.027661417
95	0xbca9baf6	-0.020719033
96	0x3d9c9b8a	0.07646854
97	0x3ccf70fd	0.025322432
98	0xbd7206bf	-0.059088465
99	0x3e437cc9	0.1909057
100	0xbc2c0ca9	-0.010501065
101	0xbe25deac	-0.16198224
102	0x3db8bda8	0.09020549
103	0xbd75716a	-0.059922613
104	0xbe01242b	-0.12611453
105	0xbcbd8fdb	-0.023139885
106	0x3cf09e78	0.029372439
107	0x3dc7fefa	0.0976543
108	0xbdfd0471	-0.12354363
109	0xbdfc3fb5	-0.12316839
110	0xbdce26cc	-0.10065994
111	0xbdb974f1	-0.09055508
112	0x3e2385ed	0.15969057
113	0xbce220b4	-0.027603485
114	0x3d6fcbc1	0.058543924
115	0x3c6d21be	0.014473377
116	0x3d04581a	0.032310583
117	0xbd5ebc36	-0.05437871
118	0x3d8c99ab	0.06865247
119	0x3dc59137	0.09646838
120	0x3cf80101	0.030273916
121	0xbe0641ad	-0.13110991
122	0xbd71c8d2	-0.059029408
123	0x3daef34c	0.08542499
124	0xbde51eac	-0.11187491
125	0xbe02ae86	-0.12761888
126	0xbe240c8d	-0.16020413
127	0xbc1dc038	-0.009628348
128	0x3da5542b	0.080726944
129	0xbd5fb7c6	-0.05461862
130	0x3de1993c	0.11015555
131	0x3da43784	0.08018401
132	0xbdd85b5f	-0.10564303
133	0xbd8f840d	-0.070076086
134	0x3e07a8a0	0.13247919
135	0x3d9ca261	0.07648159
136	0xbda23cf5	-0.07921783
137	0xbda10dbe	-0.07863949
138	0x3d0d2e0d	0.034467746
139	0x3d968119	0.07348842
140	0xbd87eebe	-0.06637333
141	0xbde0b929	-0.109728165
142	0x3e20474f	0.15652202
143	0x3c330cb7	0.010928324
144	0xbe23c5e6	-0.15993461
145	0x3d1458b7	0.036217418
146	0x3bb187d2	0.0054178024
147	0x3e076dc8	0.13225472
148	0x3d64b0f1	0.055832807
149	0x3c560914	0.013063688
150	0xbd92ace2	-0.07161881
151	0xbda72d41	-0.081629284
152	0x3c94e043	0.018173343
153	0x3c3b113f	0.011417686
154	0x3b62f313	0.0034629747
155	0x3df56c07	0.11983495
156	0x3d9d0c99	0.076684184
157	0xbe126ec8	-0.14300072
158	0xbc8355e5	-0.016032169
159	0xbd187882	-0.0372243
160	0x3d43555f	0.047688838
161	0x3db0040f	0.08594524
162	0xbc8537d9	-0.016261982
163	0x3dcaa92c	0.09895548
164	0x3cc06dfb	0.023489943
165	0x3ca4136a	0.020028789
166	0xbd7bfb4f	-0.061518963
167	0xbd9b2db3	-0.07577076
168	0xbc873b46	-0.016507756
169	0x3d466a3b	0.048441153
170	0x3e0bcfe3	0.13653521
171	0xbdbd9a1f	-0.09257912
172	0xbe0a54e7	-0.1350895
173	0xbdbaed22	-0.09127261
174	0x3da6d6a7	0.081464104
175	0x3dd920aa	0.10601933
176	0xbc5b5b25	-0.01338843
177	0xbdd79852	-0.105271
178	0x3d3d4baf	0.046214756
179	0xbdbfa464	-0.09357527
180	0x3d8016b0	0.06254327
181	0xbdc369c3	-0.09541657
182	0x3c02d4d6	0.007985314
183	0xbb8b98c4	-0.0042601544
184	0x3db37517	0.087625675
185	0xbdda8308	-0.106695235
186	0x3d819591	0.06327356
187	0x3ccbd368	0.02488108
188	0xbca487d5	-0.020084301
189	0xbde80345	-0.113287486
190	0x3e04d490	0.12971711
191	0xbdb3b406	-0.08774571
192	0xbce94722	-0.028476302
193	0xbd89d2fd	-0.06729696
194	0xbd86bef1	-0.06579388
195	0x3d6838b4	0.0566947
196	0x3d9063d3	0.0705029
197	0xbcced85c	-0.025249653
198	0x3e276a27	0.16349088
199	0x3d759ee3	0.05996598
200	0x3c82f0bc	0.015983932
201	0xbba2e09a	-0.0049706222
202	0xbba387c8	-0.0049905516
203	0xbdd647d6	-0.1046292
204	0x3caa072d	0.020755375
205	0xbd95cac3	-0.07314064
206	0x3d34eccb	0.044171136
207	0x3d3da15f	0.046296474
208	0x3db5669a	0.0885746
209	0x3dd74c34	0.105125815
210	0xbb6fe51e	-0.003660507
211	0xbd66329b	-0.056200605
212	0x3e0bf77a	0.13668624
213	0xbe537ac8	-0.20652306
214	0xbd9b8453	-0.07593598
215	0x3ce8fecd	0.028441811
216	0x3dcd8080	0.10034275
217	0x3d21aee4	0.03947343
218	0xbe075947	-0.1321765
219	0x3c98fe0d	0.018675828
220	0xbdb3e142	-0.08783199
221	0x3dc72b3f	0.097250454
222	0xbe032f3c	-0.12810987
223	0x3c9fc344	0.01950229
224	0xb98216f8	-0.00024812645
225	0xbd912170	-0.07086456
226	0x3d7a7540	0.061146975
227	0x3d91dcf3	0.07122221
228	0xbac42116	-0.0014963474
229	0x3bc18d9c	0.0059067737
230	0x3df53c9f	0.11974453
231	0x3dbe32f6	0.09287064
232	0xbdc4855a	-0.09595747
233	0x3e143891	0.14474703
234	0x3e216c83	0.1576405
235	0x3ce7f17e	0.028313395
236	0x3c4a27a2	0.012338551
237	0xbd8b26f8	-0.06794542
238	0xbd8d8558	-0.06910199
239	0xbd1f1110	-0.03883463
240	0xbd87aeb6	-0.0662512
241	0x3d488e1f	0.048963662
242	0x3d24fa02	0.04027749
243	0x3c86f2b8	0.01647316
244	0xbdb9fc46	-0.090813205
245	0xbdddb096	-0.10824697
246	0xbd88b5eb	-0.06675323
247	0x3ca80d89	0.020514267
248	0xbd22fb06	-0.039790176
249	0xbdced710	-0.10099614
250	0xbdbba09c	-0.09161493
251	0x3d0007ef	0.031257566
252	0x3bb479aa	0.0055076675
253	0xbd79c015	-0.0609742
254	0x3ce7bc79	0.028288113
255	0xbe1404a2	-0.14454892

fc2.weight f4 [128, 256]
0	0xbde31bee	-0.110893115
1	0x3cf54719	0.029941129
2	0xbc97fe0e	-0.01855376
3	0x3d8e004d	0.06933651
4	0xbe339dc8	-0.17540658
5	0xbc98078a	-0.018558282
6	0xbdb51670	-0.0884217
7	0xbe06d36b	-0.13166587
8	0xbd568b5c	-0.052378997
9	0x3db8dfda	0.09027071
10	0x3d541da6	0.051786087
11	0xbd6e4f52	-0.058181114
12	0xbc3f7421	-0.011685402
13	0x3dc7feef	0.097654216
14	0xbde6a5fd	-0.112621285
15	0x3d861318	0.065466106
16	0xbe29b1a9	-0.16571678
17	0xbe34d207	-0.17658244
18	0x3c90c3be	0.017671462
19	0xbb999c3a	-0.004687813
20	0xbbf8dc64	-0.007594632
21	0xbddcad2e	-0.10775219
22	0x3cd723d8	0.026262209
23	0x3e7119ee	0.23545048
24	0x3e1c64f6	0.15272889
25	0xbd7d2063	-0.061798465
26	0x3cdcf75a	0.026973415
27	0xbd4a9d60	-0.04946649
28	0xbdb5137e	-0.088416085
29	0x3da6bce3	0.08141496
30	0xbcdf9570	-0.027292937
31	0x3c8ff7ec	0.017574273
32	0x3c8f8b2d	0.017522419
33	0x3c4e5234	0.012592841
34	0xbd93574d	-0.07194386
35	0x3d5aa7c4	0.05338265
36	0x3c2a5346	0.0103958305
37	0x3d5d7b17	0.054072466
38	0x3dccf351	0.100073464
39	0xbbdaca85	-0.0066769742
40	0x3be37cf9	0.006942388
41	0xbca90143	-0.020630484
42	0x3c303003	0.010753634
43	0x3d87d1a9	0.066317864
44	0xbe176d00	-0.14787674
45	0x3d856c53	0.06514802
46	0x3d13c1ed	0.036073614
47	0xbbcab8b0	-0.0061865672
48	0x3c27906c	0.010227304
49	0x3d9f1b54	0.07768884
50	0xbc999916	-0.018749755
51	0xbd5cac2f	-0.053875145
52	0xbe007f34	-0.12548524
53	0xbe7e930c	-0.24860781
54	0xbe108bd5	-0.14115842
55	0xbd2cc935	-0.042184073
56	0x3d182640	0.037145853
57	0x3e057009	0.1303102
58	0xbd2514a2	-0.04030288
59	0xbdbabad5	-0.09117667
60	0x3cddbd84	0.027067907
61	0x3c99b1c4	0.018761523
62	0xbda9435c	-0.08264801
63	0x3bc8ae58	0.006124299
64	0xbd1931f0	-0.03740114
65	0xbccc04ce	-0.024904635
66	0xbd988bab	-0.074485146
67	0xbcf1a76b	-0.029498776
68	0xbb48c16e	-0.0030632871
69	0xb9e62ce5	-0.00043902468
70	0xbe032cc2	-0.12810043
71	0xbd77605a	-0.060394622
72	0xbbaab5cc	-0.00520966
73	0x3cfbd618	0.030741736
74	0x3d81f9b3	0.063464545
75	0xbcf63296	-0.030053418
76	0xbe6b543b	-0.2298135
77	0xbcbbb658	-0.022914097
78	0xbae85323	-0.0017724972
79	0x3d2a34f4	0.041554406
80	0xbe1f6c65	-0.15568693
81	0xbd6fdda9	-0.058561
82	0xbe2d7f76	-0.16943154
83	0xbdc20d1d	-0.094751574
84	0xbdced97b	-0.10100075
85	0x3b18db6a	0.002332414
86	0xbdc6ef83	-0.09713652
87	0xbde33768	-0.11094552
88	0xbc99acec	-0.018759213
89	0xbd638b89	-0.055552993
90	0x3cf1e489	0.02952792
91	0x3d9b8e57	0.075955085
92	0xbda32419	-0.079658695
93	0x3d95c4f9	0.0731296
94	0x3de06015	0.10955826
95	0xbe1a518f	-0.15070175
96	0xbdf342e6	-0.11877994
97	0x3d3ffa92	0.04686982
98	0x3c08a988	0.008341201
99	0xbd90b5f2	-0.07065953
100	0x3d9ec734	0.07752839
101	0xbd0a025c	-0.033693656
102	0x3d516791	0.05112416
103	0xbdbcce32	-0.09219016
104	0x3d929bef	0.07158648
105	0xbd62a6df	-0.055334922
106	0xbc9d1ce7	-0.01917882
107	0x3d28efcb	0.04124431
108	0x3e2929d6	0.16519865
109	0xbc3bddc6	-0.011466449
110	0xbcfb719a	-0.030693818
111	0xbb6c8f91	-0.0036096314
112	0xbd24343a	-0.04008887
113	0x3b6f57d0	0.0036520846
114	0xbdf76587	-0.12079912
115	0xbde475c1	-0.11155272
116	0x3ca0508d	0.01956966
117	0x3d6fe5d9	0.05856881
118	0xbc467da9	-0.012114921
119	0xbbb59f00	-0.005542636
120	0xba399cb3	-0.000708054
121	0x3d7900b4	0.060791686
122	0x3dd1b9c6	0.102405116
123	0xbdab7f36	-0.08373873
124	0x3dd2a879	0.1028604
125	0x3cfd2150	0.030899674
126	0x3c2c6ea3	0.010524425
127	0xbd45c43f	-0.048282858
128	0x3bc02a00	0.005864382
129	0x3dde0d97	0.10842436
130	0xbdcd94d5	-0.10038153
131	0xbbbb4274	-0.005714709
132	0xbc2eb024	-0.010662112
133	0x3cb9798b	0.022640964
134	0x3d23b49a	0.039967157
135	0xbd503ea6	-0.050840996
136	0x3da5e63a	0.08100553
137	0xbd7866ef	-0.06064504
138	0xbda88379	-0.082282014
139	0x3cde14c6	0.027109515
140	0x3d0c8b18	0.034312338
141	0x3c448147	0.011993713
142	0xbdac508a	-0.08413799
143	0x3d2ae727	0.04172435
144	0x3dece213	0.11566558
145	0x3db61fc6	0.08892779
146	0xbca87bbf	-0.02056682
147	0xbd7b8582	-0.06140662
148	0xbcdf9eaa	-0.027297337
149	0xbca40edd	-0.020026619
150	0xbd37bac4	-0.044855848
151	0xbde563c4	-0.112006694
152	0x3cc63d17	0.024199052
153	0xbcd64850	-0.026157528
154	0xbd893b3f	-0.067007534
155	0x3d138d69	0.03602353
156	0x3d5e27d6	0.05423721
157	0x3da76bff	0.081748955
158	0xbc314803	-0.010820392
159	0xbd96afa2	-0.07357718
160	0xbe15ea87	-0.14640246
161	0x3db22bcf	0.08699762
162	0xbc0bac5a	-0.0085249785
163	0xbc433dda	-0.011916602
164	0x3cb4c457	0.022066278
165	0xbddae115	-0.10687462
166	0xbd4f6130	-0.050629795
167	0x3d399919	0.04531202
168	0x3d396473	0.04526181
169	0x3aaa4df3	0.0012993201
170	0x3d9a96a6	0.07548265
171	0xbd0aa8bc	-0.033852324
172	0xbe152107	-0.1456338
173	0xbeb8b65b	-0.36076626
174	0xbd010336	-0.031497203
175	0x3dc0c1e8	0.09411985
176	0x3c914935	0.017735103
177	0xbe6fd6e4	-0.23421818
178	0x3c03049b	0.0079967035
179	0xbc8eb97c	-0.01742243
180	0xbd77d830	-0.060508907
181	0x3b935c62	0.004497097
182	0x3d1ad246	0.03779819
183	0x3da4355c	0.0801799
184	0x3d1c2448	0.038120538
185	0xba80729e	-0.0009799784
186	0xbe03b99e	-0.12863776
187	0x3cd4b433	0.025964832
188	0xbe97b4fc	-0.29630268
189	0x3c698b92	0.014254468
190	0x3d97be55	0.0740935
191	0xbc9aa3d4	-0.018876947
192	0xbda52a75	-0.08064739
193	0xbe29721b	-0.16547434
194	0xbdc54329	-0.096319504
195	0x3e27e06f	0.16394208
196	0x3d651fe0	0.0559386
197	0xbb4da179	-0.0031376763
198	0xbd6f20fb	-0.058381062
199	0x3d295723	0.041342866
200	0xbd6881b6	-0.056764327
201	0x3d5bbedf	0.053648826
202	0xbc5411d6	-0.012943706
203	0xbd71622b	-0.05893151
204	0xbbdf31bc	-0.0068113487
205	0x3cb053eb	0.02152439
206	0xbda16e0f	-0.0788232
207	0xbdda9f48	-0.10674912
208	0x3dcd55e7	0.1002615
209	0xbe31efc0	-0.17376614
210	0x3bc11a92	0.00589306
211	0xbc85919c	-0.016304784
212	0x3d82c70c	0.063856214
213	0x3d7afbe2	0.06127537
214	0xbd108d39	-0.03529093
215	0xbdad7b91	-0.08470834
216	0xbd995a05	-0.07487873
217	0xbb4b0ba7	-0.0030982287
218	0x3d06c282	0.03290034
219	0x3d82aad1	0.06380237
220	0xbd5aa3cf	-0.053378876
221	0xbd9769a3	-0.073931955
222	0x3cf707b1	0.030155035
223	0x3c868222	0.016419474
224	0xbd1608b0	-0.03662938
225	0xbdba9e22	-0.09112193
226	0x3c13b257	0.0090146875
227	0x3a8aed7a	0.0010599338
228	0xbc8b3d13	-0.016996896
229	0x3d41ea16	0.047342382
230	0x3d9069eb	0.07051452
231	0x3d0c029d	0.03418218
232	0xbd532145	-0.0515454
233	0xbd448c1a	-0.047985174
234	0xbe1018c7	-0.14071952
235	0xbe052145	-0.13000973
236	0x3dd2d838	0.10295147
237	0xbb1b6340	-0.002371028
238	0x3d7a31e4	0.061082736
239	0xbc815021	-0.015785279
240	0x3c2a2788	0.010385402
241	0x3ca52b85	0.020162353
242	0x3da67ab2	0.08128871
243	0x3d0a1048	0.033706933
244	0x3cafbeb7	0.021453245
245	0x3d36f77e	0.04466962
246	0x3ca9dcf0	0.020735234
247	0xbd20f856	-0.03929933
248	0xbe009af4	-0.1255911
249	0xbc28e83d	-0.010309276
250	0xbd440bbe	-0.04786276
251	0x3cbc1d80	0.022963285
252	0x3c14f6d3	0.009092051
253	0x3cb3b06d	0.021934712
254	0xbdb3825a	-0.08765097
255	0x3de3c120	0.1112082

fc2.bias f4 [128]
0	0x3ca7c38d	0.020478988
1	0xbc04993c	-0.008093175
2	0xbd16ded9	-0.036833618
3	0xbd111bce	-0.035426907
4	0xba817176	-0.0009875733
5	0xbd7a5c31	-0.061123077
6	0x3d468838	0.048469752
7	0x3cac8931	0.021061512
8	0x3cbc1200	0.022957802
9	0xbd80a8f4	-0.06282225
10	0xbd2ceaea	-0.04221622
11	0xbd261362	-0.04054583
12	0x3be692c0	0.007036537
13	0xbd11848f	-0.03552681
14	0x3d886912	0.066606656
15	0xbcaa35b8	-0.020777568
16	0xbc1e681d	-0.009668377
17	0x3d42c036	0.047546588
18	0xbd35bed7	-0.044371452
19	0xbc957670	-0.018244952
20	0x3be6d1b6	0.0070440425
21	0x3c8b33a1	0.016992392
22	0x3d302f33	0.043013763
23	0xbd4014fb	-0.04689501
24	0x3c95252b	0.0182062
25	0x3e10a28e	0.1412451
26	0x3d536c62	0.051617034
27	0xbd913add	-0.070913054
28	0xbd3844bc	-0.044987425
29	0x3cab0a0c	0.020878814
30	0xbcd0dfc6	-0.025497328
31	0xbd89ea37	-0.06734126
32	0x3d1515cc	0.03639774
33	0x3c862bf6	0.016378384
34	0x3d369a27	0.044580605
35	0x3d74d94a	0.059777535
36	0x3ca1f1ae	0.019768562
37	0xbcb82652	-0.02247921
38	0x3d4ad2a7	0.0495173
39	0x3d0b3f1a	0.033995725
40	0xbd813733	-0.063093565
41	0x3b99438c	0.0046772417
42	0x3d07f654	0.0331939
43	0xbd7db171	-0.0619368
44	0x3d165221	0.036699418
45	0x3d0af2b5	0.03392287
46	0x3d02c0d3	0.031922173
47	0xbbfdad29	-0.0077415896
48	0x3c9a3a40	0.018826604
49	0x3c5a89dc	0.013338532
50	0x3d0941b2	0.033509918
51	0xbc6a344e	-0.014294697
52	0xbcd5e7bb	-0.026111474
53	0xbcec6f6f	-0.02886173
54	0x3c87243e	0.016496774
55	0x3c62a296	0.013832709
56	0xbc30344b	-0.010754655
57	0x3dae1d7a	0.08501716
58	0xbd2a4fb9	-0.041579936
59	0x3d095a95	0.03353365
60	0xbd59755c	-0.05309044
61	0x3db1f4e8	0.0868929
62	0xbd9ed902	-0.07756235
63	0x3d80ec0a	0.06295021
64	0xbd8b28cc	-0.06794891
65	0x3db46654	0.0880858
66	0xbce3598d	-0.027752662
67	0x3dde0f4d	0.10842762
68	0x3da49bfc	0.08037564
69	0xbd32682b	-0.043556374
70	0xbcc3e404	-0.023912437
71	0x3d3d5770	0.046225965
72	0xbcb354ae	-0.021890964
73	0x3c6e21d9	0.014534437
74	0xbda54dfa	-0.080715135
75	0xbc994f74	-0.018714644
76	0x3d4bd94b	0.049767774
77	0x3d5a36b8	0.05327484
78	0xbd2eb2db	-0.04265104
79	0xbc4984ad	-0.012299699
80	0xbdc0f8a1	-0.09422422
81	0x3d0db906	0.03460028
82	0xbd8c37f8	-0.06846613
83	0x3d00d6b2	0.03145475
84	0xbdbb34dd	-0.09140942
85	0xbc4a25ba	-0.012338096
86	0x3b4c9279	0.0031215234
87	0xbddb3865	-0.10704116
88	0x3d13085b	0.03589664
89	0xbc87d618	-0.01658158
90	0xbd315123	-0.04329027
91	0xbcec943d	-0.02887928
92	0x3e05e20f	0.13074516
93	0xbc724c97	-0.014788768
94	0xbc9082b6	-0.017640453
95	0xbcf60132	-0.030029867
96	0x3cb5336a	0.022119243
97	0x3caef408	0.021356598
98	0xbca9f5e5	-0.020747134
99	0x3c0013ee	0.007817252
100	0xbc9b0800	-0.018924713
101	0xbd5e4a56	-0.05427011
102	0x3d4e233f	0.050326582
103	0xbccbdce3	-0.0248856
104	0xbbec75d5	-0.007216195
105	0x3d7b9aff	0.061427113
106	0x39eb83f9	0.0004492102
107	0xbd407440	-0.046985865
108	0x3b7279b7	0.0036998817
109	0x3cce3bab	0.025174936
110	0xbc7146c3	-0.014726344
111	0x3d1d4107	0.038392093
112	0x3d285406	0.041095756
113	0xbd0c25a1	-0.034215573
114	0x3cf5cbb5	0.030004362
115	0xbde471c7	-0.11154514
116	0x3d32a0eb	0.043610495
117	0xbd5fc4c7	-0.05463102
118	0xbdca713a	-0.098848775
119	0x3bcbcbac	0.006219348
120	0xbd1d8a16	-0.038461767
121	0xbd3ed7c1	-0.046592478
122	0xbb0a7c2d	-0.0021131143
123	0xbc0fc603	-0.008775237
124	0xbc3ca555	-0.011514028
125	0x3d18a006	0.037261985
126	0xbc4a3777	-0.012342325
127	0xbd99b2ef	-0.07504832

fc3.weight f4 [1, 128]
0	0x3cca89e1	0.024723949
1	0x3d259abf	0.04043078
2	0xbd93cf81	-0.072173126
3	0xbb37adba	-0.0028027133
4	0xbcd4213b	-0.025894752
5	0x3c47e509	0.012200602
6	0x3cde245e	0.02711695
7	0x3acbf4fe	0.0015560684
8	0xbcdf017f	-0.027222393
9	0x3d7314b5	0.05934592
10	0xbd0d9f59	-0.034575794
11	0x3c885973	0.016644215
12	0x3d48e860	0.049049735
13	0x3d12ccf9	0.03584001
14	0xbd85431a	-0.06506939
15	0x3c699092	0.01425566
16	0xb90c490a	-0.0001337865
17	0xbd2d3413	-0.04228599
18	0x3d22f4c7	0.03978422
19	0xbda637de	-0.081161246
20	0x3cd950f3	0.026527857
21	0xbdc1a95d	-0.094561316
22	0x3cccaa44	0.024983533
23	0xbd94b870	-0.07261741
24	0xbdedf3e5	-0.11618785
25	0xbd029095	-0.031876165
26	0x3d04132b	0.032244842
27	0xbd9959b2	-0.07487811
28	0x3d41eb59	0.047343586
29	0x3bdc60bc	0.006725399
30	0xbcadb8c3	-0.021206265
31	0x3db58bd9	0.088645644
32	0xbd27a679	-0.040930245
33	0xbd20fd03	-0.03930379
34	0x3d13c88a	0.03607992
35	0x3d88f4f9	0.0668735
36	0x3e075b80	0.13218498
37	0xbd5852ab	-0.052813213
38	0xbd0356b5	-0.032065112
39	0xbd7b80e5	-0.06140222
40	0x3cfcfe8c	0.030883096
41	0xbd619d2b	-0.055081528
42	0x3cbf46ae	0.023349132
43	0xbd35e15e	-0.04440438
44	0xbd38f015	-0.045150835
45	0x3c3a5d52	0.011374788
46	0x3c01a73f	0.00791341
47	0xbd5c3c47	-0.053768422
48	0x3c817546	0.01580299
49	0x3d10fc68	0.035396963
50	0xbd5a95ab	-0.05336539
51	0xbe7c59b8	-0.246436
52	0xbdf749b6	-0.12074606
53	0x3c755e76	0.0149761345
54	0x3ba20132	0.00494399
55	0x3c89238b	0.016740581
56	0xbe023ab8	-0.12717712
57	0x3d7a6550	0.061131775
58	0xbc996e1e	-0.018729266
59	0xbe10c8de	-0.14139125
60	0xbd6cd0f1	-0.05781645
61	0x3c30501e	0.010761289
62	0x3d248ff9	0.040176366
63	0x3d114caa	0.035473503
64	0xbdce1101	-0.10061837
65	0xbcbb1917	-0.022839112
66	0x3d39550e	0.04524713
67	0x3d67b6e2	0.056570895
68	0x3ccd4ea0	0.025061905
69	0x3dbc92a3	0.09207656
70	0x3d150557	0.036382046
71	0x3d8f08c2	0.06984092
72	0x3bedfc6b	0.0072627566
73	0x3d5f0200	0.054445267
74	0xbcb0c06c	-0.021576129
75	0xbd265138	-0.0406048
76	0x3d1af1af	0.037828144
77	0xbd1e79f8	-0.038690537
78	0x3d27293e	0.040810816
79	0x3d1cc6aa	0.0382754
80	0xbde9f858	-0.11424321
81	0xbc8b3bcd	-0.016996289
82	0x3ba2be35	0.004966522
83	0xbd304d98	-0.04304275
84	0x3d2ab553	0.04167683
85	0x3d4788d0	0.04871446
86	0x3c49360c	0.012280952
87	0xbdec119e	-0.11526798
88	0xbcfb3826	-0.030666422
89	0xbda82cc5	-0.08211664
90	0xbcc419c7	-0.023938073
91	0xbc4a132b	-0.012333672
92	0x3c490481	0.01226914
93	0x3c806c6f	0.015676705
94	0xbc1484d8	-0.009064876
95	0x3bed5b21	0.0072435294
96	0xbdf2ef23	-0.11862018
97	0x3d2d8b1d	0.042368997
98	0x3d343cb0	0.04400319
99	0xbe1efb96	-0.1552566
100	0x3d19cf58	0.037551254
101	0xbc887b5c	-0.016660385
102	0xbd41902d	-0.047256637
103	0x3cff396a	0.031155307
104	0xbd808549	-0.06275422
105	0xbd3248b3	-0.043526363
106	0xbc8cf34a	-0.017205853
107	0x3d009b28	0.03139797
108	0x3d8ef43f	0.0698018
109	0x3d9dffed	0.077148296
110	0x3beda86c	0.0072527435
111	0xbdad0aa8	-0.08449298
112	0xbbd951eb	-0.00663208
113	0xbd423715	-0.04741581
114	0x3db97423	0.090553544
115	0x3d45f8d1	0.048332993
116	0x3d94795c	0.0724971
117	0x3c859d75	0.016310433
118	0xbde8f343	-0.113745235
119	0x3c5e5383	0.013569715
120	0x3d023b4f	0.031794842
121	0x3d0d0287	0.03442624
122	0x3d36b222	0.044603474
123	0x39f090d6	0.00045884278
124	0x3cf1411b	0.02944999
125	0x3d06ca6a	0.03290788
126	0x3c3f0be5	0.011660551
127	0xbdf13da9	-0.11779339
