checkpoints/checkpoint_random_agent0__critic.pth (torch_old, 187419 bytes, 5 tensors)

fc1.weight f4 [256, 52]
-0.046559002 -0.033557907 0.013239971 -0.022318479 0.17698619 -0.11190854 -0.0055787596 0.063430086
-0.0043296553 -0.043454852 -0.040001646 -0.04842951 0.09458936 -0.07366312 0.033569187 -0.0156049635
0.015406819 -0.09698559 0.009206075 -0.08759581 -0.17014372 -0.0075077424 -0.021855718 -0.009875508
-0.052777294 -0.0780543 0.015654935 0.032470375 -0.09680839 -0.082494594 -0.012836814 -0.03378628
-0.023125932 -0.04467385 0.031895462 -0.009232828 0.02495509 -0.085735306 -0.020581452 0.029588947
-0.0793013 -0.13354269 -0.0024327778 0.07446704 0.17446941 0.030200275 0.009303843 -0.039875902
0.2134691 -0.036163684 -0.12596685 -0.0070060627 -0.076729424 -0.0072241286 0.008752079 0.12502803
-0.008102989 -0.07935209 -0.032400724 0.08206943 0.009073882 0.081175506 -0.042056993 0.05427954
0.035080407 -0.008865873 0.052780643 0.0025785535 -0.004036163 0.10310365 -0.046083104 -0.13382135
0.16176894 0.070041716 0.04176817 -0.03603898 -0.038241968 0.06598343 -0.06037954 0.019470735
0.09962882 -0.021446815 0.06250421 0.059419513 0.12223729 0.11721442 0.020641217 0.020009723
-0.09359022 -0.048153963 0.013569533 0.085401155 0.18167761 0.23068586 0.0033744525 0.10036475
-0.15981193 -0.039824218 0.04312661 0.11387114 0.08168101 -0.019888358 0.39201203 -0.07843032
-0.019803086 0.01371975 0.043428756 0.059125505 0.03840082 -0.22750305 -0.035565864 0.06713405
0.032805193 0.07013961 -0.015496709 0.04335753 -0.020639416 -0.28693682 -0.0012748078 0.06692833
-0.08002791 0.05338976 -0.024415327 -0.13952522 0.04259595 -0.34437186 0.0289364 -0.07159565
-0.09866599 0.12952119 -0.049904726 -0.043556985 0.027194642 -0.12540922 -0.0408844 -0.00941394
-0.007978839 0.18641149 -0.06800282 -0.070359096 -0.025558406 -0.27217606 0.0011457833 -0.14991058
-0.04712566 0.16103213 -0.022060016 -0.087947555 -0.054913547 -0.33344078 -0.016359653 -0.12162099
0.36068434 -0.1134009 0.08054342 -0.082066566 -0.032537073 -0.10690543 0.038875863 -0.051330887
-0.11109732 0.08604212 -0.0010588093 0.002524758 0.033101585 -0.04465708 0.016681673 -0.06825034
-0.011851007 0.03814124 -0.0013821269 -0.041034076 0.111509606 -0.082032256 -0.010070776 -0.054737736
0.11169843 -0.08861718 0.041561224 -0.0060942983 0.015152902 -0.14530768 0.038133338 -0.024291812
0.11256652 0.11969485 -0.042308126 0.021627603 0.031041624 -0.10310836 -0.0065268734 -0.017647253
0.079957 -0.02043829 -0.0009246073 0.027745223 0.09246801 0.0028799747 -0.019749258 0.03866064
-0.08678335 -0.04620412 0.023054231 -0.009081122 0.55917 0.09947337 -0.042475756 -0.07996317
0.02977637 0.01724265 0.013076172 -0.002107223 0.09981374 0.08621127 -0.024628917 -0.049577553
0.003811038 -8.277907e-05 -0.023009565 0.084874086 -0.022366406 -0.007143391 0.06611483 -0.0073759975
0.10338608 0.085992895 0.0822683 0.06529601 -0.090434544 -0.17284784 0.0035014863 0.0585812
0.047097947 0.050524157 -0.017061029 0.034937516 -0.011648294 0.036406144 -0.030281315 0.031048235
-0.04650788 0.042532284 0.057375886 0.081275 -0.03556622 -0.004858873 0.0014391183 0.08953109
0.042681262 0.008229735 -0.06702232 -0.047252566 0.06453346 -0.09415302 0.007964122 -0.028834071
00000000: a7b4 3ebd 0474 09bd 77ec 583c 3ed5 b6bc
00000010: de3b 353e 4e30 e5bd 07ce b6bb a2e7 813d
00000020: c8df 8dbb b7fd 31bd c4d8 23bd 065e 46bd
00000030: 11b8 c13d b1dc 96bd d87f 093d f6ab 7fbc
00000040: e26c 7c3c 62a0 c6bd 14d5 163c 6f65 b3bd
00000050: 283a 2ebe 8203 f6bb c30a b3bc e2cc 21bc
00000060: 012d 58bd efda 9fbd c73e 803c a8ff 043d
00000070: 7a43 c6bd edf2 a8bd 8051 52bc 7b63 0abd
00000080: 9872 bdbc edfb 36bd d1a4 023d 4a45 17bc
00000090: 9e6e cc3c fe95 afbd 6f9a a8bc 8564 f23c
000000a0: b868 a2bd 6abf 08be 3d6f 1fbb 2d82 983d
000000b0: 1ca8 323e 9166 f73c 256f 183c ea54 23bd
000000c0: a597 5a3e 5f20 14bd 74fd 00be 1d93 e5bb
000000d0: 5124 9dbd 62b8 ecbb e164 0f3c 5907 003e
000000e0: 66c2 04bc 5983 a2bd 9fb6 04bd 0414 a83d
000000f0: 9faa 143c 583f a63d f443 2cbd 3954 5e3d
00000100: 79b0 0f3d 2b42 11bc 8430 583d f3fc 283b
00000110: ca41 84bb 0228 d33d a3c1 3cbd 7708 09be
00000120: c2a6 253e 0872 8f3d 1a15 2b3d 9c9d 13bd
00000130: 9ca3 1cbd 5222 873d 8950 77bd 1781 9f3c
00000140: 320a cc3d 3bb1 afbc 3502 803d e061 733d
00000150: 8b57 fa3d 1d0e f03d c517 a93c 6eeb a33c
00000160: 3bac bfbd 173d 45bd bf52 5e3c cde6 ae3d
00000170: b209 3a3e ea38 6c3e eb25 5d3b 098c cd3d
00000180: bda5 23be b81e 23bd 87a5 303d 4635 e93d
00000190: 6048 a73d e9ec a2bc cdb5 c83e 13a0 a0bd
000001a0: 153a a2bc cdc8 603c 5ae2 313d 962d 723d
000001b0: 2e4a 1d3d 8ff6 68be 83ad 11bd 947d 893d
000001c0: bd5e 063d 5ba5 8f3d e9e5 7dbc aa97 313d
000001d0: fe13 a9bc 62e9 92be 7417 a7ba b811 893d
000001e0: ace5 a3bd 39af 5a3d a702 c8bc b3df 0ebe
000001f0: 1779 2e3d 8251 b0be 070c ed3c bda0 92bd
00000200: 6511 cabd 34a1 043e e668 4cbd cf68 32bd
00000210: 4cc7 de3c 466b 00be 6776 27bd ed3c 1abc
00000220: adb9 02bc a7e2 3e3e 1045 8bbd 6e18 90bd
00000230: dd5f d1bc a95a 8bbe 1c2e 963a 2982 19be
00000240: d606 41bd 9be5 243e 35b7 b4bc d91d b4bd
00000250: 07ed 60bd c0b8 aabe ae04 86bc 6d14 f9bd
00000260: 9eab b83e bb3e e8bd f3f3 a43d 8412 a8bd
00000270: 9845 05bd 3cf1 dabd 4c3c 1f3d 5640 52bd
00000280: fe86 e3bd da36 b03d bfc7 8aba 6976 253b
00000290: 8795 073d 58ea 36bd 01a8 883c d6c6 8bbd
000002a0: ba2a 42bc fd39 1c3d 7c28 b5ba 5913 28bd
000002b0: 265f e43d 8700 a8bd e5ff 24bc ad34 60bd
000002c0: 25c2 e43d ed7c b5bd 1a3c 2a3d aeb2 c7bb
000002d0: e143 783c 89cb 14be b431 1c3d 9fff c6bc
000002e0: 4789 e63d 9322 f53d 494b 2dbd 5f2c b13c
000002f0: 014b fe3c 7a2a d3bd 62df d5bb f990 90bc
00000300: 7fc0 a33d 336e a7bc 5861 72ba f349 e33c
00000310: de5f bd3d f5bd 3c3b 32c9 a1bc 9f5a 1e3d
00000320: 78bb b1bd 8840 3dbd 3adc bc3c fdc8 14bc
00000330: c425 0f3f b2b8 cb3d 0ffb 2dbd bbc3 a3bd
00000340: 93ed f33c 7540 8d3c 713d 563c 5619 0abb
00000350: 256b cc3d 898f b03d 95c2 c9bc d511 4bbd
00000360: 9cc2 793b ad99 adb8 8e7e bcbc 77d2 ad3d
00000370: c139 b7bc 1b13 eabb 3667 873d 5ab2 f1bb
00000380: 15bc d33d 0b1d b03d 487c a83d eab9 853d
00000390: bf35 b9bd 06ff 30be 3179 653b d7f2 6f3d
000003a0: c7e9 403d 6bf2 4e3d 92c3 8bbc a41a 0f3d
000003b0: 7cd8 3ebc 9c1e 153d 8510 f8bc de58 fe3c
000003c0: 0c7f 3ebd 5536 2e3d fa02 6b3d 8273 a63d
000003d0: e2ad 11bd 2e37 9fbb cca0 bc3a 135c b73d
000003e0: 8cd2 2e3d 03d6 063c 0043 89bd e88b 41bd
000003f0: 1e2a 843d 4cd3 c0bd f37b 023c 6e35 ecbc

fc1.bias f4 [256]
0.007848493 -0.15272306 0.09443486 0.09555351 -0.050375234 -0.11970482 -0.19077142 -0.13442639
-0.14178841 -0.2277703 -0.13851413 0.068463095 -0.112489834 0.013979129 0.08239473 -0.0040601725
-0.01643083 0.056722704 -0.1362959 0.080997676 0.056607373 0.16254117 -0.07100324 0.1344792
-0.072345726 0.040945366 0.12162275 -0.04944525 0.022240909 -0.080251046 -0.12543398 0.11189622
-0.15230148 0.014867704 0.0011031609 -0.03520691 -0.12120363 -0.108383656 -0.10020069 -0.052879572
0.101959564 -0.16029276 -0.08964973 -0.16707331 0.07566904 -0.13177846 -0.042277366 -0.07813225
-0.11023433 0.0564623 0.01753513 0.06094055 0.08857245 -0.057679404 0.05672607 0.09092866
-0.045187537 0.02217532 -0.05499082 -0.0602182 0.04025016 -0.019904269 -0.1225827 0.049405247
-0.20419964 -0.04875465 0.063226186 0.017038101 0.15414359 0.024639286 -0.19478238 -0.0967897
-0.0054663266 -0.089026265 -0.059612647 -0.08184532 0.15770966 0.12706317 0.0038914105 -0.0725971
-0.16127077 0.18680213 0.024871346 0.013299945 -0.05811586 -0.07537194 0.14611779 -0.016714012
-0.118314765 0.004330965 -0.15675128 -0.10182539 -0.16561827 0.10697573 -0.01745824 0.053840414
0.0693786 -0.015418356 -0.04096032 0.10279667 0.006799733 -0.17990543 0.10582767 -0.12665673
-0.14318503 0.02596771 0.049724914 0.019836724 -0.08924486 -0.18424408 -0.13888128 -0.12148535
0.22263001 0.02154372 0.11925746 -0.021325346 0.08693144 -0.10019693 0.06811319 -0.03603135
0.009011371 -0.0876649 -0.15466987 0.053467527 0.02777655 -0.080022745 -0.21102068 -0.09577111
0.0014993459 -0.06407084 0.03513895 0.028542966 -0.18364549 -0.002897215 0.13740005 0.019900683
-0.06709329 -0.21629408 0.065567486 0.06982954 -0.0035901829 -0.035602856 0.15564275 0.10819327
-0.15859343 -0.0070773386 -0.07637834 0.10785271 0.016559346 0.12394968 -0.1076732 -0.1828194
0.013408402 0.14897667 -0.072623074 0.019114515 0.110301375 -0.07511857 -0.02106377 -0.003576358
0.054823026 -0.001394633 0.031252004 0.033751216 0.06653578 -0.033697568 -0.05644553 -0.05867766
0.12707101 0.04852183 0.092937745 -0.080396235 -0.083302416 -0.111412734 0.07156129 0.000555077
0.040114027 -0.09873686 0.057918403 -0.15465766 0.03193474 -0.08685666 -0.008225902 -0.051893804
0.07933073 -0.06952232 0.094652124 -0.016775161 0.024652379 -0.1434378 0.13302957 -0.05913825
-0.07267362 -0.07673921 -0.08665029 0.16180977 0.17298646 -0.015543966 0.08171435 -0.025444021
0.028202182 -0.025544737 0.009689582 -0.11453919 0.042697005 0.0015280859 0.061695706 -0.036149558
0.05510228 -0.00152554 0.091441534 -0.063442655 0.07660643 -0.13795474 -0.04320484 0.05226422
0.079442404 0.026580764 -0.14687316 0.034729075 -0.11552971 0.13063611 -0.09407191 -0.0112053035
-0.0463316 -0.039776452 -0.010523604 -0.005134298 0.034904394 -0.0060111647 0.13075455 0.13370118
-0.033127893 0.1178141 0.16274299 -0.08579604 0.14282104 -0.070447095 -0.04834458 -0.0820599
-0.18473397 0.0009625189 0.06857212 0.110501744 -0.16178547 -0.090130515 -0.037275754 0.16002373
-0.049882017 -0.06450707 -0.07121296 0.005978282 -0.06000843 -0.055974893 0.11777003 -0.115425386
00000000: f796 003c 6f63 1cbe 1067 c13d 8fb1 c33d
00000010: 4356 4ebd cd27 f5bd 9559 43be 12a7 09be
00000020: fb30 11be 9e3c 69be a6d6 0dbe 6136 8c3d
00000030: 1261 e6bd b708 653c 91be a83d 320b 85bb
00000040: f399 86bc 1156 683d 2791 0bbe 1ce2 a53d
00000050: 22dd 673d 3171 263e 266a 91bd eab4 093e
00000060: ff29 94bd 54b6 273d 5915 f93d 1a87 4abd
00000070: 9132 b63c a95a a4bd c471 00be d829 e53d
00000080: ebf4 1bbe ac97 733c f097 903a 1f35 10bd
00000090: 9c39 f8bd 40f8 ddbd 0536 cdbd 4098 58bd
000000a0: 2dd0 d03d c923 24be 479a b7bd 4415 2bbe
000000b0: 5ff8 9a3d eff0 06be 082b 2dbd cd03 a0bd
000000c0: 89c2 e1bd 0345 673d d5a5 8f3c cc9c 793d
000000d0: 7965 b53d 3d41 6cbd 9859 683d ce38 ba3d
000000e0: 9116 39bd 04a9 b53c 0e3e 61bd 5ca7 76bd
000000f0: 5add 243d 470e a3bc a30c fbbd 285d 4a3d
00000100: b619 51be f5b2 47bd bb7c 813d 7d93 8b3c
00000110: d1d7 1d3e 54d8 c93c 0875 47be ae39 c6bd
00000120: df1e b3bb 6753 b6bd 642c 74bd 859e a7bd
00000130: a47e 213e d91c 023e 0907 7f3b caad 94bd
00000140: 2a24 25be 0f49 3f3e febe cb3c 03e8 593c
00000150: e50a 6ebd 9b5c 9abd e79f 153e d3eb 88bc
00000160: 034f f2bd c5ea 8d3b 6883 20be d489 d0bd
00000170: d697 29be 1716 db3d 9504 8fbc c487 5c3d
00000180: 5e16 8e3d 469d 7cbc 02c6 27bd 0f87 d23d
00000190: 4bd0 de3b 2139 38be 2dbc d83d 4db2 01be
000001a0: 199f 12be 3cba d43c 5aac 4b3d a080 a23c
000001b0: 02c6 b6bd 7baa 3cbe e536 0ebe 50cd f8bd
000001c0: 1ff9 633e 757c b03c 413d f43d 7eb2 aebc
000001d0: 1c09 b23d 0c34 cdbd ee7e 8b3d 9c95 13bd
000001e0: 6ea4 133c a889 b3bd c761 1ebe c400 5b3d
000001f0: a68b e33c f7e2 a3bd ce15 58be a523 c4bd
00000200: b385 c43a 9337 83bd dced 0f3d f0d2 e93c
00000210: 900d 3cbe 34df 3dbb 99b2 0c3e c206 a33c
00000220: 3568 89bd 327c 5dbe 3f48 863d ca02 8f3d
00000230: 4649 6bbb 4dd4 11bd d060 1f3e 6f94 dd3d
00000240: 5166 22be 05e9 e7bb 3f6c 9cbd e2e1 dc3d
00000250: 77a7 873c 54d9 fd3d c483 dcbd 0235 3bbe
00000260: eaae 5b3c 578d 183e 68bb 94bd 0b96 9c3c
00000270: b0e5 e13d c4d7 99bd ed8d acbc 5561 6abb
00000280: 1c8e 603d 1ecc b6ba 1a02 003d b73e 0a3d
00000290: e943 883d 7606 0abd 6e33 67bd fc57 70bd
000002a0: e71e 023e d4be 463d 2556 be3d c8a6 a4bd
000002b0: 759a aabd 5c2c e4bd ba8e 923d 9682 113a
000002c0: 9b4e 243d 8d36 cabd d93b 6d3d 945e 1ebe
000002d0: 00ce 023d e8e1 b1bd efc5 06bc 998e 54bd
000002e0: 2678 a23d b861 8ebd f9d8 c13d 106c 89bc
000002f0: c9f3 c93c 5ce1 12be e738 083e f33a 72bd
00000300: e8d5 94bd 7229 9dbd b575 b1bd 76b1 253e
00000310: 5d23 313e 1eac 7ebc da59 a73d fb6f d0bc
00000320: 4308 e73c 3243 d1bc 0dc1 1e3c 8693 eabd
00000330: 0ee3 2e3d 0e4a c83a a3b4 7c3d 8f11 14bd
00000340: eeb2 613d a1f4 c7ba b345 bb3d 39ee 81bd
00000350: d5e3 9c3d 0244 0dbe 8ff7 30bd 0213 563d
00000360: b3b2 a23d e7bf d93c eb65 16be 1340 0e3d
00000370: d79a ecbd 79c5 053e c6a8 c0bd 7396 37bc
00000380: 34c6 3dbd a2ec 22bd 326b 2cbc 9d3d a8bb
00000390: e9f7 0e3d 4ef9 c4bb 85e4 053e f6e8 083e
000003a0: 1db1 07bd 8548 f13d 19a6 263e d6b5 afbd
000003b0: ae3f 123e 9146 90bd f704 46bd 050f a8bd
000003c0: e72a 3dbe 8d51 7c3a 8a6f 8c3d bd4e e23d
000003d0: 17ab 25be 5996 b8bd 76ae 18bd 43dd 233e
000003e0: 1651 4cbd 481c 84bd 1ad8 91bd 77e5 c33b
000003f0: 66cb 75bd ee45 65bd 6a31 f13d 2564 ecbd

fc2.weight f4 [128, 256]
-0.04997639 0.01737195 -0.02488062 -0.0042182114 -0.06745542 0.049572624 -0.018550532 0.046351105
-0.06908833 0.028417105 0.0039542285 -0.041709963 -0.03853046 0.03246711 -0.07849141 0.03514938
-0.17787474 0.10155793 0.039526105 0.009631152 -0.071192704 -0.068107046 -0.03970624 0.09455569
0.05723842 -0.070162244 0.08113257 -0.11716902 0.053700972 -0.03483281 -0.07546135 0.0319895
-0.019291023 -0.16248532 -0.044798 -0.091536134 0.04705429 0.010867769 -0.011173897 0.032274988
-0.019669138 -0.045638006 0.01207443 -0.0484701 -0.11630116 0.08152547 0.0776095 0.031164639
-0.035690695 -0.006956649 -0.04786032 -0.03979329 -0.061253585 -0.07125491 -0.119797945 -0.02434322
0.07778041 0.062661156 -0.13644052 0.04203777 -0.045558 0.059908304 -0.119796574 -0.04994708
-0.0022878784 -0.030131007 -0.0908269 -0.1865599 0.0040788264 -0.0072737755 -0.062191613 -0.027255092
0.012453813 0.028207194 -0.038484342 -0.12753765 -0.08230385 0.028947957 0.038586676 0.061744362
-0.09114745 -0.15750334 -0.055602204 -0.11319518 -0.14346458 -0.08095599 -0.06948548 0.07845701
0.0023336653 -0.053902816 -0.04927791 0.07189781 -0.024053175 0.017036371 0.040912494 -0.06489058
-0.12980184 0.051390182 -0.065234594 -0.008441963 0.091463685 -0.05281553 0.08335476 -0.04489791
-0.0055067344 -0.033656582 0.07184989 0.058767278 0.055667143 0.072065145 -0.019629475 0.03105454
-0.22173119 -0.10113096 -0.029212143 -0.1222279 -0.044121955 0.048427783 -0.11867919 -0.07382934
-0.14044626 0.058890387 0.041289754 -0.09475607 -0.0013472976 -0.015729578 -0.08512157 -0.039470136
-0.058166273 -0.055703793 -0.011392302 -0.053590875 -0.089441486 -0.0073891524 -0.027769677 -0.09966659
-0.112130545 -0.070549265 0.019423565 0.008830146 0.048094552 0.0073464313 -0.12813115 0.049616
-0.046294164 -0.013165288 0.05137744 0.0747412 -0.055407733 -0.040427625 0.06454425 -0.048521936
-0.02756385 -0.11642572 -0.08709381 -0.034130767 0.039058182 0.010960088 -0.061879113 -0.006916259
0.0026831294 0.04271601 0.06154895 -0.034966446 0.069184884 -0.10479167 0.0023780474 0.05901873
-0.026754994 -0.01082824 0.08805124 0.09064733 -0.07229753 -0.060936585 -0.058728192 0.017588103
-0.007465617 -0.1132922 -0.034530748 -0.054607246 -0.06527047 -0.22330198 -0.09378174 0.0010965364
0.06631429 0.09271113 -0.08770515 -0.021898942 -0.09238409 0.00949207 0.049689535 -0.12970322
-0.04081661 -0.045232244 -0.05133153 0.047261775 -0.008873451 0.076392256 -0.09814063 -0.055365298
-0.08348191 0.044847507 -0.046549175 -0.08701675 0.047157865 -0.022379296 -0.13526896 0.017419469
0.017052859 -0.03715337 0.012592334 -0.07564308 0.05229454 -0.095070675 -0.052151423 -0.006018157
-0.09353172 0.007767106 -0.013770429 -0.02156392 -0.12218049 -0.033059157 -0.10093778 0.015485418
-0.0043026498 -0.096819505 -0.0148298545 0.04491392 -0.11631039 0.048383877 -0.06409144 0.048844706
0.063552484 -0.121811196 -0.07243221 -0.19403937 0.04381157 -0.11193512 -0.13607988 0.033008028
-0.015836801 -0.022316601 0.06080887 -0.09581 0.019653993 0.06598321 -0.059643563 -0.044713885
-0.12626626 -0.0035325421 0.033558138 -0.020323968 -0.024770476 -0.106955186 -0.02655956 0.0765077
00000000: 0bb4 4cbd 9f4f 8e3c 71d2 cbbc ec38 8abb
00000010: 1126 8abd aa0c 4b3d 49f7 97bc a8da 3d3d
00000020: 2f7e 8dbd fdca e83c 7992 813b 11d8 2abd
00000030: 1ed2 1dbd 3bfc 043d 1bc0 a0bd ccf8 0f3d
00000040: cc24 36be 9bfd cf3d 20e6 213d fbcb 1d3c
00000050: 7bcd 91bd b57b 8bbd 03a3 22bd 6aa6 c13d
00000060: d572 6a3d 39b1 8fbd d528 a63d 50f6 efbd
00000070: 8df5 5b3d d9ac 0ebd 7b8b 9abd 6c07 033d
00000080: 3508 9ebc 8d62 26be 1c7e 37bd 4c77 bbbd
00000090: 00bc 403d ba0e 323c b912 37bc c732 043d
000000a0: 2c21 a1bc ebee 3abd d4d3 453c 9588 46bd
000000b0: 4d2f eebd d3f6 a63d bbf1 9e3d fc4c ff3c
000000c0: 6830 12bd 9af4 e3bb 2f09 44bd 4afe 22bd
000000d0: 0ae5 7abd 18ee 91bd a058 f5bd 6f6b c7bc
000000e0: 564b 9f3d 7e54 803d 10b7 0bbe cc2f 2c3d
000000f0: 079b 3abd 6962 753d e857 f5bd 4f95 4cbd
00000100: 3bf0 15bb 4dd5 f6bc 7403 babd 8f09 3fbe
00000110: ada7 853b da58 eebb a2bc 7ebd 1246 dfbc
00000120: 140b 4c3c c612 e73c c2a1 1dbd 3b99 02be
00000130: ec8e a8bd 4424 ed3c 100d 1e3d a8e7 7c3d
00000140: 84ab babd 8e48 21be 23bf 63bd e0d2 e7bd
00000150: 61e8 12be 41cc a5bd 674e 8ebd 12ae a03d
00000160: 68f0 183b 33c9 5cbd a2d7 49bd 293f 933d
00000170: 2a0b c5bc dc8f 8b3c dc93 273d 5ae5 84bd
00000180: c6ea 04be 837e 523d b799 85bd 2950 0abc
00000190: 5051 bb3d 1955 58bd e7b5 aa3d dfe6 37bd
000001a0: d671 b4bb 7cdb 09bd 0926 933d f5b5 703d
000001b0: 3b03 643d e496 933d fecd a0bc 1766 fe3c
000001c0: 800d 63be c01d cfbd 4e4e efbc 9f52 fabd
000001d0: 39b9 34bd 365c 463d 130e f3bd d633 97bd
000001e0: 25d1 0fbe 0c37 713d 721f 293d 780f c2bd
000001f0: ce97 b0ba 51db 80bc 3854 aebd 70ab 21bd
00000200: c23f 6ebd a929 64bd c7a6 3abc 1b82 5bbd
00000210: 192d b7bd b420 f2bb 3c7d e3bc ff1d ccbd
00000220: b3a4 e5bd 227c 90bd 2b1e 9f3c 51ac 103c
00000230: cbfe 443d 55ba f03b d034 03be 263a 4b3d
00000240: f39e 3dbd 38b3 57bc 2771 523d ea11 993d
00000250: 38f3 62bd 7097 25bd c72f 843d f0be 46bd
00000260: 95cd e1bc 9c70 eebd 3d5e b2bd b4cc 0bbd
00000270: 79fb 1f3d f191 333c f474 7dbd c9a1 e2bb
00000280: 71d7 2f3b fcf6 2e3d c01a 7c3d fa38 0fbd
00000290: ceb0 8d3d 049d d6bd 04d9 1b3b a0bd 713d
000002a0: 4a2d dbbc ee68 31bc 3554 b43d 4fa5 b93d
000002b0: ba10 94bd a498 79bd f98c 70bd ed14 903c
000002c0: 22a2 f4bb be05 e8bd 1d70 0dbd d9ab 5fbd
000002d0: 86ac 85bd 46a9 64be a410 c0bd a8b9 8f3a
000002e0: c9cf 873d 55df bd3d c29e b3bd 6965 b3bc
000002f0: df33 bdbd a184 1b3c 4187 4b3d ecd0 04be
00000300: 512f 27bd 7245 39bd 0341 52bd 9095 413d
00000310: f361 11bc 8b73 9c3d f4fd c8bd b9c6 62bd
00000320: 90f8 aabd 05b2 373d 59aa 3ebd d635 b2bd
00000330: 9b28 413d c954 b7bc f283 0abe 46b3 8e3c
00000340: 70b2 8b3c 222e 18bd 1450 4e3c c2ea 9abd
00000350: cd32 563d 6ab4 c2bd bb9c 55bd f633 c5bb
00000360: 8f8d bfbd 3583 fe3b 5e9d 61bc d1a6 b0bc
00000370: c439 fabd 0a69 07bd 78b8 cebd 8db6 7d3c
00000380: 3efd 8cbb 4e49 c6bd ebf8 72bc a9f7 373d
00000390: 2434 eebd 2c2e 463d 5f42 83bd 6311 483d
000003a0: ce27 823d 2678 f9bd 5757 94bd 42b2 46be
000003b0: c373 333d 3d3e e5bd 8658 0bbe 6d33 073d
000003c0: 2ebc 81bc 4ed1 b6bc b912 793d 0938 c4bd
000003d0: 6901 a13c 3522 873d cf4c 74bd e825 37bd
000003e0: f14b 01be 3982 67bb 4274 093d 737e a6bc
000003f0: 74eb cabc 520b dbbd 6f93 d9bc 12b0 9c3d

fc2.bias f4 [128]
0.045023844 0.022903131 0.04172487 -0.058011252 0.0430252 -0.037495244 0.054361857 -0.011154795
-0.009122575 -0.067783274 0.016478462 -0.077701576 0.023073992 -0.07988496 -0.021445988 -0.07200186
0.053259477 0.018469296 -0.06848371 -0.005299424 0.0576888 0.03724268 0.026543705 0.012453765
-0.039021708 -0.06466688 0.112007976 -0.057303827 -0.018789826 0.073260546 0.0874356 -0.045914866
-0.010657028 -0.0005366466 0.028458735 0.093239106 0.019484844 -0.02413093 0.1532334 0.07034904
-0.007195226 0.03390292 0.05523164 -0.005542333 -0.011506496 -0.039247062 0.031684007 -0.03613616
0.067494124 0.03462914 0.13276729 -0.059612148 0.033916015 -0.0063963337 0.053086177 -0.07828186
0.08895938 0.041848194 -0.05062254 0.058619987 0.014850657 0.012265944 -0.082507394 -0.053254146
-0.039542973 0.112195104 -0.04824015 0.048650373 0.17703821 0.0046083056 -0.04679521 0.00088224077
-0.027621774 0.008300888 -0.10173914 -0.04173098 0.024897099 0.07433746 -0.08817881 -0.09539357
-0.04148265 0.012871761 -0.07120765 -0.09361113 -0.08592855 0.018868735 0.028386248 0.028396534
0.001061579 0.0013052338 -0.061788306 -0.01050571 0.06488861 -0.019688305 0.027993247 0.06926908
0.036146782 0.06719257 -0.022741891 0.05049847 -0.025308587 -0.0784543 0.030660233 -0.015520483
0.033309165 0.056397397 -0.062282015 0.009618292 0.0033823177 -0.012806506 -0.021741286 0.09972785
0.086633645 -0.031999372 0.12484717 -0.07060913 0.028463613 -0.06926023 -0.08740771 0.0172708
0.03520115 -0.034099963 -0.12394943 -0.025965068 -0.032693002 0.005675415 0.0063254745 -0.015850458
00000000: ec6a 383d 599f bb3c b3e7 2a3d 359d 6dbd
00000010: 313b 303d 9d94 19bd 8aaa 5e3d 9ac2 36bc
00000020: da76 15bc f5d1 8abd d7fd 863c 0122 9fbd
00000030: ab05 bd3c ba9a a3bd 7faf afbc b675 93bd
00000040: 9c26 5a3d ec4c 973c 3041 8cbd caa6 adbb
00000050: 174b 6c3d c88b 183d 2f72 d93c e00a 4c3c
00000060: 3ad5 1fbd 1270 84bd 7064 e53d 6bb7 6abd
00000070: 1fed 99bc a009 963d 7011 b33d 3a11 3cbd
00000080: d19a 2ebc bead 0cba 4b22 e93c 25f4 be3d
00000090: ae9e 9f3c 3aae c5bc 37e9 1c3e 2813 903d
000000a0: eec5 ebbb cadd 0a3d 923a 623d 759c b5bb
000000b0: be85 3cbc 87c1 20bd 17c7 013d 8303 14bd
000000c0: 5c3a 8a3d 49d7 0d3d 26f4 073e de2b 74bd
000000d0: 85eb 0a3d 5698 d1bb e470 593d 3d52 a0bd
000000e0: 5630 b63d 0369 2b3d 9559 4fbd 831b 703d
000000f0: 2c50 733c 19f7 483c a3f9 a8bd 0521 5abd
00000100: d0f7 21bd 8cc6 e53d 7797 45bd 9d45 473d
00000110: 8149 353e 4501 973b 56ac 3fbd 2d46 673a
00000120: 0f47 e2bc 7300 083c 9c5c d0bd 1bee 2abd
00000130: 00f5 cb3c 3d3e 983d 1897 b4bd b45d c3bd
00000140: b6e9 29bd 14e4 523c 51d5 91bd 31b7 bfbd
00000150: 4ffb afbd 9b92 9a3c 478a e83c d99f e83c
00000160: ae24 8b3a 6114 ab3a bc15 7dbd 2420 2cbc
00000170: 52e4 843d 5e49 a1bc 1852 e53c f3dc 8d3d
00000180: a60e 143d 429c 893d 344d babc 7cd7 4e3d
00000190: f453 cfbc a6ac a0bd 2b2b fb3c a049 7ebc
000001a0: 316f 083d f500 673d 6d1b 7fbd 0a96 1d3c
000001b0: e0a9 5d3b 61d2 51bc c81a b2bc 1d3e cc3d
000001c0: fb6c b13d c611 03bd e0af ff3d 859b 90bd
000001d0: 862c e93c 4fd8 8dbd d002 b3bd 7e7b 8d3c
000001e0: 152f 103d 67ac 0bbd 33d9 fdbd b2b4 d4bc
000001f0: 19e9 05bd d5f8 b93b ed45 cf3b d2d8 81bc

fc3.weight f4 [1, 128]
0.030447638 0.0377324 0.036471415 -0.015227658 -0.0337234 -0.027720857 0.033622548 -0.18057916
-0.05317197 -0.0024416698 0.03846543 -0.10448817 0.086429544 0.011718958 -0.028780527 -0.045924254
0.016297102 0.10764426 0.068720244 0.044170618 0.044286594 -0.049304657 0.025934083 0.035266906
-0.07211452 -0.04229291 0.01695384 -0.054333236 0.06802042 0.051355727 0.04391242 0.03940351
-0.14665057 0.07158822 0.09532144 0.051466722 -0.058466304 0.11397509 0.033910904 0.028658083
0.029926132 0.0450059 0.027971163 -0.039041176 -0.007212695 -0.04703698 -0.16181083 -0.1013269
0.020040251 0.04049493 0.014311146 -0.029273227 0.054519467 0.03685961 0.05417035 -0.03158778
-0.060000006 0.0542161 -0.0064937654 0.09043742 0.08698367 0.0332087 0.046009842 -0.038285494
0.0580848 0.052112184 -0.03789828 -0.03783617 0.019566003 -0.040536083 -0.026968425 -0.004259201
0.0011525647 -0.17136194 -0.05703147 0.02442997 -0.02112803 -0.07700582 0.053307444 -0.05049358
0.067402706 0.0882829 -0.08800724 -0.04994153 -0.047922477 0.033259697 0.034221243 0.03536803
-0.09337273 -0.063050784 0.0024206152 0.051267166 0.043459333 -0.09264788 0.1420986 0.10689675
0.1144988 0.020100698 0.0605714 -0.08386726 0.024202676 -0.04254842 -0.04778956 0.041087102
0.027946962 0.11398932 -0.03280128 0.040654406 0.021402072 0.083916746 -0.0031746863 0.08818303
0.013733922 -0.07517039 0.042303856 -0.075821996 -0.0017859603 6.268455e-05 -0.09018475 0.052941002
0.017520264 0.05960817 0.10936482 0.009666529 0.0497208 -0.061881315 0.09154308 -0.077712536
00000000: 536d f93c 4a8d 1a3d 0d63 153d 6d7d 79bc
00000010: 8c21 0abd da16 e3bc ccb7 093d bee9 38be
00000020: daca 59bd 6c04 20bb ed8d 1d3d e5fd d5bd
00000030: f901 b13d df00 403c 24c5 ebbc 121b 3cbd
00000040: 8081 853c 9874 dc3d 33bd 8c3d 40ec 343d
00000050: dc65 353d aef3 49bd b773 d43c 0874 103d
00000060: c7b0 93bd 553b 2dbd c8e2 8a3c 878c 5ebd
00000070: 4a4e 8b3d 625a 523d 82dd 333d 9365 213d
00000080: 912b 16be d89c 923d e337 c33d c5ce 523d
00000090: 5d7a 6fbd c66b e93d 29e6 0a3d 5bc4 ea3c
000000a0: a627 f53c 1b58 383d c823 e53c a4e9 1fbd
000000b0: 7958 ecbb d9a9 40bd bdb1 25be 7a84 cfbd
000000c0: 742b a43c 03de 253d 4c79 6a3c 68ce efbc
000000d0: ce4f 5f3d 1afa 163d bbe1 5d3d 3062 01bd
000000e0: 91c2 75bd b411 5e3d a7c9 d4bb 4137 b93d
000000f0: 7f24 b23d d905 083d d174 3c3d 40d1 1cbd
00000100: 54ea 6d3d 9673 553d 3a3b 1bbd 1afa 1abd
00000110: e248 a03c 2a09 26bd e3ec dcbc c590 8bbb
00000120: a711 973a 8179 2fbe d599 69bd 5c21 c83c
00000130: b114 adbc 3ab5 9dbd e858 5a3d 5bd2 4ebd
00000140: 6e0a 8a3d aacd b43d 243d b4bd 7d8f 4cbd
00000150: 5c4a 44bd 523b 083d 932b 0c3d 11de 103d
00000160: 343a bfbd c520 81bd 2fa3 1e3b 85fd 513d
00000170: 6a02 323d 2cbe bdbd 4c82 113e afec da3d
00000180: 597e ea3d 38aa a43c b719 783d 99c2 abbd
00000190: b144 c63c 4147 2ebd fcbe 43bd f34a 283d
000001a0: 07f1 e43c 3c73 e93d a35a 06bd 3c85 263d
000001b0: 6653 af3c 8bdc ab3d 660e 50bb 4e99 b43d
000001c0: 3e04 613c eff2 99bd cf46 2d3d 9048 9bbd
000001d0: e216 eaba 8375 8338 c8b2 b8bd aad8 583d
000001e0: a886 8f3c b227 743d aafa df3d 5c60 1e3c
000001f0: 0aa8 4b3d 4377 7dbd f07a bb3d c027 9fbd
